data/QIPEDC/W00043.npy (npy, 279968 bytes, 1 tensors)

array f8 [22, 15, 106]
0	0x0000000000000000	0.0
1	0x0000000000000000	0.0
2	0x0000000000000000	0.0
3	0x0000000000000000	0.0
4	0x0000000000000000	0.0
5	0x0000000000000000	0.0
6	0x0000000000000000	0.0
7	0x0000000000000000	0.0
8	0x0000000000000000	0.0
9	0x0000000000000000	0.0
10	0x0000000000000000	0.0
11	0x0000000000000000	0.0
12	0x0000000000000000	0.0
13	0x0000000000000000	0.0
14	0x0000000000000000	0.0
15	0x0000000000000000	0.0
16	0x0000000000000000	0.0
17	0x0000000000000000	0.0
18	0x0000000000000000	0.0
19	0x0000000000000000	0.0
20	0x0000000000000000	0.0
21	0x0000000000000000	0.0
22	0x0000000000000000	0.0
23	0x0000000000000000	0.0
24	0x0000000000000000	0.0
25	0x0000000000000000	0.0
26	0x0000000000000000	0.0
27	0x0000000000000000	0.0
28	0x0000000000000000	0.0
29	0x0000000000000000	0.0
30	0x0000000000000000	0.0
31	0x0000000000000000	0.0
32	0x0000000000000000	0.0
33	0x0000000000000000	0.0
34	0x0000000000000000	0.0
35	0x0000000000000000	0.0
36	0x0000000000000000	0.0
37	0x0000000000000000	0.0
38	0x0000000000000000	0.0
39	0x0000000000000000	0.0
40	0x0000000000000000	0.0
41	0x0000000000000000	0.0
42	0xbfeb21178f083d83	-0.8477895539853509
43	0x4005c15cf65b9341	2.719415592832235
44	0xbff0cb7e4c56347a	-1.0496809942153775
45	0x3ff5b46e5f70326e	1.3565505722100641
46	0xbfeb6f6bef9e5b4b	-0.8573512725878144
47	0x3fd483115526bdb8	0.32049973788795283
48	0xbfdd87b459e170d7	-0.4614077451458462
49	0xbfd6803663e89b0d	-0.35157546765042086
50	0xbfc24b4f68bb7539	-0.14292328466300733
51	0xbfe4c9d1ce9127f5	-0.6496361765396147
52	0xbfe630e53c592eb8	-0.6934686831168255
53	0x3fd07488e61226c7	0.25711271732198465
54	0xbfc603de10b717fe	-0.1719930249802814
55	0xbfed758b19402019	-0.9205985539601925
56	0x3f7cfc8ee608c774	0.007076795766396294
57	0xbff2607e5845720a	-1.148557991799978
58	0x3fb27d3fc0bee0c0	0.0722236486025194
59	0xbff1f0c22f3489c3	-1.1212789386705573
60	0xbfd22bce165ddbc6	-0.28392364677659676
61	0x3fe6ae587da167e9	0.708782430049948
62	0x3fce5631b7bc1f79	0.2370054385321472
63	0xbfe4efe3361fe334	-0.6542831475372624
64	0x3fd6c76a860bc049	0.35592139330311007
65	0xbff001e5b3fc10aa	-1.0004632025384503
66	0x3fd72c1fd248b2db	0.362068133693169
67	0xbff10247dbcc18a2	-1.0630568109350311
68	0x3fac992fa039228b	0.055856216724866924
69	0x3ff21ef42fc6303f	1.1325570932558688
70	0x3fdfe08a965a8dd2	0.4980799167917357
71	0xbfc6d58f479cb8ed	-0.17839232441605848
72	0x3fe17a8bace864f4	0.5462091805558473
73	0xbfe2f815b437233b	-0.5927837867576281
74	0x3fe0423170f03fe9	0.5080802160100549
75	0xbfe82b3c91a267a0	-0.7552779049321892
76	0x3fd2e7d7cf59e440	0.2954005741990535
77	0x3ff862f21fd89852	1.5241566890704417
78	0x3fe1d2ce219624cb	0.5569830566393191
79	0x3fdd5340aca2b64d	0.45820633753723855
80	0x3fe132e7bc113581	0.5374640153110449
81	0x3fb1266a702c2322	0.06699242819389586
82	0x3fde7990239b014a	0.47616961934183577
83	0xbfbbbe1707b403fb	-0.10836929262224253
84	0xc00ae49a0a9397e7	-3.3616219354907915
85	0xc00830cae61e91f7	-3.0238244989470746
86	0xbfb398485a4e6abe	-0.07654239849800157
87	0xbfd1dc674dc167a1	-0.27907736390408827
88	0xbf9bd1da60e42f30	-0.02716771332147444
89	0xbfe9fb9d5356c623	-0.811964667102249
90	0x3fbc4b1912ebbd03	0.11052090370116123
91	0xbff07d006ac37076	-1.0305179758497878
92	0xbfc1c5ad8ea961c4	-0.13884515252972396
93	0xbff04e162abb196b	-1.0190641087698065
94	0x3fb0ff17647101bb	0.06639238550361075
95	0xbfe2633fb3c44d96	-0.5746153365202413
96	0xbfbd5f51b55e49e7	-0.11473570516526586
97	0xbfe1f420101726fc	-0.5610504450098399
98	0x3fe313ddfe280ddb	0.5961751903527629
99	0x3fd75614d7923fdf	0.36462899257548814
100	0xbfe0ee7943d2d6de	-0.5291105580024256
101	0x3fd11a52ff1c405d	0.2672317019760209
102	0x3fe8558ab19c8a68	0.7604421109175066
103	0x3ffdec1b0a8fe6bc	1.8701429760534856
104	0xbfe728510d80160a	-0.7236714614561504
105	0x3ff7ec6020dc2076	1.495208862646931
106	0x0000000000000000	0.0
107	0x0000000000000000	0.0
108	0x0000000000000000	0.0
109	0x0000000000000000	0.0
110	0x0000000000000000	0.0
111	0x0000000000000000	0.0
112	0x0000000000000000	0.0
113	0x0000000000000000	0.0
114	0x0000000000000000	0.0
115	0x0000000000000000	0.0
116	0x0000000000000000	0.0
117	0x0000000000000000	0.0
118	0x0000000000000000	0.0
119	0x0000000000000000	0.0
120	0x0000000000000000	0.0
121	0x0000000000000000	0.0
122	0x0000000000000000	0.0
123	0x0000000000000000	0.0
124	0x0000000000000000	0.0
125	0x0000000000000000	0.0
126	0x0000000000000000	0.0
127	0x0000000000000000	0.0
128	0x0000000000000000	0.0
129	0x0000000000000000	0.0
130	0x0000000000000000	0.0
131	0x0000000000000000	0.0
132	0x0000000000000000	0.0
133	0x0000000000000000	0.0
134	0x0000000000000000	0.0
135	0x0000000000000000	0.0
136	0x0000000000000000	0.0
137	0x0000000000000000	0.0
138	0x0000000000000000	0.0
139	0x0000000000000000	0.0
140	0x0000000000000000	0.0
141	0x0000000000000000	0.0
142	0x0000000000000000	0.0
143	0x0000000000000000	0.0
144	0x0000000000000000	0.0
145	0x0000000000000000	0.0
146	0x0000000000000000	0.0
147	0x0000000000000000	0.0
148	0xbfead18d0372c111	-0.8380799357746885
149	0x40069e864d36f625	2.827404597511093
150	0xbff15318e85d0ea1	-1.0827874256801027
151	0x3ff6e0ddb1ab3844	1.4298989238918844
152	0xbfebcaa33e64defb	-0.8684860437997196
153	0x3fd523cb3694045e	0.33030968027020957
154	0xbfdbe5e2f786e8e8	-0.43590616390760184
155	0xbfd0a78bbdd0aad4	-0.2602261880553389
156	0xbfb519c3820fb3ff	-0.08242437291455927
157	0xbfdba5646e8edacd	-0.4319697456043457
158	0xbfe626fa9d48f7ed	-0.6922581741307546
159	0x3fc83566618440b5	0.18912963639787042
160	0xbfc2f8251952af66	-0.14819778191064897
161	0xbff05f55c4388471	-1.0232751526712287
162	0x3fa19dea999fd551	0.034407931569072965
163	0xbff49d4e1bd5df0a	-1.288404568416754
164	0x3fbbef1ccefa8852	0.10911731770696179
165	0xbff4bb91c30f0a5d	-1.295793306301355
166	0xbfd11b7c2fc67bbb	-0.2673025576167977
167	0x3fe4bf62730916d6	0.6483623739993287
168	0x3fcd6badf5b38455	0.22984861848002205
169	0xbfe7a7ab48333078	-0.7392174158244549
170	0x3fd3c9cb664297f6	0.3091915606149763
171	0xbff0990cf544ab26	-1.037365873412179
172	0x3fd3475b96b6295a	0.3012303325455342
173	0xbff09bd6f5bb5fae	-1.038046798601481
174	0x3fb5a6b2b90dc625	0.08457486169734148
175	0x3ff14c3c9af2edd0	1.081112485188772
176	0x3fe021669b3d3386	0.5040772468579326
177	0xbfcb036e067b03e6	-0.2110421687739567
178	0x3fe02238e504fbfc	0.5041775200878642
179	0xbfe20ef74f7cdbb4	-0.564326911210506
180	0x3fdc312919152778	0.44050052117801597
181	0xbfe48cc3e0196c31	-0.642183244413337
182	0x3fd5b8f32c4eb1bc	0.33941344572920307
183	0x3ff799deffc4ddec	1.4750661841370585
184	0x3fe273545064840a	0.5765782900017495
185	0x3fdc7e6f5384cf7c	0.4452169719327157
186	0x3fe0f34e940df220	0.529700555008791
187	0x3fbb054be3b8ed50	0.10554956731441689
188	0x3fdcf7cbb85a5d30	0.4526242542574037
189	0xbf2a16ebca1ea782	-0.00019904735841907653
190	0xc00aba0d9e541666	-3.340846287671229
191	0xc008128da06a438b	-3.009059193842807
192	0xbfb05c267e2675f6	-0.06390610294189245
193	0xbfd5c3e6aaaf13b1	-0.34008185070370717
194	0xbf9b1588e0a1eba3	-0.026449335775832982
195	0xbfea09a3a4bcad08	-0.8136766641158895
196	0x3fbbb6a1532232bb	0.10825546531323031
197	0xbff07d98f180a182	-1.0306634362878815
198	0xbfc1a5199aa47f07	-0.13785095263391886
199	0xbff04bb93a5da7ad	-1.0184871940532318
200	0x3fb07406e353692e	0.0642704300875365
201	0xbfe273781bf25bff	-0.5765953584512998
202	0xbfbd8434f264d970	-0.11529856603451605
203	0xbfe2045fd3d0caf5	-0.5630339753173234
204	0x3fe2f29f8a4e3f1d	0.5921170903475034
205	0x3fd784dc8db79f13	0.36748422469689607
206	0xbfe0d8e7d4915f4a	-0.5264777328220387
207	0x3fd0a030cba8d6a8	0.2597772587645104
208	0x3fe820ba5cc8a2d2	0.7539951145345987
209	0x3ffeac70442f5a24	1.9170992530322417
210	0xbfe6cd4dcd596be0	-0.7125615130165635
211	0x3ff7545c5b96bb9f	1.4580958917319788
212	0x0000000000000000	0.0
213	0x0000000000000000	0.0
214	0x0000000000000000	0.0
215	0x0000000000000000	0.0
216	0x0000000000000000	0.0
217	0x0000000000000000	0.0
218	0x0000000000000000	0.0
219	0x0000000000000000	0.0
220	0x0000000000000000	0.0
221	0x0000000000000000	0.0
222	0x0000000000000000	0.0
223	0x0000000000000000	0.0
224	0x0000000000000000	0.0
225	0x0000000000000000	0.0
226	0x0000000000000000	0.0
227	0x0000000000000000	0.0
228	0x0000000000000000	0.0
229	0x0000000000000000	0.0
230	0x0000000000000000	0.0
231	0x0000000000000000	0.0
232	0x0000000000000000	0.0
233	0x0000000000000000	0.0
234	0x0000000000000000	0.0
235	0x0000000000000000	0.0
236	0x0000000000000000	0.0
237	0x0000000000000000	0.0
238	0x0000000000000000	0.0
239	0x0000000000000000	0.0
240	0x0000000000000000	0.0
241	0x0000000000000000	0.0
242	0x0000000000000000	0.0
243	0x0000000000000000	0.0
244	0x0000000000000000	0.0
245	0x0000000000000000	0.0
246	0x0000000000000000	0.0
247	0x0000000000000000	0.0
248	0x0000000000000000	0.0
249	0x0000000000000000	0.0
250	0x0000000000000000	0.0
251	0x0000000000000000	0.0
252	0x0000000000000000	0.0
253	0x0000000000000000	0.0
254	0xbfea8e6d8c41e714	-0.8298862208750699
255	0x4006249ae6b2d672	2.767873575527852
