data/QIPEDC/W00093.npy (npy, 381728 bytes, 1 tensors)

array f8 [30, 15, 106]
0.899968223917141 -1.3201687713166543 -0.7602281419786593 0.619212084382898 0.722682355453792 -1.256116716446737 -0.687503788743063 0.5262625282025973
0.6148086193264041 -0.9577223795586486 -0.5989952918726915 0.52537970472068 0.5980948440596222 -0.6735016593737733 -0.516879917455219 0.6570020456486245
0.6085031260847189 -0.45761049698383927 -0.48570977160183565 0.847808938118011 0.5680200633464106 -0.9397627455063495 -0.7912989565833065 0.9097285007547887
0.4915578616138551 -0.5521074435211628 -0.7240345563433049 0.9128847852009288 0.45567995885119633 -0.31052132813626004 -0.6935518371592567 0.8852739637371871
0.4320619814462378 -0.10909170700067002 -0.6944746652810762 0.8902133121332417 0.686538843653417 -0.8766158296317642 -0.7716485141792341 1.1070346504359974
0.6464095634448538 -0.42758143585908714 -0.6593233155575188 0.7622430216827689 0.5156282990628773 -0.45029160407928653 -0.5806467556459581 0.6254516588411733
0.5086015893256304 -0.25084788850393774 -0.5832573130286582 0.5284550969535587 0.6886770333902063 -1.0921532125053224 -0.7527739962557404 0.8371104164856376
0.6534379662460423 -0.7534220591102758 -0.611635631505328 0.8576849791052613 0.6415225761084247 -0.8417020792572042 -0.5463903931694505 0.7002785878276515
0.6495117576051327 -0.9549054567219066 -0.5578591226502027 0.598638701565628 0.7909474692721854 -1.0714167866201374 -0.7032945473208486 0.8772571163745576
0.736423111152125 -0.7992073375665973 -0.5820768893087657 0.8641082871753208 0.7298891623688969 -0.8705987699640894 -0.5318531766876063 0.7458738306145957
0.7385806050589105 -0.9720327415654937 -0.5441084284603503 0.6594762392681034 -0.1988435052972509 1.7535785741167227 -0.14377954944012084 1.9911221780261203
-0.02120746194443218 -0.7931523397815062 0.07791198948857032 -0.9841299716831464 -0.1628360402445353 -0.9916414404876094 0.04977006845042274 -0.5504082609291343
-0.11942177427186637 -0.5387311759528004 0.47383603981145317 0.1482549782838714 -0.6368496823142571 0.4414870445075163 1.120090341411674 1.272345454831522
-0.7812934803870284 1.995975711211288 0.9177818774339085 -1.3566532883694769 -0.9047784177147044 0.7432563910450629 0.7252821273684216 -1.26366999557752
-0.795428718899632 0.5823405807278427 0.612891378095059 -0.9687414137105729 -0.6615767224819816 0.5489406635328907 0.5908852818920671 -0.6824835240360375
-0.5292300390630977 0.6295291984863132 0.6019631350897376 -0.4761024044072935 -0.4525676551648667 0.7688631803101882 0.5437402073985341 -0.9464712666830245
-0.8168238137760339 0.9842795274134483 0.4677611178116288 -0.5467446528044321 -0.5593776093154157 1.0069767333855753 0.43396986947922644 -0.29800319360239463
-0.5095967716757024 0.8169740220901538 0.40747379276480217 -0.08554220604501582 -0.5405973433232049 0.6999057213179362 0.6644343223472722 -0.8964813655469129
-0.8226750795637472 1.1838751549227766 0.626469061297727 -0.4440478624495108 -0.5699294434296425 0.7851441242988205 0.5083958592604904 -0.4391655538096376
-0.5177352593617446 0.5565946978529004 0.508008117851111 -0.2255741406940839 -0.5608830279207985 0.44789980098557114 0.6765271116498366 -1.1090432071779492
-0.8356394549074352 0.9375535499111433 0.6478618295080046 -0.74252573352157 -0.5717156530002101 0.8721992314555483 0.6446421436599434 -0.8333521695711669
-0.513505377187879 0.659880310325085 0.6557938199811357 -0.9569615848364835 -0.5435237760675041 0.55407729603496 0.7877717663213881 -1.0880287897267984
-0.8116787862136062 0.9854679917607411 0.7420214625706519 -0.7923942647721988 -0.601869310511014 0.8867535905963967 0.7378024541298812 -0.8687644704918025
-0.5521726372858832 0.7219592482021334 0.7468483392127204 -0.9824517369146426 -0.5770201782594416 0.6307318100930416 -0.20250861849774346 1.5580502538476062
-0.14739901486801896 1.7747691573995323 -0.01927352284211355 -0.7906327073760382 0.0786236009460955 -0.9805879234980194 -0.15860845409755397 -0.9872258400853554
0.048474012980560414 -0.5532133707759759 -0.11779302477333896 -0.5439505738807152 0.4720927477114457 0.1443371598095127 -0.6352437372912584 0.4375981362165676
1.1117337053210148 1.2138939006325349 -0.78000532795485 2.0597812189574882 0.9329545271234084 -1.3790565782517623 -0.9051417182832301 0.8905340540094956
0.7322807290586894 -1.282194821894228 -0.8359046109912689 0.7602470106850043 0.607350069688005 -0.9863804276136571 -0.680089232918968 0.6490027127219834
0.5752301925708954 -0.6919428462801461 -0.5237011904903929 0.6092323392373957 0.5819818160774947 -0.47607976677772323 -0.40871888280514684 0.6319189458824278
0.5416983767895484 -0.9746835637936526 -0.8185525067057368 0.9061166283132982 0.46054415015593886 -0.5404018649063088 -0.6024720508388156 0.8851644259328185
0.42744363211501346 -0.2796026281685347 -0.5077175495961983 0.8180432112272112 0.4014621180324751 -0.0638806273662497 -0.45228398540772935 0.7655268090587364
0.6663676086914058 -0.9174908345891785 -0.8157326601972662 1.1068560711609385 0.6230011679318745 -0.4309282485878758 -0.6030505177742341 0.7010445363130674
00000000: f739 2529 8acc ec3f aa16 204a 691f f5bf
00000010: 8d82 e9f7 c953 e8bf 1fcd 76dc 95d0 e33f
00000020: c43f 42bf 3620 e73f f08f 91d7 0d19 f4bf
00000030: ade1 10f2 0700 e6bf a1b1 7783 24d7 e03f
00000040: 45c9 2920 83ac e33f 1541 5b67 a9a5 eebf
00000050: 4ea3 a12c f82a e3bf 173d 3819 e9cf e03f
00000060: b38d 64cc 9723 e33f a0fc 195a 538d e5bf
00000070: 32bd adc0 478a e0bf fee8 6e27 2906 e53f
00000080: 3486 418c db78 e33f 7885 b689 7d49 ddbf
00000090: 2f29 1870 de15 dfbf a425 cf35 4021 eb3f
000000a0: 096e 7169 382d e23f bc5d 3e52 8912 eebf
000000b0: 934b 7c30 5252 e9bf c563 dff1 7e1c ed3f
000000c0: ef48 ee1a af75 df3f 64a6 b93a ddaa e1bf
000000d0: 3d63 9584 4a2b e7bf f486 2e27 5a36 ed3f
000000e0: 4b58 2d46 dc29 dd3f f190 43d9 94df d3bf
000000f0: 4fc0 559f 9331 e6bf 5c0c 4810 2a54 ec3f
00000100: eb04 0a4c e7a6 db3f 4d2b d521 6fed bbbf
00000110: 710c e9ee 2239 e6bf 856f c2a0 a07c ec3f
00000120: 489a 1d4f 20f8 e53f 2794 eda3 3c0d ecbf
00000130: 8704 8d39 58b1 e8bf 1995 32f7 69b6 f13f
00000140: 3127 da1b 63af e43f 5a0e d986 7e5d dbbf
00000150: 23ea b935 2d19 e5bf 2e6a 377a 4b64 e83f
00000160: d2bf 2beb 0680 e03f 47c5 4be0 93d1 dcbf
00000170: 81e4 4081 a894 e2bf 0d75 7e32 b303 e43f
00000180: 4e1c 1bd7 7646 e03f c748 594d e40d d0bf
00000190: ac8c 933d 0baa e2bf cd3d daa9 1ae9 e03f
000001a0: ff59 fd6a a409 e63f 3ce8 9ea5 7579 f1bf
000001b0: ff52 e67d b916 e8bf cc4b bec8 9bc9 ea3f
000001c0: 66ba dfbc f6e8 e43f ecd5 fe93 081c e8bf
000001d0: 3247 4ce3 8492 e3bf 9de1 f0c4 2772 eb3f
000001e0: dc00 815a 5a87 e43f 0951 ec32 39ef eabf
000001f0: 285d b0b4 077c e1bf e9e1 19a4 ae68 e63f
00000200: 3f02 a9e1 ccc8 e43f a08f 6ce3 958e eebf
00000210: 19da f15f fbd9 e1bf 5004 ab59 0c28 e33f
00000220: 9618 2c11 714f e93f d1b3 aeed 8524 f1bf
00000230: 6757 0691 6381 e6bf 3b62 2084 7d12 ec3f
00000240: a757 4d33 c790 e73f ec4b 3244 1b93 e9bf
00000250: 7dd5 6ab6 5fa0 e2bf c9db 336c c6a6 eb3f
00000260: 2f89 4284 405b e73f fadf 9df3 f1db ebbf
00000270: 0db4 04f4 f004 e1bf 63d2 adcb 32de e73f
00000280: 6203 06cb 73a2 e73f ce47 7568 e41a efbf
00000290: 98e2 3614 5669 e1bf 8da8 04ea 6d1a e53f
000002a0: 7308 2338 b473 c9bf 1ec3 2c68 a80e fc3f
000002b0: 50e7 5647 5e67 c2bf 4e66 cfed a2db ff3f
000002c0: af14 eead 68b7 95bf 3970 0304 8161 e9bf
000002d0: 35d8 d146 0af2 b33f 868f 6c23 fe7d efbf
000002e0: 02ef bab5 cfd7 c4bf 6715 88d4 86bb efbf
000002f0: fee4 a060 767b a93f 9871 04c9 f19c e1bf
00000300: ce8e ede6 6c92 bebf 5ab1 c129 493d e1bf
00000310: 9001 aa65 5453 de3f c265 99e5 04fa c23f
00000320: 463f c095 1261 e4bf 601e 71e0 5241 dc3f
00000330: 9bdb 8ed9 e3eb f13f 3b73 5be8 865b f43f
00000340: c6e3 5a2f 5b00 e9bf 8534 343a 84ef ff3f
00000350: 7115 8e19 785e ed3f 96ec 1814 dab4 f5bf
00000360: d3c2 46de f1f3 ecbf ea9b 82a0 c1c8 e73f
00000370: 3076 2ddd 8235 e73f 1312 7f07 fe37 f4bf
00000380: 9b23 bfed 2674 e9bf ed82 abb6 88a2 e23f
00000390: 9365 1d61 ce9c e33f ef5d 45fe edff eebf
000003a0: fd5b 5bf2 a22b e5bf 8f2f aa02 ec90 e13f
000003b0: e040 2d40 88e8 e23f 4365 f9af e7d6 e5bf
000003c0: 20c7 bad5 73ef e0bf 9e06 ec6a 1a25 e43f
000003d0: 2c75 5331 4843 e33f 917b 1e38 7678 debf
000003e0: c345 8a53 def6 dcbf 64fc d0f4 869a e83f
000003f0: b580 09dd 5166 e13f ad3b 201c 7e49 eebf
00000400: cb62 d8b1 6b23 eabf 7b9e 8bc7 377f ef3f
00000410: a9d8 d553 ccef dd3f 67da 61a4 ee7e e1bf
00000420: e2fa 43df 6be6 e1bf 5495 9ba2 931c f03f
00000430: ec35 378f 29c6 db3f c90d a8fc 7b12 d3bf
00000440: 7ad1 8fe3 9d4e e0bf a0e1 51b4 a624 ea3f
00000450: d7b8 79f5 0c14 da3f f71a 6411 18e6 b5bf
00000460: b315 bccc 924c e1bf 9f00 ebae a065 e63f
00000470: 5e49 9ac4 0b43 e53f cdea 4fb0 f9af ecbf
00000480: 5abc 3eb0 5a53 eabf 4d0b 0f13 27f1 f23f
00000490: 8758 47d8 080c e43f 2814 c5b9 476b dcbf
000004a0: 78d9 11ac dc3c e2bf dd51 1092 e61f e93f
000004b0: 8f42 9e64 c744 e03f 8618 c9d6 491b dcbf
000004c0: 903b de88 4991 e0bf 78f7 0caf 9fcf e13f
000004d0: b5bc 883d 9a41 e03f c15c 8d0a 9ddf ccbf
000004e0: 1fa4 b9f6 c0f2 e1bf 468c 47ed 63aa dc3f
000004f0: a496 6c2f 1ca6 e53f 48e2 0a17 a4be f1bf
00000500: f363 42f4 8ebd eabf fdbe 634d 7000 ee3f
00000510: 1309 42bb 48bb e43f d63b bd53 c5c2 e7bf
00000520: f4e8 07a0 7e4b e2bf 5155 d65c 0ee9 eb3f
00000530: be91 948f e8a0 e43f 5b7b 4b2b d2aa eabf
00000540: 5cf2 2ad4 a26e e0bf b8db 0350 bd1d e53f
00000550: ca9c 3752 43fc e43f 35d5 cce6 6d9f eebf
00000560: 11de 59f9 8b64 e1bf f4a3 3d4f 00bb e13f
00000570: 2200 a222 6d35 e93f 9dba 4fe0 9068 f1bf
00000580: 0b9f 34ca 45f9 e9bf f1bf 7b2b f488 ef3f
00000590: 2579 55cb a3be e73f 8181 9737 4b5b e9bf
000005a0: 488c a36d 8342 e3bf 6b1b e710 4960 ec3f
000005b0: 25af 6ce4 139c e73f b00c 9625 ebcc ebbf
000005c0: 2f72 5cf3 65ab e1bf 4755 0248 4a1a e73f
000005d0: 93b2 ff7c 2ee6 e73f 124c fe9f 3e70 efbf
000005e0: 5d34 5805 f376 e2bf 19b0 1c7a f42e e43f
000005f0: bb8f cd6a cdeb c9bf aacc 5c1a c6ed f83f
00000600: a30e 298e f8dd c2bf ffaf 0f58 7465 fc3f
00000610: d570 2439 70bc 93bf 287f aaf6 dc4c e9bf
00000620: 24da c122 ad20 b43f 71d9 c8ec f960 efbf
00000630: 14eb 9b25 484d c4bf e7d8 1da5 5a97 efbf
00000640: 8f2e eaf8 95d1 a83f ea2a e686 ecb3 e1bf
00000650: 4f31 1905 af27 bebf c9a8 ae08 0b68 e1bf
00000660: 325d 0680 c436 de3f 695c 7dda a379 c23f
00000670: e1f3 94ac ea53 e4bf 36ce f59c 9b01 dc3f
00000680: 3f6f 2348 a9c9 f13f 627d c002 1c6c f33f
00000690: e0b2 c8bb cdf5 e8bf 0db3 6293 6e7a 0040
000006a0: 4fce d473 c3da ed3f bccc 6ea1 9d10 f6bf
000006b0: ebb1 c8c3 ebf6 ecbf 1b3e be45 417f ec3f
000006c0: 198a d9fe d76e e73f 192e b2b7 de83 f4bf
000006d0: 2c0f d906 bbbf eabf 6ec3 f889 f153 e83f
000006e0: d010 d169 696f e33f 217c c0af 6d90 efbf
000006f0: 4df5 b77e 4ac3 e5bf 9bff 4456 a1c4 e43f
00000700: de70 1826 4968 e23f 252e ef52 6524 e6bf
00000710: 450a c1ff 28c2 e0bf 0e16 96d1 d47e e33f
00000720: c36c 5d54 989f e23f 8c3f 2645 1778 debf
00000730: 03f8 b93e 7328 dabf d535 c914 ae38 e43f
00000740: c96f 93d5 9755 e13f b228 ce95 9b30 efbf
00000750: cb84 cb06 9531 eabf f8f4 9e4c e8fe ec3f
00000760: f02a d22b 8e79 dd3f 4b0a 0fda f84a e1bf
00000770: 996a 6377 7347 e3bf a9d9 9e58 4453 ec3f
00000780: e850 3489 3c5b db3f 2102 f76b 02e5 d1bf
00000790: a8de e3df 383f e0bf 31f1 ddf4 682d ea3f
000007a0: 6412 e22a 8eb1 d93f 3bd1 6215 7b5a b0bf
000007b0: d32a 7587 38f2 dcbf d4ca 2314 327f e83f
000007c0: 9f2f ce29 e252 e53f ab16 1ebd 155c edbf
000007d0: 5f71 3a61 7b1a eabf 963e 30b6 aeb5 f13f
000007e0: fc63 3425 a0ef e33f 08e1 a613 5494 dbbf
000007f0: 73a3 7599 304c e3bf a921 90f3 f46e e63f
