data/QIPEDC/W00069.npy (npy, 190928 bytes, 1 tensors)

array f8 [15, 15, 106]
0.0 0.0 0.0 0.0 0.0 0.0 0.0 0.0
0.0 0.0 0.0 0.0 0.0 0.0 0.0 0.0
0.0 0.0 0.0 0.0 0.0 0.0 0.0 0.0
0.0 0.0 0.0 0.0 0.0 0.0 0.0 0.0
0.0 0.0 0.0 0.0 0.0 0.0 0.0 0.0
0.0 0.0 -0.9021174904569315 1.1111824989661032 -0.6214107894544741 1.3806957305555085 -0.26482093205796836 1.4567256602998295
-0.023497523843166227 1.4490213937137095 0.18321539407420442 1.283694557663621 -0.012013176335938014 0.40794401004768244 0.3357102364009266 0.44354722191422946
0.40658175003476266 0.7726050674059896 0.36859814128743307 1.1127983401222845 -0.08949616224795641 0.016767679811062447 0.2802952908539655 -0.44429878406734447
0.5606110410234243 -0.6887077683958291 0.7807403774588825 -0.8912603289845675 -0.2769550852159483 -0.20952213442628642 0.010752704594505554 -0.8131815767007613
0.24515374788918454 -1.1669166924344678 0.45752811421751943 -1.4273986929209714 -0.5433447130509188 -0.2687685315669511 -0.422819775019908 -0.8540245971720354
-0.30356375931716184 -1.2108913224792826 -0.1691473908344544 -1.460011731351513 -3.6562351541492504 -3.026783246239225 0.36602818546077387 0.2570462235976077
-0.033127090297668874 -0.8106461592920248 0.12554938428987772 -1.0037939963891556 -0.1188006894542878 -1.0108838572438852 0.07540361977926464 -0.5428115993875998
-0.11131383804316165 -0.5688415976728638 0.6226557525762251 0.5392347554510261 -0.52020456600357 0.17696091474390618 0.7919225468261604 2.219200518688798
-0.8320851196728372 1.0015810211017981 0.0 0.0 0.0 0.0 0.0 0.0
0.0 0.0 0.0 0.0 0.0 0.0 0.0 0.0
0.0 0.0 0.0 0.0 0.0 0.0 0.0 0.0
0.0 0.0 0.0 0.0 0.0 0.0 0.0 0.0
0.0 0.0 0.0 0.0 0.0 0.0 0.0 0.0
0.0 0.0 0.0 0.0 -0.8569260758492885 1.3698051244814609 -0.5441457351212045 1.5572046141043154
-0.18081870967182787 1.4922211202078575 0.09550924991551815 1.3542978200212084 0.31183260967478554 1.1354975761742716 0.006617807582876446 0.5234605760435437
0.3231617426054114 0.42664059204105637 0.4336469063836222 0.6201225314029577 0.45270026780120803 0.8794131518853989 -0.08453364270802832 0.12578248756090718
0.25947289340827434 -0.41950757770651437 0.5052834722742414 -0.7531986123140804 0.6959770987163079 -1.0422363065338818 -0.27311140447296145 -0.10870623165926165
-0.031203273520882206 -0.7877182833137993 0.1621589872452187 -1.17773561924979 0.3431698879585537 -1.4921755913340005 -0.5328747884691998 -0.17581154110225747
-0.4507355992874598 -0.8025286748460212 -0.36590529471949096 -1.2001961840052722 -0.26927639974565726 -1.5246309718580913 -3.7035348854565475 -3.0523589090038787
0.44664634459162006 -0.5956760393892157 -0.041109856126103884 -0.8117043876631921 0.12001217036115187 -1.0071835797139523 -0.1269420195059286 -1.0134463670941447
0.06900585081319811 -0.5408383948378889 -0.11968485343187867 -0.5607849647160625 0.6303723196897154 0.5636564445908205 -0.5311799867378125 0.22348374815237937
0.7934412142107983 2.3740463316600446 -0.7939148392731368 0.7727711696219951 0.0 0.0 0.0 0.0
0.0 0.0 0.0 0.0 0.0 0.0 0.0 0.0
0.0 0.0 0.0 0.0 0.0 0.0 0.0 0.0
0.0 0.0 0.0 0.0 0.0 0.0 0.0 0.0
0.0 0.0 0.0 0.0 0.0 0.0 0.0 0.0
0.0 0.0 0.0 0.0 0.0 0.0 -0.876972924659967 1.4784247859284174
00000000: 0000 0000 0000 0000 0000 0000 0000 0000
00000010: 0000 0000 0000 0000 0000 0000 0000 0000
00000020: 0000 0000 0000 0000 0000 0000 0000 0000
00000030: 0000 0000 0000 0000 0000 0000 0000 0000
00000040: 0000 0000 0000 0000 0000 0000 0000 0000
00000050: 0000 0000 0000 0000 0000 0000 0000 0000
00000060: 0000 0000 0000 0000 0000 0000 0000 0000
00000070: 0000 0000 0000 0000 0000 0000 0000 0000
00000080: 0000 0000 0000 0000 0000 0000 0000 0000
00000090: 0000 0000 0000 0000 0000 0000 0000 0000
000000a0: 0000 0000 0000 0000 0000 0000 0000 0000
000000b0: 0000 0000 0000 0000 0000 0000 0000 0000
000000c0: 0000 0000 0000 0000 0000 0000 0000 0000
000000d0: 0000 0000 0000 0000 0000 0000 0000 0000
000000e0: 0000 0000 0000 0000 0000 0000 0000 0000
000000f0: 0000 0000 0000 0000 0000 0000 0000 0000
00000100: 0000 0000 0000 0000 0000 0000 0000 0000
00000110: 0000 0000 0000 0000 0000 0000 0000 0000
00000120: 0000 0000 0000 0000 0000 0000 0000 0000
00000130: 0000 0000 0000 0000 0000 0000 0000 0000
00000140: 0000 0000 0000 0000 0000 0000 0000 0000
00000150: 0730 d57f 25de ecbf c726 cf4c 67c7 f13f
00000160: 0fd5 42e1 98e2 e3bf 5f67 0768 5417 f63f
00000170: b70d 9f7e d3f2 d0bf 58b5 e390 bf4e f73f
00000180: 3105 c621 bc0f 98bf 8b46 930e 312f f73f
00000190: 2d13 d61e 9a73 c73f b97e f34d 038a f43f
000001a0: 4019 df3b 5d9a 88bf c23f 7031 c11b da3f
000001b0: e98f 91c9 467c d53f fa9b 16e3 1363 dc3f
000001c0: 252f e375 6f05 da3f 7771 2743 2eb9 e83f
000001d0: d489 8ca8 1c97 d73f 8be4 dda1 05ce f13f
000001e0: 9ff4 f871 38e9 b6bf 285a acf1 8b2b 913f
000001f0: 9f32 dca8 5bf0 d13f 2432 ce2a 646f dcbf
00000200: 9f1b df90 86f0 e13f fc5b b8df e409 e6bf
00000210: 7748 7b3e d3fb e83f d8bf a661 3485 ecbf
00000220: 33a8 5dd2 a1b9 d1bf f412 930d 9fd1 cabf
00000230: 1e98 9d94 8305 863f aa76 b45e 9505 eabf
00000240: 2083 d6b0 3261 cf3f b999 72d6 b0ab f2bf
00000250: a925 e4ff 2348 dd3f f42d 0703 a0d6 f6bf
00000260: 2e43 a073 1463 e1bf 3189 51ed 8033 d1bf
00000270: 5a01 74ac 7a0f dbbf c1ab 5a64 2b54 ebbf
00000280: 5427 a1b0 966d d3bf 78f0 5094 cf5f f3bf
00000290: 243a eb27 9fa6 c5bf bbe5 de42 355c f7bf
000002a0: d073 6c37 f83f 0dc0 ed6c 7522 da36 08c0
000002b0: c0f7 7d7b 016d d73f ad5e fa00 7273 d03f
000002c0: 4a58 e1b2 08f6 a0bf 2d31 d936 d0f0 e9bf
000002d0: 446b c791 0012 c03f de99 264b 8a0f f0bf
000002e0: 89cb f2d3 b869 bebf 4bab 2e8d 942c f0bf
000002f0: adb3 f3d0 a64d b33f 534b 686e b65e e1bf
00000300: a9d4 fc4d 107f bcbf b67f 534b f333 e2bf
00000310: 9e65 bfc1 cbec e33f 3beb f03e 6941 e13f
00000320: f9e2 c60b 84a5 e0bf b066 bfbe a7a6 c63f
00000330: 1cab f2f3 6d57 e93f e946 9833 ecc0 0140
00000340: 6875 0ff9 70a0 eabf fbd2 1ed2 7906 f03f
00000350: 0000 0000 0000 0000 0000 0000 0000 0000
00000360: 0000 0000 0000 0000 0000 0000 0000 0000
00000370: 0000 0000 0000 0000 0000 0000 0000 0000
00000380: 0000 0000 0000 0000 0000 0000 0000 0000
00000390: 0000 0000 0000 0000 0000 0000 0000 0000
000003a0: 0000 0000 0000 0000 0000 0000 0000 0000
000003b0: 0000 0000 0000 0000 0000 0000 0000 0000
000003c0: 0000 0000 0000 0000 0000 0000 0000 0000
000003d0: 0000 0000 0000 0000 0000 0000 0000 0000
000003e0: 0000 0000 0000 0000 0000 0000 0000 0000
000003f0: 0000 0000 0000 0000 0000 0000 0000 0000
00000400: 0000 0000 0000 0000 0000 0000 0000 0000
00000410: 0000 0000 0000 0000 0000 0000 0000 0000
00000420: 0000 0000 0000 0000 0000 0000 0000 0000
00000430: 0000 0000 0000 0000 0000 0000 0000 0000
00000440: 0000 0000 0000 0000 0000 0000 0000 0000
00000450: 0000 0000 0000 0000 0000 0000 0000 0000
00000460: 0000 0000 0000 0000 0000 0000 0000 0000
00000470: 0000 0000 0000 0000 0000 0000 0000 0000
00000480: 0000 0000 0000 0000 0000 0000 0000 0000
00000490: 0000 0000 0000 0000 0000 0000 0000 0000
000004a0: 0a98 db3b f06b ebbf 47a8 38c7 b8ea f53f
000004b0: 7a4f 1351 a469 e1bf 2422 ac62 4fea f83f
000004c0: 4fd0 4546 1125 c7bf 7b17 db40 23e0 f73f
000004d0: b246 da50 4b73 b83f 1d90 e030 34ab f53f
000004e0: 564a 18c3 10f5 d33f 37b1 a581 ff2a f23f
000004f0: 011c 3c32 461b 7b3f 6146 db64 30c0 e03f
00000500: 4cc0 f396 aeae d43f 3598 7d57 144e db3f
00000510: 8578 3bf4 dec0 db3f 126e fc34 0bd8 e33f
00000520: 312f 468b 0af9 dc3f 68a4 e00c 2724 ec3f
00000530: 30bd d72e ffa3 b5bf 5de7 3dfb a319 c03f
00000540: 23c5 d831 349b d03f 361d ab4f 36d9 dabf
00000550: f011 943e 482b e03f 8602 e9f9 331a e8bf
00000560: 560c b8c3 7145 e63f 0845 34fa ffac f0bf
00000570: 5810 9841 a87a d1bf d911 d9ed 2bd4 bbbf
00000580: 318a 333d c0f3 9fbf b368 29f9 fc34 e9bf
00000590: c03f 7c2d a0c1 c43f cb31 004e 01d8 f2bf
000005a0: 1541 70d5 7ef6 d53f 32b4 4a83 f3df f7bf
000005b0: f8d1 aa6d 4f0d e1bf 3b93 a519 fe80 c6bf
000005c0: 5549 8520 dad8 dcbf ae1b 929d 50ae e9bf
000005d0: 9c38 900a fe6a d7bf e362 f1e9 0034 f3bf
000005e0: 8b80 9f14 d33b d1bf 5196 2972 e364 f8bf
000005f0: 3e0c e5e5 d6a0 0dc0 719b ce25 3b6b 08c0
00000600: 7988 b98c da95 dc3f e9ff 8532 c70f e3bf
00000610: 05b3 35df 590c a5bf 490f e17a 7bf9 e9bf
00000620: 81b8 d21a 1eb9 be3f be08 7f87 6c1d f0bf
00000630: 7211 22d7 a23f c0bf b5b5 ae89 1337 f0bf
00000640: f1af 7910 5eaa b13f ebfe 4752 8c4e e1bf
00000650: 5304 51a3 aaa3 bebf 7868 714f f3f1 e1bf
00000660: 1bdf 2b92 022c e43f 8c4f 763d 7909 e23f
00000670: 0b84 ea2b 6dff e0bf 8c40 c08e 1d9b cc3f
00000680: 62af 4ad4 de63 e93f 6b59 cd00 0cfe 0240
00000690: 4c97 cf17 c067 e9bf 2f2e 9a9a 8aba e83f
000006a0: 0000 0000 0000 0000 0000 0000 0000 0000
000006b0: 0000 0000 0000 0000 0000 0000 0000 0000
000006c0: 0000 0000 0000 0000 0000 0000 0000 0000
000006d0: 0000 0000 0000 0000 0000 0000 0000 0000
000006e0: 0000 0000 0000 0000 0000 0000 0000 0000
000006f0: 0000 0000 0000 0000 0000 0000 0000 0000
00000700: 0000 0000 0000 0000 0000 0000 0000 0000
00000710: 0000 0000 0000 0000 0000 0000 0000 0000
00000720: 0000 0000 0000 0000 0000 0000 0000 0000
00000730: 0000 0000 0000 0000 0000 0000 0000 0000
00000740: 0000 0000 0000 0000 0000 0000 0000 0000
00000750: 0000 0000 0000 0000 0000 0000 0000 0000
00000760: 0000 0000 0000 0000 0000 0000 0000 0000
00000770: 0000 0000 0000 0000 0000 0000 0000 0000
00000780: 0000 0000 0000 0000 0000 0000 0000 0000
00000790: 0000 0000 0000 0000 0000 0000 0000 0000
000007a0: 0000 0000 0000 0000 0000 0000 0000 0000
000007b0: 0000 0000 0000 0000 0000 0000 0000 0000
000007c0: 0000 0000 0000 0000 0000 0000 0000 0000
000007d0: 0000 0000 0000 0000 0000 0000 0000 0000
000007e0: 0000 0000 0000 0000 0000 0000 0000 0000
000007f0: 838b dc85 2910 ecbf 9e88 92bf a0a7 f73f
