data/QIPEDC/W00153.npy (npy, 241808 bytes, 1 tensors)

array f8 [19, 15, 106]
00000000: 85c5 197b c5ed 69bf 606c d870 4b16 ee3f
00000010: eb50 630e 9f84 e9bf 887f ece6 2e4d fd3f
00000020: 1879 bc83 ede1 b9bf cf96 4c97 227d d53f
00000030: 953b 2f85 54c6 e1bf 1e9a 55ed 04d7 fb3f
00000040: 4621 a1c5 805d 7b3f 8a48 720f 3be5 d7bf
00000050: c800 eb1d 0e00 d4bf 991c 6c3b 7a24 f73f
00000060: ac3e 4672 99a0 c43f 2c1e 3116 0c79 ebbf
00000070: dcea c866 510e c4bf 8862 3bec f450 f43f
00000080: 094d f54b bdb1 d03f 89ff 427f b14e f4bf
00000090: 29c8 72ca e734 c2bf ddfe 7b14 bb1d f03f
000000a0: f6a9 3b51 0698 d13f 5c65 5838 9a98 e0bf
000000b0: 5b80 cd60 d4b4 dabf a951 f961 9b09 df3f
000000c0: 37a5 cd64 c395 e03f e61f 2295 ff09 efbf
000000d0: 3ded a187 f3f8 d2bf 729f 8b87 67ea cdbf
000000e0: 8fdb 7a71 b6be e53f a61e 5d52 51ec f2bf
000000f0: bfc4 4294 d09d cabf 1605 3f5d 5761 e4bf
00000100: 4d5c 19fe a08d ea3f 885d fa67 35af f5bf
00000110: e835 a9ab ab76 c3bf 2572 55f9 5fd4 efbf
00000120: d47f 7e3a 20f7 d73f a42e 765c 6b43 d4bf
00000130: 25e9 011a c213 e3bf f195 d107 5fcb db3f
00000140: e7d6 a764 4b40 e43f e125 e34c 5bf9 e8bf
00000150: 3c54 4602 5cfd d8bf ecf6 cfee eedb da3f
00000160: fffe a6fd 8087 ec3f 473b fb5a 9167 f0bf
00000170: b3c0 0af8 2edc d3bf 8706 697b 7bac ee3f
00000180: 3070 0e77 5422 f13f 62cb 60e5 211c f4bf
00000190: 17dc 49ff d7fc d2bf 90a7 cdb1 e0e8 f53f
000001a0: 4bbb 5610 4f4c de3f b723 2ea3 8409 bb3f
000001b0: 955c eb5a e211 ebbf e8c8 eeaa 9240 e43f
000001c0: 8d57 bb31 3df0 e73f b23b c947 e26c d7bf
000001d0: d7ed 05e6 5410 e6bf b91b d2c0 bae9 bd3f
000001e0: c42d 8a2e 9334 ee3f 76d8 d481 5fba e3bf
000001f0: 3f11 978a 4c13 e1bf 2bff 559e 5438 c9bf
00000200: ea1b d27c acea f13f eb9d 8993 3f0f ebbf
00000210: e0ee 5a9c 6cd2 dabf 7be3 8392 a858 e0bf
00000220: be14 7594 f124 df3f d98a e22e 99dc e03f
00000230: a377 47a5 e514 f1bf 00ee 21c3 8df3 e93f
00000240: ac6f 21ba 2382 e53f 967b bc5b cfcd cc3f
00000250: 30e3 c74c 2133 f2bf 43ad 2055 6b2b d43f
00000260: cb4f 8ba1 b688 e93f a666 be63 49bd 9bbf
00000270: 006d fd49 86f9 f2bf 77d8 8b41 6e08 83bf
00000280: 827d a020 c636 ed3f 9047 c732 7e62 d1bf
00000290: 13f3 e102 c7d9 f3bf 448a 859f ffb5 d6bf
000002a0: 8193 4474 7ac9 ca3f 2b1a 3286 6249 d53f
000002b0: 0a50 7a27 253a ca3f 8fa4 d3dd 2c48 d33f
000002c0: 4ac5 f03a 96ca 983f 4d82 8269 6b1c eabf
000002d0: 3c03 2cf4 5393 be3f 473f 5104 6915 f0bf
000002e0: 4075 b744 8cd1 babf 4909 12ac 1e07 f0bf
000002f0: e07c 3116 36b6 b63f dcc7 0627 17eb e2bf
00000300: edc0 25b3 d06c afbf 28a1 b3d8 b282 e2bf
00000310: 3158 32e0 271b e03f 590d 39f0 b8c4 c33f
00000320: 0624 8d9c 5e66 e1bf c073 5d20 806f d13f
00000330: c2c9 da06 70d1 e63f eef6 5994 ad38 fc3f
00000340: 71e9 d9a9 c0a4 e7bf aa48 89aa 7dd4 fc3f
00000350: ab23 6ef2 69c3 993f 31a9 6db7 97ed f13f
00000360: 6955 1ca0 7140 eabf cb27 f781 c122 fe3f
00000370: cc0c 3781 5113 bdbf a5f9 dbe4 5579 de3f
00000380: c196 3046 fc9c e0bf 1d5b 66c6 1d2b fc3f
00000390: 91f7 498b 751a afbf 7929 750a 3e8c cebf
000003a0: 12e6 5a59 cdf3 cfbf 1883 687b 8e14 f73f
000003b0: dd1b 66b7 057e a83f 30a0 ecf3 09ce e7bf
000003c0: d8c5 fed6 b5cc b5bf e001 e088 aee6 f33f
000003d0: 981a 5e96 c2ba c03f ef6a e65c 0ad6 f2bf
000003e0: 0c53 c593 3453 a8bf 9c18 ec97 11b0 ee3f
000003f0: 459f 22d4 7500 c83f 66ac 154a 0c34 e0bf
00000400: 409d bd43 867d d7bf 3fd6 2dfc a783 dc3f
00000410: 8736 2c7c e797 dc3f 575c 943e f175 efbf
00000420: ce1d 075a 1dd1 cabf 4148 52d9 55f4 d5bf
00000430: e2f8 47c3 8d28 e43f e83f 0a8c 53af f3bf
00000440: a3dc b5cf 2c04 b6bf 1ed6 57ab ffca e8bf
00000450: a5fc beba 1ea0 e93f 0207 9d29 de04 f7bf
00000460: d00b c64b 4a5c 52bf 13c8 cce0 e47a f2bf
00000470: 9697 fe00 8931 d23f 744b c8e5 2995 d3bf
00000480: 8645 be31 4640 e1bf 3e6a 8134 3bcb d93f
00000490: d070 90b0 1278 e13f 9c10 0bba 7dcc eabf
000004a0: 505b 1356 4376 d5bf 13b0 c109 5e28 d93f
000004b0: c9f1 ecef c63e eb3f 6c2b 8805 873a f2bf
000004c0: 17f1 fe07 5216 cebf 83e6 9071 26b0 ed3f
000004d0: e225 69a6 d921 f13f aba8 ad50 89a1 f6bf
000004e0: b5b8 afeb 836e ccbf 50c1 d0c7 5ff8 f43f
000004f0: a4d7 e8e3 c90e d93f ddfc d863 3e79 c93f
00000500: c19b a7ab ac16 ebbf 13df b5e9 3b4c e63f
00000510: 3e91 c8c4 4e84 e63f a0b7 fe9f 5f4a d6bf
00000520: 9298 8df5 4877 e5bf e05c 617a 8afb c13f
00000530: 595c 467b f888 ed3f aaa5 7c9f 5fc6 e4bf
00000540: 835a ba44 366d dfbf 3429 8d1d a467 c5bf
00000550: bdb6 e68c b400 f23f 2cac 9ef9 8b22 edbf
00000560: 28ed 6430 5eb7 d7bf 4cad f16e ed23 e0bf
00000570: 5710 56b3 bb7a db3f 592f 9b0f 47a9 e53f
00000580: 2f95 22be f94e f1bf e08d be05 31f2 eb3f
00000590: 0fc4 672a 3ba4 e43f b838 c0f6 999f d43f
000005a0: 8649 8a32 7e4c f2bf 4a19 6df9 c964 d33f
000005b0: bc25 573a 3fbf e83f 0269 10c7 af24 a23f
000005c0: 44b2 5092 39d6 f2bf 0ca6 01c6 e75b afbf
000005d0: 660c 677e 3168 ec3f 2dc0 884e f6cc cdbf
000005e0: b9d8 d59d cfa0 f3bf 6816 b72a d3e2 dcbf
000005f0: c1e1 d2af dc32 cb3f 5af0 89a5 f7a8 d23f
00000600: d0c6 6779 934f cb3f fc9b 54e9 185a cf3f
00000610: 33e9 582f 8531 993f 5da0 af85 ae17 eabf
00000620: 5c52 3e7f b96d be3f 0e33 010e 0414 f0bf
00000630: 833f 5d76 36bc b9bf cf6e 501b 9d13 f0bf
00000640: cae5 116b 5962 b63f 2f19 3989 c3e7 e2bf
00000650: b80b b0e1 4315 b0bf 5acf 5729 c087 e2bf
00000660: 8fc0 5268 ec24 e03f fd33 7e0d 4b36 c53f
00000670: 1a4e 39ab d379 e1bf 2c7e 8557 0045 d13f
00000680: b422 cc1c b1c0 e63f 0aac 3312 535a fc3f
00000690: 19ba a815 2995 e7bf 3514 adbb dd98 fc3f
000006a0: 357f 829f ca61 b13f c410 5035 b503 f63f
000006b0: 6f4b d460 f8f4 eabf aeea cf09 87a4 fe3f
000006c0: 947b f033 f16c b4bf c073 0806 d1c9 e43f
000006d0: e04c 782d cc12 e0bf 03c4 3a34 57e0 fb3f
000006e0: d0cc c922 6005 b2bf aca1 5b50 b02a c1bf
000006f0: 98db ad5d bd15 ccbf e7d2 ce04 2324 f63f
00000700: 599e e61a de76 793f ddd6 3acb 2932 e7bf
00000710: 162a b9e7 1df8 a4bf 70c8 dd06 d899 f23f
00000720: caf5 488d 214a a93f dec2 f734 7f94 f3bf
00000730: 9d32 f693 f2fc a53f 505f be2f 00ab ec3f
00000740: 044a fe00 e2d8 c53f b3da 8cdd 1842 dbbf
00000750: 3181 fbb2 7719 d6bf 4481 cdab d1df d53f
00000760: 34cd f0b2 4e74 d93f d940 5b4e d463 eebf
00000770: c81d 7569 da80 c7bf 8a3c 6572 dba8 dcbf
00000780: 8563 3807 32a7 e23f ff44 5aef 59dd f3bf
00000790: 881e 415c b2a0 b1bf 7a4f b60c 64d4 ebbf
000007a0: 5781 724c c04d e83f aaec 236a e9d3 f7bf
000007b0: eb9a 8d8a 11e0 8a3f 915f 4fe8 eafa f3bf
000007c0: 1808 1c95 8108 d13f bdf3 4e7a f493 cbbf
000007d0: 951c 6a9d e650 e0bf 9f87 ed25 682e d33f
000007e0: 190c 83bb 4334 e03f f84b 38ae 2a78 e9bf
000007f0: eeae fd08 1c84 d4bf bb44 09ae 055e d33f
-0.0031651360557637975 0.940221519852809 -0.797439125157806 1.8313435574018246 -0.1011036345121038 0.33576264167127773 -0.5554602242717573 1.7399949332117397
0.006680968299470463 -0.37336613186301604 -0.3125033657233982 1.4464056321319616 0.1611511047344626 -0.8585262711939712 -0.15668694990912158 1.2697648265658774
0.26084835450929283 -1.2692122431908237 -0.14223954568075328 1.0072584915323468 0.2749038499156592 -0.5186282253736567 -0.4172869630183464 0.48496136253131766
0.5182816475691315 -0.9699705040702582 -0.2964447807823552 -0.23371595495631997 0.6795303551106019 -1.1826947419485037 -0.20794112433717335 -0.6368824788297924
0.8297886813042027 -1.3552755414619657 -0.15205903894313555 -0.994674670200372 0.37445836746519245 -0.31661495236833503 -0.5961618907888676 0.43428779376549104
0.632848450272573 -0.7804390432076468 -0.39046383115902805 0.4196736652519195 0.8915409998080291 -1.025285106082906 -0.3103139326367554 0.9585549745899734
1.0708813334122276 -1.2568682632524646 -0.2966823571254635 1.3693549104159253 0.473407522159438 0.10561398490803141 -0.8459331298607987 0.632882436612161
0.7480760546993551 -0.3660207463298618 -0.689493607772813 0.11684767921006668 0.9439178379993156 -0.6165006194849088 -0.5336058337057138 -0.19703157168623284
1.1197934032259078 -0.8456113702385982 -0.4190932776361773 -0.5108225690483857 0.4866298627642428 0.5269285121651947 -1.0676018196313428 0.8109806834394817
0.6721361766208154 0.2250308225565873 -1.1374829291582493 0.31515010178801023 0.797938647762288 -0.027089258873820875 -1.1859190836174207 -0.009293424010575741
0.9129362714046894 -0.2716365333445703 -1.2406683075525435 -0.3548583085850263 0.20927363087789888 0.33260405640649776 0.204899448658239 0.3012802282597215
0.02421030745262457 -0.8159691868532463 0.11943554602841017 -1.0052271050116859 -0.10475994756366891 -1.0017382356168858 0.08871782342747592 -0.5911975633846356
-0.061377069347942605 -0.5784544212774891 0.5033149126854878 0.15444099168426353 -0.5437462861674482 0.2724304500641743 0.7130661138419827 1.7638374133088592
-0.7388614003569228 1.8018776570866444 0.025159507200018954 1.1205060162706781 -0.8203666808282551 1.8834853245521 -0.11357602505363501 0.47615573262728567
-0.5191632624525583 1.7605264425271294 -0.06074874234489792 -0.23865485678318146 -0.24962775099793127 1.4425186939844874 0.04783647407298706 -0.7439012302538739
-0.08515488146692662 1.2438187929802709 0.1306994661537899 -1.1772559765728905 -0.04750980666964297 0.9589927642089324 0.18751404627004767 -0.5063535162893344
-0.36703640570927476 0.44553565623150243 0.44677149893036766 -0.9831472608810924 -0.20950667281998253 -0.3430380461005634 0.6299504102787774 -1.2303042860330553
-0.08600120612196575 -0.7747801157517562 0.8007959029563564 -1.4386884332201935 -0.0011206365153106808 -1.155003431439131 0.2842733869277877 -0.30597922744453077
-0.5390959712550945 0.40302925231449993 0.5459073494453381 -0.8374622949272807 -0.33534320264646045 0.3930888266829708 0.8514132200285128 -1.139288922890695
-0.23505616560385853 0.927752706345203 1.0707642078799542 -1.4144375945566405 -0.22212265976071924 1.310638218430615 0.3915276265791994 0.199012564424243
-0.8465178825980432 0.6968059124619422 0.7036508410861086 -0.3482894003344601 -0.6708111568411985 0.14048891997911195 0.9229700477325294 -0.6492155184725352
-0.49104077064240687 -0.16722537463130893 1.1251721862749229 -0.9104671359431271 -0.3705668900108372 -0.5043856779933917 0.42936604035663123 0.6769137673195288
-1.081781141963187 0.873314391345442 0.6450477436284262 0.32224129769100385 -1.1436750387407257 0.30302667005561956 0.7733455790959662 0.03543614678365438
-1.1773009982527052 -0.061248057289798735 0.8877189129638168 -0.23281744799305795 -1.2267604985659502 -0.4513442914143071 0.2124896868242683 0.2915629498090816
0.21336596897122329 0.2449370517071826 0.024602967276430476 -0.8153908358626826 0.11886176449326896 -1.0048866793687838 -0.10052814855339247 -1.0047885004959658
0.08743819107066667 -0.5907914810311804 -0.06282448062851997 -0.5790711219292277 0.5045072591365328 0.1657193961986251 -0.5461214393821507 0.2698365072919582
0.7110219538163478 1.772051879025414 -0.7369580672291846 1.7873208361718416 0.06789842981606571 1.3759052355317616 -0.8424035922238157 1.915167845085914
-0.07978732603122146 0.6496358030159328 -0.502294625099605 1.742270664235776 -0.0703945240909889 -0.1341152565357907 -0.2194134433190953 1.3838224590119184
0.0062168766002411386 -0.724873444493564 -0.040955481087241605 1.1625595348564524 0.04939370011969009 -1.223754126458679 0.042945461808902886 0.8958741123669629
0.1706812386369877 -0.42590924869311236 -0.34530441740754997 0.3417858293305651 0.39772384142561923 -0.9496861963653159 -0.1836197867325906 -0.4478062264578929
0.5829095974942083 -1.2415408467971358 -0.06885828735641486 -0.8696766136440452 0.7594911091910416 -1.4892362733942641 0.013122689286047392 -1.248759181462422
0.26614417611574614 -0.21545272800531548 -0.509875590753739 0.2997074480427901 0.5063799536077368 -0.7959187891705133 -0.32056332471869 0.302613658864242
