data/QIPEDC/W00230.npy (npy, 419888 bytes, 1 tensors)

array f8 [33, 15, 106]
000000 76 df 52 42 49 54 f6 3f 63 f7 a9 6d 3c 53 e8 3f
       1.3955776778002167 0.7601606504319814
000010 2b a0 b3 31 f6 3c fc bf 2d bb 8c 8e c0 05 d1 3f
       -1.7648832265349579 0.26597608490822006
000020 64 3a 05 26 14 2f f0 3f 4b 49 c6 d9 9d e7 d0 3f
       1.0114938244984382 0.264136755629029
000030 12 60 34 bd c2 58 f6 bf a1 2b e4 74 57 74 da 3f
       -1.3966700926594098 0.41335092940487966
000040 af c0 28 32 94 84 e5 3f 09 22 01 fd b8 86 a7 bf
       0.6724339465781862 -0.045949726948098464
000050 d3 ad 23 af 13 57 f1 bf f6 ff b8 bc 89 54 da 3f
       -1.0837590066320117 0.41140979223200647
000060 12 b1 9d 2f 93 f8 d9 3f 8b 89 d0 20 8f 9b ce bf
       0.40579681062696793 -0.23912228681826905
000070 1b 14 8d 2b 47 25 eb bf 29 d6 a4 c9 7e b5 dc 3f
       -0.8483005381209553 0.4485775918177262
000080 fb e7 48 b9 a2 c7 c8 3f 0b 81 57 7f 7c 70 db bf
       0.19359239623173594 -0.42874062000011354
000090 f9 62 24 c9 35 63 e7 bf 0f 47 86 ad 8d 40 e1 3f
       -0.7308606079633072 0.5391300572539154
0000a0 6c 16 f5 19 4a ee f0 3f e5 d9 10 23 1e 72 bf bf
       1.0581761373481653 -0.12283504825686682
0000b0 e5 b4 d4 c1 1b cd f0 bf 6b aa 38 f6 a6 88 d6 bf
       -1.0500752994078593 -0.3520905880456328
0000c0 36 d7 f8 da b1 79 ee 3f 62 6c 2b 17 4c 2b cd bf
       0.9523553158566986 -0.22788382655457712
0000d0 f6 20 10 23 d8 d3 e5 bf 43 5d 38 d7 ef 68 de bf
       -0.6821098980736042 -0.47515483872981096
0000e0 08 4d 00 d6 4a 61 eb 3f 5a 60 e1 e9 0a c9 b2 bf
       0.8556265048704583 -0.07338016710252884
0000f0 cb d2 c6 da 7f 49 dd bf 5f 30 c3 39 0f 18 e2 bf
       -0.4576110493174325 -0.5654369476483331
000100 6f 6b 71 bd 02 d8 e8 3f c3 36 cd 1b c7 7e b2 3f
       0.7763684940394863 0.07224697521925365
000110 19 b3 d0 35 4c c1 d1 bf e7 cf 08 04 3c 4c e5 bf
       -0.2774229550876029 -0.6655559614941894
000120 b8 95 1f f8 09 8e f2 3f 8d d1 22 bd 26 53 c8 3f
       1.1596774761504616 0.19003757701069582
000130 d2 66 d8 e6 76 d6 f2 bf 8f 91 e7 0f fb dd d6 bf
       -1.177359487285163 -0.35729862740688473
000140 8a ff f0 d1 50 9d ef 3f 3f 1f 51 2f 38 1e c8 3f
       0.9879535770814851 0.1884222250976055
000150 87 20 96 bf c5 00 e7 bf f2 6b 3e 7b d7 d4 e7 bf
       -0.7188442937777076 -0.7447316557985444
000160 fb 81 98 fc f5 29 ec 3f 39 3f b1 9a 0b 69 c9 bf
       0.8801221784124772 -0.19851822903955865
000170 b1 36 94 da fb 24 e0 bf 15 d7 03 79 b8 6a e3 bf
       -0.5045146245117477 -0.6067774165701133
000180 66 0c 89 43 5b e7 e9 3f dc 68 1d 62 10 74 c5 bf
       0.8094917601632801 -0.16760449209943473
000190 cc 37 27 de 21 18 d6 bf fa b6 9b 93 ae 3e df bf
       -0.345222918459396 -0.4882008019911691
0001a0 bb 3d 88 4c 42 eb f2 3f 35 61 c0 cf b9 0e ae 3f
       1.182436274484515 0.05870609913853501
0001b0 81 b4 a6 d8 2a 4b f3 bf de c7 01 d9 f0 98 e3 bf
       -1.205851408284872 -0.6124195326249227
0001c0 32 ef af e6 f9 41 f0 3f 4b e0 01 93 6e 6b b2 3f
       1.0161074649067356 0.07195178116842375
0001d0 95 b5 a3 a9 42 bf eb bf dc 5f 10 eb 90 9e c7 bf
       -0.8670972169181136 -0.18452655294163278
0001e0 2a 98 09 5f b0 f5 ec 3f 5b cc 5f 76 cf 9f b7 3f
       0.9049913269234413 0.09228226318354997
0001f0 19 cc e6 f9 a9 52 eb bf 8c d9 8f 74 ed 3f c4 3f
       -0.8538408165826495 0.1582009143018691
000200 e2 47 91 50 79 57 ea 3f 23 c5 8d 70 97 ba b0 3f
       0.8231779645523114 0.0653471612729573
000210 9c 0d 21 3a d9 7d ec bf 45 64 15 f1 04 15 d7 3f
       -0.8903623709997421 0.36065791648212936
000220 55 cc 04 8a 04 c7 f2 3f 30 b9 f8 ff 79 92 d8 3f
       1.1735883132321494 0.38394021985267823
000230 d2 fe db cd 80 71 f5 bf c5 3a 6e a8 64 9c d3 bf
       -1.3402107278233655 -0.3064204830961155
000240 c1 47 cd a0 6e 58 f0 3f b1 3a 98 43 30 4d db 3f
       1.0215898782084738 0.4265862140754662
000250 37 84 e8 4d fa 1a f1 bf 4c ac 2e c9 ec 51 a4 3f
       -1.0690863650600144 0.03968753772581887
000260 b6 41 2b 95 77 2b ee 3f e9 85 51 1e 7a 33 da 3f
       0.9428060449081872 0.4093919082716569
000270 4a 63 5f ec 4b 99 ee bf 76 4b c6 62 d1 6b d5 3f
       -0.9562129608776584 0.3347056831927867
000280 41 52 3a d0 83 93 ec 3f 95 c5 5e 2a be 09 d6 3f
       0.893007189459759 0.34434465539660525
000290 dc 2f 17 d5 a4 ac ec bf e4 78 41 bf 58 07 e2 3f
       -0.8960746919560694 0.5633968100990185
0002a0 e8 aa e0 74 71 4a b2 bf 00 c2 d9 1f be d2 eb 3f
       -0.07144841292817328 0.8694754240114548
0002b0 c1 e7 ad aa a0 cd b6 bf d8 ce ea e5 27 72 f0 3f
       -0.08907512824035192 1.027870081056724
0002c0 69 0c c9 cc b3 13 b5 3f c8 4e c0 50 09 72 e9 bf
       0.08233188390390613 -0.7951704575702587
0002d0 48 cd 3b 7b e4 f1 c6 3f 25 a3 d6 52 e7 ec ee bf
       0.1792569734312599 -0.9664188974321389
0002e0 bc 1b f2 96 95 29 a4 bf f4 47 b3 ef 4f aa ef bf
       -0.039379763294213416 -0.9895400697371302
0002f0 fd f1 71 86 2f a1 c1 3f db 68 c5 d6 75 c0 e1 bf
       0.13773149552061162 -0.5547436899899155
000300 9c c7 21 d5 5d dd 8c bf f2 74 97 bb b3 df e1 bf
       -0.014094098154803274 -0.5585573829554547
000310 4a 1b 68 68 a4 f6 e0 3f 34 95 b0 43 1c 60 ce 3f
       0.530107692641516 0.23730805688061596
000320 21 8b 05 ef 29 84 e1 bf 7c a7 74 65 0b de c6 3f
       -0.5473832767860111 0.1786512608899179
000330 45 a5 c5 35 83 90 e8 3f 8e df fc 1d 1b 7a fd 3f
       0.7676406908259784 1.8423110171697519
000340 fb 8e 34 2c 15 8a f1 bf b4 04 b2 ff d4 b2 f9 3f
       -1.0962115980882448 1.6061601627446125
000350 fd 60 6c 05 10 f0 f5 3f f4 e7 e2 c9 c2 a5 ed 3f
       1.371109028992634 0.9264844840138253
000360 ea a7 d7 f4 cc af fd bf c4 d6 ee ce e1 95 c8 3f
       -1.8554200710445863 0.1920740375914446
000370 fc 69 76 f4 4a c9 ee 3f fd 79 f2 10 85 f5 d9 3f
       0.9620718741091987 0.40561033873555613
000380 90 73 f5 b8 63 3e f6 bf 01 06 f0 ab 46 52 da 3f
       -1.3902318215325273 0.4112717322423976
000390 1d 37 7d 2b b9 a5 e3 3f 1f f1 b8 19 aa 0a 94 3f
       0.6139798974415701 0.019571931667301642
0003a0 a4 24 c9 3c d0 ea f0 bf 6c e4 4f ff 6a 56 d9 3f
       -1.0573274969522481 0.3958995335847877
0003b0 8b fd 57 83 8e ff d5 3f 01 e2 73 db 81 6a cb bf
       0.3437229426053469 -0.2141878434702136
0003c0 8c a4 64 ee 50 6a ea bf 28 a6 99 e3 c5 c2 d8 3f
       -0.8254780441394742 0.3868880007417794
0003d0 d6 fd c8 08 b0 31 c0 3f ba 82 e1 30 83 08 da bf
       0.12651634625397773 -0.40676955960774885
0003e0 d8 57 92 74 bd 8e e6 bf 65 04 52 5a 4e 71 df 3f
       -0.7049243237295242 0.49129065342282835
0003f0 d1 d1 d8 1a 8d c7 f0 3f 48 62 12 bc 4a e7 83 bf
       1.0487185524663014 -0.009718498100753994
000400 19 1f d5 45 cc e6 ef bf 9f 0d b5 9d ed 62 dd bf
       -0.9969235767284516 -0.459163097392059
000410 26 c9 74 df c3 7e ee 3f e6 7b cc 92 f2 96 c0 bf
       0.952974258840446 -0.12960655372532343
000420 bb dd bf 68 f9 fc e3 bf b5 9b bd 4f 73 3e e2 bf
       -0.624630646313498 -0.5701233441767416
000430 73 cc cd 1c 98 dc ea 3f a1 c7 79 30 92 a4 a0 bf
       0.8394280016494932 -0.03250557748550809
000440 68 22 7f b2 9c 16 d8 bf 21 7e 38 a3 6a a7 e6 bf
       -0.3763801329737704 -0.7079365909484673
000450 1b 7d 43 5c db 40 e7 3f e7 93 82 2f 82 97 af 3f
       0.7266670991920451 0.06170279340702916
000460 db 2e a1 30 44 47 c6 bf 18 8c 1b 9e bb 53 eb bf
       -0.17404987692349647 -0.8539712989844501
000470 eb f3 dc 1d 89 7b f2 3f 97 7b 19 83 ae 3c d4 3f
       1.1551600615050528 0.31620371630372673
000480 a4 7a 33 99 8a d7 f1 bf 7a f1 e0 6c 12 49 e0 bf
       -1.1151224121491987 -0.5089199186837015
000490 37 0c eb 45 4f 5d ef 3f f7 11 8b bd 44 4c d2 3f
       0.9801403394307105 0.28590506086427986
0004a0 13 ad 72 e5 ed c4 e5 bf ba 0f 07 5b 61 fa eb bf
       -0.6802892190366115 -0.874314000881433
0004b0 1b 06 52 24 26 66 ea 3f 9c f4 12 72 99 7c bb bf
       0.8249693593390391 -0.10736998591433394
0004c0 7b 12 b4 1d 7a 3c dc bf e4 6b 7c 5a c4 8e e9 bf
       -0.44119122410510386 -0.7986776130013564
0004d0 9b b6 4f b1 f8 87 e7 3f 23 b4 44 0a be 18 b6 bf
       0.7353480780709164 -0.08631503821079937
0004e0 d0 b9 e3 80 51 31 cf bf 52 18 5a f8 37 08 e8 bf
       -0.24369257729945426 -0.7510032511352256
0004f0 6e f6 65 1a b1 59 f2 3f be 47 7b a5 5b 72 ca 3f
       1.146897414320303 0.20661492900995698
000500 d8 28 23 a4 54 97 f2 bf 57 dd d4 16 a7 0a e8 bf
       -1.1619459544768258 -0.7513003774574071
000510 d2 d5 cd d1 5a 9b ef 3f 7e 9a 18 fa 1f 02 cc 3f
       0.9877142045722229 0.21881484710430138
000520 c5 24 ae 77 5a e8 e9 bf e6 c2 a5 ab 40 99 d2 bf
       -0.8096134507660727 -0.29060379755450894
000530 4a c6 9d 98 d8 7a eb 3f 84 a7 93 3d db b0 cb 3f
       0.8587458592211956 0.21633472925833186
000540 6c 69 98 98 ee 5e ea bf 26 47 8b 2c 35 83 b3 3f
       -0.8240883808496569 0.07622082078458145
000550 81 c3 52 d4 b1 2a e8 3f 41 e9 cd a0 ea 4a c8 3f
       0.7552117487849587 0.18978627063536105
000560 5e 02 82 cd e3 31 ec bf 7a 80 69 dc ed ad d2 3f
       -0.8810900701356095 0.291865792509277
000570 78 6b ce 08 f9 38 f2 3f 45 1f 23 51 c5 13 e1 3f
       1.138909372710911 0.5336634239874704
000580 f2 05 47 cd 95 c6 f4 bf 66 7e 26 07 6f 2d dd bf
       -1.2984827059411796 -0.4558980531528277
000590 3c 83 0e cb 7d c1 ef 3f c1 23 18 ba 99 27 e2 3f
       0.992369553179834 0.567334044900342
0005a0 50 6b 78 e4 0c 58 f0 bf 5d 04 d3 1d d5 c1 a8 bf
       -1.0214966702103148 -0.048353824511203604
0005b0 f5 5a 57 87 fe 7f ec 3f 14 ba d8 c1 30 a2 e1 3f
       0.8906242984183722 0.551048639876003
0005c0 ac ba c1 ed bd 4f ed bf 2b d6 d6 38 41 29 d2 3f
       -0.9159841197668661 0.28376799154952675
0005d0 bb a6 ac c1 a1 0e ea 3f f0 61 a8 18 29 08 e0 3f
       0.814286115904188 0.5009961587521143
0005e0 b1 40 06 a3 1d c0 eb bf f0 67 15 6a 5d e0 e0 3f
       -0.8672016319342416 0.5273882934518479
0005f0 f9 a1 91 21 5d d7 ae bf 0b 9c 00 88 9e 08 e9 3f
       -0.06023684534813251 0.7823021560951714
000600 f1 e1 74 98 a2 a4 b1 bf ed a2 ee 49 3f 96 ed 3f
       -0.06891838285526554 0.9245907253253712
000610 f3 77 f5 b5 03 09 b4 3f 92 22 22 a8 0b 63 e9 bf
       0.07826255028109567 -0.7933405193189904
000620 19 95 21 ef 8e f9 c6 3f 83 70 3c f3 26 e4 ee bf
       0.17949091602637493 -0.9653506041245382
000630 e8 be 13 c7 b7 38 a4 bf 07 23 89 d0 b5 9e ef bf
       -0.03949522309437531 -0.9881238053286275
000640 ff af 6f 61 80 2e c1 3f 4b 4b fa 0e 07 bc e1 bf
       0.13423161275511572 -0.5542025845082689
000650 08 49 5a 92 e9 41 98 bf 85 ba ee 19 b6 06 e2 bf
       -0.02368893581167078 -0.5633192545409008
000660 0c 2d c3 69 f2 2c e1 3f af 38 e4 06 59 9a ce 3f
       0.5367366853401179 0.2390853198671201
000670 a9 1d c2 0e 98 74 e1 bf eb e6 bd ad 53 40 c7 3f
       -0.5454826629874577 0.1816506002758652
000680 34 37 f6 c9 af aa e8 3f e6 eb bc 1a 0b 9c fd 3f
       0.7708357758108151 1.8505965275241976
000690 54 1c 6b d3 49 74 f1 bf 17 2e 17 19 f2 7c f9 3f
       -1.0908907183200158 1.5930043201541417
0006a0 60 57 c0 57 d9 36 f6 3f 3f 1a 5d e7 7b 46 f2 3f
       1.3883908679758505 1.142208007587797
0006b0 d8 61 27 00 88 81 fe bf e0 67 4b 2e 93 9b c3 3f
       -1.9066238409051177 0.15318526993252046
0006c0 c6 c1 ee 1a a6 9c ee 3f 51 49 75 b2 c8 b7 e3 3f
       0.9566221738842209 0.616184567023348
0006d0 b0 56 4c 97 f7 57 f6 bf c4 b6 ce e5 d6 b8 d9 3f
       -1.3964763555608606 0.4019067043508182
0006e0 2d a4 a4 30 96 52 e2 3f 63 52 d5 b4 96 32 c2 3f
       0.5725813818036208 0.14216884450674447
0006f0 e9 62 10 a2 19 c9 f0 bf de 62 30 e3 c2 78 d4 3f
       -1.0490967112183915 0.3198706835405981
000700 d0 9a 7c 4d 73 ee d1 3f 7c c7 79 6e 5f 57 c2 bf
       0.2801788574892443 -0.14329140562363907
000710 e4 83 39 48 2e 06 ea bf 98 9a 30 2d 53 a8 d2 3f
       -0.8132544909132062 0.2915237370784012
000720 9c 02 5f 4f 9a 8d a8 3f a6 83 c3 dd 7f d8 d6 bf
       0.04795534342657001 -0.3569640794431116
000730 89 44 4f 45 a8 2e e5 bf f8 9d ce 57 a2 4a d5 3f
       -0.661945472116842 0.33268030714904695
000740 c2 75 e3 90 eb 6f f0 3f 71 84 2f bd 81 9e a3 3f
       1.027324262591137 0.03831868585962973
000750 f6 9d 1e af 1f 66 ee bf ed ba 21 5e 5a f7 e2 bf
       -0.9499662800125737 -0.5926944578658017
000760 cd b2 54 c2 1b ac ed 3f b1 ba 3a 3d 04 b0 b3 bf
       0.9272593303226927 -0.07690454954966232
000770 b4 71 8e f8 db d3 e1 bf bb 37 92 34 c3 77 e5 bf
       -0.5571117262475611 -0.6708694483547711
000780 bc 85 65 70 de c7 e9 3f 3f 15 85 e8 82 03 90 3f
       0.8056480593915505 0.015638394777188976
000790 b7 10 21 ef 57 9d d2 bf ce 65 57 16 86 f9 e9 bf
       -0.290853484654018 -0.8117094456057943
0007a0 8b fb 59 7b 69 f8 e5 3f 34 64 62 73 7a ae b7 3f
       0.6865737351616742 0.09250607792854809
0007b0 a5 ef 01 4d f1 de b2 bf 47 ea 9a e5 84 a2 ee bf
       -0.07371433382098631 -0.957338760802778
0007c0 88 23 28 38 16 33 f2 3f d9 7d 9b 7e 90 c6 d7 3f
       1.137472361910314 0.37149441112521014
0007d0 ff c5 8e 4d 2f 28 f1 bf b4 72 94 26 4a 1e e5 bf
       -1.0723107366178508 -0.6599474671853245
0007e0 c5 a8 98 dd 83 1f ee 3f 5d 7e 34 4b b9 87 d6 3f
       0.9413470581105449 0.3520339235710475
0007f0 2c 2f 19 dd ee 81 e3 bf ed fb 9c f9 32 24 f0 bf
       -0.60961096938397 -1.0088376760975237
