data/QIPEDC/W00333.npy (npy, 76448 bytes, 1 tensors)

array f8 [6, 15, 106]
0	0x3fd6d2a1cfe6f35f	0.35660596182770193
1	0x3fe4aac18b714bb8	0.6458442424285442
2	0xbfdd9f7b1280a3f5	-0.4628589325607771
3	0xbffb03580a9257eb	-1.688316384597324
4	0x3fd868234c955109	0.38135607222399465
5	0x3fe4c616751c677b	0.6491806304286308
6	0xbfd2ee269a47431b	-0.29578557077643247
7	0xbff8d9225840f1e9	-1.5530112693223777
8	0x3fd788053321bc86	0.3676770209630792
9	0x3fe77948d9bcc69c	0.7335552456554129
10	0xbfc65081735defa6	-0.1743318379702689
11	0xbff4578425b78ac6	-1.2713662598913955
12	0x3fd3fa2cf7bb451f	0.3121445101979407
13	0x3feb6434ebd4db22	0.8559822660525678
14	0xbfc27429f1d70b49	-0.14417003925890473
15	0xbff006c41d28d382	-1.0016518725435337
16	0x3fd1fd4c75c9a2dd	0.2810851240415511
17	0x3ff0917f9a1c2e53	1.0355220813679764
18	0xbfc3dedf296b57d2	-0.15523900530268847
19	0xbfe98221ab41d50b	-0.7971351952425335
20	0x3fb5497d62d8a48c	0.08315261519659795
21	0x3feba51b4c00fffc	0.8639046177340783
22	0x3f7bd497a6959af1	0.006794540773035194
23	0xbff3546f0fe9e591	-1.2081137296321212
24	0xbf892cbcd3fa54d6	-0.012292361468363582
25	0x3ff100d937be279c	1.062707154984742
26	0xbf91410d89e880f7	-0.016849719564675927
27	0xbfe831acd2fc9960	-0.7560638542970928
28	0xbfb74d5956b4b632	-0.0910240017589892
29	0x3ff32bd8d52e2ffd	1.1982048346862932
30	0xbfa03b025a8706b1	-0.03170020442077027
31	0xbfe01583371bc391	-0.502626044877717
32	0xbfc4b0c4e06c6a78	-0.16164456327608767
33	0x3ff56c498e780c89	1.3389373364632624
34	0xbfa69e911ae64581	-0.04417851880419744
35	0xbfd2d1b4dbab10e6	-0.29404946758246664
36	0xbf8f717a20f31d31	-0.015353159075302077
37	0x3fea9bd4dbff1f08	0.8315223976905779
38	0xbf9d63ed2f6a5833	-0.028701501864439826
39	0xbff28cca497711b0	-1.1593726033907892
40	0xbfc3ccc3d11b6444	-0.1546864291219966
41	0x3ff042f3e41c2ff1	1.0163458738852535
42	0x3fc236554d98a8c2	0.14228311814196642
43	0xbff0c5fba50841d1	-1.0483356901714738
44	0x3f70574db830424e	0.003989509193175934
45	0x3ff4433377a8e46d	1.2664065050323885
46	0x3faf287f7713a44b	0.06085584953854858
47	0xbfe7c45bdf43b491	-0.7427195892938859
48	0xbfb7389f718a5a38	-0.09070774576171281
49	0x3ff74e6fb15cb285	1.4566494873244278
50	0x3f7afb84418cf427	0.006587521195624147
51	0xbfdefc0fa6894d69	-0.48413459075273707
52	0x3fcc637572c2b8d1	0.22178524116083634
53	0x3fe9a63034e11530	0.8015366585538342
54	0x3fc795c91e497f19	0.18425859431135264
55	0xbff8cd818080a5f0	-1.5501723308210522
56	0x3fb0f5fe47bb6cec	0.06625355960152363
57	0x3ff013c9a8c194de	1.0048309890783496
58	0x3fa428d7ee3624a6	0.03937411101203141
59	0xbff0801bff75e4ae	-1.031276700871142
60	0xbfa5d20e603efc65	-0.0426182262885895
61	0x3ff2819d3a1a45ec	1.1566440839418375
62	0xbfa1b598d47fd264	-0.03458860010133405
63	0xbfe8834a0184498c	-0.7660264997123689
64	0xbfbe744c02093ed7	-0.11896204995832292
65	0x3ff525dd28d21663	1.3217441172177125
66	0xbfb6666beb06ca31	-0.08750032890274252
67	0xbfe18fbe1bef0f63	-0.5487967057783688
68	0x3fc6fb9dfc31a6c3	0.17955374540479427
69	0x3fe6a9ad4dc9d7e2	0.7082125205331489
70	0x3fb0d3fb020e25a3	0.06573456573655405
71	0xbff7d17459594600	-1.4886363496956392
72	0x3f9c5f7fc9a17871	0.027708050424159972
73	0x3fea0d408dccb204	0.8141176957629459
74	0xbfafc5e19c91fed0	-0.06205658947237469
75	0xbff1c985d1cc36ad	-1.111699885866453
76	0xbfb3d5d68f9c6975	-0.07748166090133231
77	0x3fecd4b17c987673	0.9009635385043125
78	0xbfc19271560a56ba	-0.13728157712164607
79	0xbfed4e7f885dc52d	-0.9158322966961002
80	0xbfc4a254fa36f3cd	-0.16120397775185183
81	0x3fefd45ddc035941	0.9946736619120103
82	0xbfc7ce4b665ef7c5	-0.18598310946066313
83	0xbfe79ee9d9d87346	-0.7381486182017418
84	0x3f9ac279438c7630	0.026132483241886273
85	0x3ffd1b34edcd267f	1.8191422738185847
86	0xbfbb528af775ed23	-0.10672825376052635
87	0x3ffe3597b7eb10e7	1.8880841430955628
88	0x3fa955eb44028e76	0.0494836349983218
89	0xbfea64f1d39aa9b5	-0.8248223431485743
90	0x3fc531ab5ae0dcb0	0.16557828843517575
91	0xbfefad7a04bd6cbf	-0.9899263470246281
92	0xbfb034811a4edc80	-0.06330115215574672
93	0xbfefcbadc32b8106	-0.9936131297982065
94	0x3fc07db79cc10f4d	0.1288365855599473
95	0xbfe2e374c6566d0a	-0.5902656434804225
96	0xbf9e3dabd552be82	-0.029532132048812894
97	0xbfe31094e7bc1976	-0.5957741285390472
98	0x3fe1c9631d722f77	0.5558333945386796
99	0x3fdb9cc418156880	0.4314432368461283
100	0xbfdc0f2456b79e62	-0.43842419117433995
101	0x3fd2358f7e0519e1	0.2845190745032636
102	0x3fe526bba6392525	0.660978150038464
103	0x3ffff78eaad27899	1.9979387924900378
104	0xbff078a34441dbda	-1.0294525781916861
105	0x3ff47cee1471f5c5	1.2805004881514475
106	0x3fce5863f9161af0	0.23707246458453524
107	0x3fe470ab28aa7a3c	0.6387534899002456
108	0xbfd86ad448f9cdb9	-0.3815203392652751
109	0xbff9fd27a572283c	-1.6243053877574445
110	0x3fd2dfb748a8544c	0.29490453811132933
111	0x3fe6086767795e96	0.6885258694628245
112	0xbfca4f43fb21213d	-0.20554399263552084
113	0xbff800797ed314b5	-1.500115867050494
114	0x3fd37711cc78078a	0.30414242713606454
115	0x3fe985641bdea156	0.7975330871895874
116	0xbfbb86d3cd8266fd	-0.10752605216330476
117	0xbff424d28a98483c	-1.2589898504125037
118	0x3fd1d978a12a6af8	0.27889838923299193
119	0x3fed2cdf826185cd	0.9117276712897194
120	0xbfb975a06b27ceb2	-0.09945109001256006
121	0xbff06a40220e4b73	-1.0259400682741358
122	0x3fd14ebac4bf804e	0.2704302712791148
123	0x3ff0bd7c94e1e42a	1.046261388370349
124	0xbfbfe443df906aab	-0.12457679947002968
125	0xbfeae802a6ce0ea3	-0.8408215768726744
126	0x3fb0377b570655e3	0.06334658503177297
127	0x3fecab5f1aadee9d	0.8959193726618256
128	0x3f9483c5a93664be	0.020033920720014413
129	0xbff2bea16f8e2878	-1.1715406758908369
130	0xbf91f54a381d11cf	-0.017537269282245135
131	0x3ff0b8c72c48b19c	1.0451118211595718
132	0xbf9c71f13adba6d2	-0.027778405396850676
133	0xbfe95b181c68a9eb	-0.79236989544489
134	0xbfb325f72d9d5a9f	-0.0747980581630636
135	0x3ff274ce7861ceb1	1.1535172178673003
136	0xbfaa94c074169a55	-0.05191613595097936
137	0xbfe2e066c1c43916	-0.5898927483083607
138	0xbfc0ce69fa99b1d6	-0.13129925476404364
139	0x3ff432e56cf4623e	1.262425828556061
140	0xbfb29e57243d96f1	-0.07272858271388906
141	0xbfdb193511ed6936	-0.42341353178712227
142	0xbf98fe6603608801	-0.024407953220482174
143	0x3febd2378dfde56d	0.8694112561490052
144	0xbf9553fcd163da84	-0.02082819965377293
145	0xbff1a173d5aab3bd	-1.1019171091422628
146	0xbfc08055ad1e1de9	-0.12891646340379673
147	0x3ff052690b14cf3e	1.0201197083342346
148	0x3fbd35c839f51cbd	0.11410190024354257
149	0xbff03430c91c629c	-1.0127418380635964
150	0x3fa6c1c3161fc451	0.04444703717297983
151	0x3ff3b085a1a38b21	1.2305961908356908
152	0x3f9b8eca399d4137	0.02691188789987217
153	0xbfe92fe0fdf2cee3	-0.7870945892268221
154	0xbf9a5034663e5c6d	-0.02569658159299275
155	0x3ff5ebd3e67660ea	1.3700751306951653
156	0xbfa00dde019346fd	-0.0313557984278656
157	0xbfe2c079758c13bf	-0.5859954162448203
158	0x3fc7c89c01143fea	0.18580961277666513
159	0x3feb4b4d52894b60	0.8529421436345324
160	0x3fc4c0c57162d66a	0.16213291202955143
161	0xbff5d2a022936529	-1.363922247945377
162	0x3faec6d24b83f497	0.060110637396044435
163	0x3ff028e2670c8cae	1.0099815392830283
164	0x3f99a32f37d1611d	0.025036561757901688
165	0xbfef57af042fd361	-0.9794535714887439
166	0xbf9755fe4e6be8fe	-0.022788976227254835
167	0x3ff21e5c407c9952	1.1324121970188412
168	0xbfabadefdde4061b	-0.054061408840436274
169	0xbfe9266c4af8c2b7	-0.7859403099337986
170	0xbfb7c2690fac10ba	-0.09281021721477858
171	0x3ff41bce95fbbc49	1.2567888125156677
172	0xbfbba80d7e37617f	-0.10803303080991176
173	0xbfe417513aa3562c	-0.6278463502191634
174	0x3fc3cafe46bc8c99	0.15463236288005502
175	0x3fe8bf284b3fa149	0.7733346433351836
176	0x3faab5e29c1df21d	0.05216892390942383
177	0xbff4d1ef2f0fb454	-1.3012534941037943
178	0x3fa3171b8210d397	0.03728567087856687
179	0x3febd4db862cac0c	0.8697335835071285
180	0xbfb097a0b6b3bfd4	-0.06481365643025977
181	0xbff11f7c45772dad	-1.0701868737695392
182	0xbfa5eea2afce9a95	-0.042836269341298173
183	0x3fee18438bdcc0de	0.9404618961034676
184	0xbfc122bf0bc0fc34	-0.13387287210386634
185	0xbff003e7da60649d	-1.000953534158078
186	0xbfbc7301cebc4fff	-0.11112986848121408
187	0x3ff02a6a7faeda37	1.0103554713838443
188	0xbfc66e39d47f25b8	-0.17523882747472697
189	0xbfedcd27c7f4bf00	-0.9312933831588168
190	0x3f8973b7f7cc18b4	0.012427747010871883
191	0x3ffbd0b0afc8420f	1.7384497515196278
192	0xbfc00ec21121ba09	-0.12545038067351325
193	0x3ffcbced71ff376b	1.7961248829846805
194	0x3fa6c4f3e5d9fe8d	0.044471380050706256
195	0xbfe9e918a3c7058a	-0.8097041319635292
196	0x3fc5415591a7a1ea	0.16605634319354518
197	0xbfefca873b855dae	-0.9934726870077861
198	0xbfb0f246f6f71e09	-0.06619685677934951
199	0xbff00fc03f6e7c33	-1.0038454511448094
200	0x3fc075eed29dab8c	0.12859902652720867
201	0xbfe294fdb20b7a8b	-0.5806873776853804
202	0xbfa176daffe19789	-0.03410992024946242
203	0xbfe30b1296768e56	-0.5951016367657285
204	0x3fe1fda226166ce7	0.5622111076258108
205	0x3fd9f5bac2ecc495	0.40562314067489896
206	0xbfdc1253878b6b7b	-0.43861854779031945
207	0x3fd0a4e1c0c51377	0.2600635893361906
208	0x3fe56753af14a729	0.6688631457848021
209	0x400000e6291cec1a	2.0004389965011002
210	0xbff0801aecfbaa36	-1.031275678362943
211	0x3ff51124e02f6407	1.3166855580550434
212	0x3fc8e70bdcece225	0.19455097472543162
213	0x3fe615db2d5d4a4c	0.6901679883979539
214	0xbfd4306a9f2e365c	-0.31545510811779365
215	0xbff59bd90f5ba996	-1.3505488014148788
216	0x3fcfd9ccbc0be6a7	0.24883422071416314
217	0x3fe7db78ddd2b9b9	0.745541032074292
218	0xbfc548b7fdd5551e	-0.16628169912534302
219	0xbff5a1db1d3f2e50	-1.3520156042531148
220	0x3fd0780cd55057c1	0.257327278436943
221	0x3feac63914d83a7c	0.8366971404191896
222	0xbfb4b8299bd848d6	-0.08093509726339518
223	0xbff37f773183907d	-1.218619531072391
224	0x3fcdbf0249c22cd9	0.23239163018693068
225	0x3fee02e962010e35	0.9378554262297657
226	0xbfb28bc274ce3226	-0.07244506217666266
227	0xbff0d61122e13d77	-1.0522624361509239
228	0x3fcdfab979bcdc89	0.23421400493836966
229	0x3ff09905b471427c	1.0373589561969814
230	0xbfb6fbec1933ac1f	-0.08978152861861631
231	0xbfed8584659083cc	-0.9225484832460267
232	0x3fac7ad313b8336f	0.055624576718492295
233	0x3fed629440b34c62	0.918283583038271
234	0x3f8a363dd6aec36b	0.012798770059676298
235	0xbff208df5373a483	-1.127166105254475
236	0xbf8a1907c53ddb38	-0.01274305411037134
237	0x3ff0711ac723c00e	1.02761342801023
238	0xbf91b28133e2e55d	-0.01728250388325613
239	0xbfec78ed7a0ea133	-0.8897616752556473
240	0xbfaf247bdf0d5fe0	-0.06082522485547748
241	0x3ff1c9fe3cda4a85	1.1118147255953386
242	0xbfb0c678e6de71bd	-0.06552844654510799
243	0xbfe8e8c1c535ccf3	-0.7784127094040784
244	0xbfbbf998222be68a	-0.10927725633873756
245	0x3ff31f619a8d488c	1.1951614415343412
246	0xbfba9e1679e6c51a	-0.10397472835645197
247	0xbfe651153b88a289	-0.6973978197830358
248	0xbf90c481bd3bb3d0	-0.01637461392867917
249	0x3fec4b27300e8e58	0.8841739595995461
250	0xbf948f83e3a69c5a	-0.020078717012122695
251	0xbfefb23b12eee13b	-0.990506684283026
252	0xbfbad17290547538	-0.10475841544799358
253	0x3fefd389036eb7b0	0.9945721690216853
254	0x3fc15cf0f62cb040	0.13564884205095673
255	0xbff0883faaec0ee8	-1.0332638432163836
