data/QIPEDC/W00652.npy (npy, 89168 bytes, 1 tensors)

array f8 [7, 15, 106]
00000000: 0000 0000 0000 0000 0000 0000 0000 0000
00000010: 0000 0000 0000 0000 0000 0000 0000 0000
00000020: 0000 0000 0000 0000 0000 0000 0000 0000
00000030: 0000 0000 0000 0000 0000 0000 0000 0000
00000040: 0000 0000 0000 0000 0000 0000 0000 0000
00000050: 0000 0000 0000 0000 0000 0000 0000 0000
00000060: 0000 0000 0000 0000 0000 0000 0000 0000
00000070: 0000 0000 0000 0000 0000 0000 0000 0000
00000080: 0000 0000 0000 0000 0000 0000 0000 0000
00000090: 0000 0000 0000 0000 0000 0000 0000 0000
000000a0: 0000 0000 0000 0000 0000 0000 0000 0000
000000b0: 0000 0000 0000 0000 0000 0000 0000 0000
000000c0: 0000 0000 0000 0000 0000 0000 0000 0000
000000d0: 0000 0000 0000 0000 0000 0000 0000 0000
000000e0: 0000 0000 0000 0000 0000 0000 0000 0000
000000f0: 0000 0000 0000 0000 0000 0000 0000 0000
00000100: 0000 0000 0000 0000 0000 0000 0000 0000
00000110: 0000 0000 0000 0000 0000 0000 0000 0000
00000120: 0000 0000 0000 0000 0000 0000 0000 0000
00000130: 0000 0000 0000 0000 0000 0000 0000 0000
00000140: 0000 0000 0000 0000 0000 0000 0000 0000
00000150: d964 a230 c324 e7bf 2117 1e81 4368 0840
00000160: fe25 af1c 14a7 a6bf ed35 03c0 4247 0140
00000170: 34bb a3f6 76b7 c43f 38cb a363 ea38 f13f
00000180: f06e 231e 50d3 cd3f 7d08 7ac6 5225 cf3f
00000190: 8ef5 a5f2 6782 d03f 7cbc 4b79 7905 debf
000001a0: d7ee 1a3e fddf dfbf 9b81 a260 3327 d6bf
000001b0: 7fb2 232a cbd6 bbbf 0123 1e7e 603e f6bf
000001c0: a7a7 8205 ce91 d93f 52e8 b030 3ba7 f7bf
000001d0: d72c 1489 c67e e73f 5d6a 43a3 9b8a f3bf
000001e0: 0462 ba75 9639 e6bf 74fe 527c ef0c d4bf
000001f0: 6782 065a 0acb aa3f 342f f18c 72c9 f5bf
00000200: 0edd 44e6 e25b df3f 0ccb b645 61be e7bf
00000210: eb6d e3d0 befa e13f 3718 7495 f056 a1bf
00000220: 8d90 2659 0227 e9bf b3ff 9a28 7ef8 c3bf
00000230: c75f b44f 542d b43f af61 c9ed 90e8 ebbf
00000240: 20f5 51ed 2612 d53f 9e34 4a17 e936 b33f
00000250: 1242 a91e bd75 cf3f 87fc a730 08e8 ea3f
00000260: b8dd 7cc4 ad00 e9bf caaf 06c3 3d30 c23f
00000270: 4535 a78b ff0f abbf c363 5ef6 2261 d6bf
00000280: 3509 fee1 db14 bf3f 500a 659c d6da d13f
00000290: aeb6 ac49 c192 973f 6586 649b 91b9 eb3f
000002a0: 6e02 bc8b 1790 09c0 460e 2a4c 836a 08c0
000002b0: 369e 677f 7304 b4bf 3142 105d fec0 dbbf
000002c0: 22ed 6769 7103 b4bf e9d9 afe6 2a66 e9bf
000002d0: 8ce7 355c 1274 b33f 8e0c 109a 7ba4 f0bf
000002e0: c5f8 f903 dfd9 c4bf 4857 0971 4038 f0bf
000002f0: c70b 1fd6 2154 a63f 789f 3070 4f2a e2bf
00000300: d45f 98b1 c2d7 c0bf f04e 216f a19f e1bf
00000310: 55c8 074d 34bc e43f 63a7 cb96 05b8 d73f
00000320: 391a ed7b 4dec debf 0ba8 84a0 c095 d13f
00000330: a97f 094c 2933 eb3f 0504 63e9 a60b ff3f
00000340: bbd4 71a9 2460 e8bf 2230 e376 b115 f63f
00000350: 0000 0000 0000 0000 0000 0000 0000 0000
00000360: 0000 0000 0000 0000 0000 0000 0000 0000
00000370: 0000 0000 0000 0000 0000 0000 0000 0000
00000380: 0000 0000 0000 0000 0000 0000 0000 0000
00000390: 0000 0000 0000 0000 0000 0000 0000 0000
000003a0: 0000 0000 0000 0000 0000 0000 0000 0000
000003b0: 0000 0000 0000 0000 0000 0000 0000 0000
000003c0: 0000 0000 0000 0000 0000 0000 0000 0000
000003d0: 0000 0000 0000 0000 0000 0000 0000 0000
000003e0: 0000 0000 0000 0000 0000 0000 0000 0000
000003f0: 0000 0000 0000 0000 0000 0000 0000 0000
00000400: 0000 0000 0000 0000 0000 0000 0000 0000
00000410: 0000 0000 0000 0000 0000 0000 0000 0000
00000420: 0000 0000 0000 0000 0000 0000 0000 0000
00000430: 0000 0000 0000 0000 0000 0000 0000 0000
00000440: 0000 0000 0000 0000 0000 0000 0000 0000
00000450: 0000 0000 0000 0000 0000 0000 0000 0000
00000460: 0000 0000 0000 0000 0000 0000 0000 0000
00000470: 0000 0000 0000 0000 0000 0000 0000 0000
00000480: 0000 0000 0000 0000 0000 0000 0000 0000
00000490: 0000 0000 0000 0000 0000 0000 0000 0000
000004a0: 4d34 9e47 3945 e6bf 4491 172c bd33 0940
000004b0: f90f 568c 1c40 95bf 1fd2 6c2f 5cd0 0140
000004c0: 8373 8c3e 98dd c43f a5f2 bb86 56df f23f
000004d0: 9060 fe11 8717 cc3f e379 6fc0 4e9e d73f
000004e0: caad 23dd 9111 d23f e930 6d1b 9b5d d3bf
000004f0: e966 d0f4 e356 e0bf 831d e28d 018a d4bf
00000500: 2c24 6cea c9c8 bbbf 9640 4d21 34fd f4bf
00000510: 5979 556c 84d6 da3f 1770 1258 bb22 f6bf
00000520: 7ff0 c28a 7a3e e83f 1697 608c 272f f1bf
00000530: a2e3 5aca c74f e6bf 0460 73b5 d027 d7bf
00000540: d017 50f8 0329 b33f 14ed d87c 4a5e f6bf
00000550: 68e9 0a4f 702e e03f 5871 7e4d 7dac e6bf
00000560: 3d00 713c e0bc e13f ada5 4388 7f76 8a3f
00000570: 4872 e5e8 566f e9bf ebad 7493 2722 d1bf
00000580: 20bf a40f d1c6 bb3f 9ad1 5234 55a9 efbf
00000590: 1673 3437 2143 d53f 7a3d cf42 b3a2 80bf
000005a0: c92c 4e80 733e c83f 1201 75ee 4954 e83f
000005b0: 9693 5143 9185 eabf 4ff1 a3f8 04fc a1bf
000005c0: 6827 bf05 62bc a1bf 7cde fec3 952b debf
000005d0: 3889 36ac c0af be3f b478 afe8 8045 c73f
000005e0: 8b7b 4ac4 0c09 a2bf d128 31fc b713 e83f
000005f0: 46ca 5d3f 1f42 09c0 a614 ea92 591e 08c0
00000600: b84d 1dec 0fe2 adbf 2dc1 b404 2bf1 dbbf
00000610: 47bb 6295 76b7 b2bf d119 6cf2 6de5 e9bf
00000620: 6bfa 009e 0691 b33f 3436 9c95 cf7e f0bf
00000630: 3549 d8b5 acc0 c4bf 49be 572f 370d f0bf
00000640: f7b9 9bfa 66fe a63f bf5c 3908 1456 e2bf
00000650: 295a 80a0 99d4 c0bf 2be8 82b9 d2e0 e1bf
00000660: ceb0 5c8e 7d86 e43f cb0d b747 3918 d83f
00000670: f11d 90fc eca0 debf e932 ff09 2b3a d13f
00000680: 7e19 c743 8cce ea3f 4c1b 0d00 9385 ff3f
00000690: fa15 032f 5a2a e8bf 5a78 8d0a 05c0 f53f
000006a0: 0000 0000 0000 0000 0000 0000 0000 0000
000006b0: 0000 0000 0000 0000 0000 0000 0000 0000
000006c0: 0000 0000 0000 0000 0000 0000 0000 0000
000006d0: 0000 0000 0000 0000 0000 0000 0000 0000
000006e0: 0000 0000 0000 0000 0000 0000 0000 0000
000006f0: 0000 0000 0000 0000 0000 0000 0000 0000
00000700: 0000 0000 0000 0000 0000 0000 0000 0000
00000710: 0000 0000 0000 0000 0000 0000 0000 0000
00000720: 0000 0000 0000 0000 0000 0000 0000 0000
00000730: 0000 0000 0000 0000 0000 0000 0000 0000
00000740: 0000 0000 0000 0000 0000 0000 0000 0000
00000750: 0000 0000 0000 0000 0000 0000 0000 0000
00000760: 0000 0000 0000 0000 0000 0000 0000 0000
00000770: 0000 0000 0000 0000 0000 0000 0000 0000
00000780: 0000 0000 0000 0000 0000 0000 0000 0000
00000790: 0000 0000 0000 0000 0000 0000 0000 0000
000007a0: 0000 0000 0000 0000 0000 0000 0000 0000
000007b0: 0000 0000 0000 0000 0000 0000 0000 0000
000007c0: 0000 0000 0000 0000 0000 0000 0000 0000
000007d0: 0000 0000 0000 0000 0000 0000 0000 0000
000007e0: 0000 0000 0000 0000 0000 0000 0000 0000
000007f0: 9c8e 3c45 8b7e e4bf 28d3 7808 1459 0840
0.0 0.0 0.0 0.0 0.0 0.0 0.0 0.0
0.0 0.0 0.0 0.0 0.0 0.0 0.0 0.0
0.0 0.0 0.0 0.0 0.0 0.0 0.0 0.0
0.0 0.0 0.0 0.0 0.0 0.0 0.0 0.0
0.0 0.0 0.0 0.0 0.0 0.0 0.0 0.0
0.0 0.0 -0.7232376050843882 3.05091000435904 -0.04424345827244379 2.1597952843646824 0.1618488983435441 1.0763954059772924
0.23301125976183057 0.24332651797528007 0.25795935340996656 -0.46908413739487975 -0.4980462175842439 -0.3461426204394457 -0.1087462404136179 -1.3902287413094998
0.3995242170154775 -1.4783279325479453 0.7342255284615032 -1.221339833972386 -0.6945297526718268 -0.3132895197013348 0.05233032559340672 -1.3616815095474069
0.48998329627234305 -0.7419897424318562 0.5618585662700161 -0.033866422885737206 -0.7860118619178295 -0.1560208986538761 0.0788166708556438 -0.8721394199629254
0.32923291374011576 0.07505661791420201 0.24578060147406738 0.840824217826495 -0.7813328588153388 0.14209720633277662 -0.05285643176794478 -0.3496787458366805
0.121412031816395 0.2789818312923318 0.023020763513321434 0.8664024386418531 -3.195357410121054 -3.0520082426390074 -0.07819291935413095 -0.43365439499123953
-0.07817753623378512 -0.7937216287235148 0.07598986388430101 -1.0401569383691682 -0.16289889997637466 -1.0137333312499823 0.043610627544260754 -0.5676648322305331
-0.131584488598263 -0.5507361574659324 0.6479741577625285 0.3706068012821701 -0.4831727705208411 0.2747651641426507 0.8499952778911296 1.940344726245031
-0.7617362317529549 1.38029619636928 0.0 0.0 0.0 0.0 0.0 0.0
0.0 0.0 0.0 0.0 0.0 0.0 0.0 0.0
0.0 0.0 0.0 0.0 0.0 0.0 0.0 0.0
0.0 0.0 0.0 0.0 0.0 0.0 0.0 0.0
0.0 0.0 0.0 0.0 0.0 0.0 0.0 0.0
0.0 0.0 0.0 0.0 -0.695950164679411 3.1502631611530507 -0.02075237852615428 2.2267383294186085
0.1630125337041158 1.1795258772901118 0.21946800592991567 0.369037330556152 0.28232237430230767 -0.302588249953955 -0.5106067449116526 -0.3209232221201647
-0.1085325429268244 -1.3118172932482017 0.4193430955837321 -1.3834794464410203 0.7576267919717025 -1.0740123256195537 -0.6972388221976085 -0.36180513114732116
0.07484459698034063 -1.398020255742101 0.5056687873650789 -0.708555842738444 0.5543061428543364 0.01292132982821922 -0.7948412464862225 -0.2677096309659805
0.10850245124742885 -0.9894205114310808 0.3322222746954123 -0.008122826076855761 0.1894058586588925 0.7602891595234118 -0.8288046183412117 -0.03512588057671683
-0.03464037246847235 -0.4714102186221465 0.1198692722742053 0.18180858003228695 -0.03522529502992374 0.7524070668817108 -3.157286162423847 -3.0148192861257312
-0.058365342686239996 -0.43659472903802304 -0.07311192652808272 -0.8092565283594074 0.07643166883006251 -1.0309596866749304 -0.16212996367591762 -1.0032264565778795
0.04490968522246768 -0.5730075989366908 -0.1314880403230785 -0.5586942313450484 0.6414172916897998 0.3764785003988577 -0.4785721270022512 0.2691753003717126
0.8377133678230135 1.9701108934402383 -0.7551699560360128 1.3593798076831463 0.0 0.0 0.0 0.0
0.0 0.0 0.0 0.0 0.0 0.0 0.0 0.0
0.0 0.0 0.0 0.0 0.0 0.0 0.0 0.0
0.0 0.0 0.0 0.0 0.0 0.0 0.0 0.0
0.0 0.0 0.0 0.0 0.0 0.0 0.0 0.0
0.0 0.0 0.0 0.0 0.0 0.0 -0.6404472687031162 3.0434952413437664
