data/QIPEDC/W00663B.npy (npy, 305408 bytes, 1 tensors)

array f8 [24, 15, 106]
00000000: 3917 348c 24da e03f e9dd c7b9 20d1 f03f
00000010: 62d3 7a58 c11e ddbf 9461 b2b8 abe6 d6bf
00000020: dfd6 0163 08fb e03f d74f 0b90 ba81 ea3f
00000030: 7997 7bc7 e198 e0bf 2f02 969f f75b e3bf
00000040: fd2f d554 73c1 df3f 3f5c e1c4 0b40 e63f
00000050: 8e81 3642 1697 e0bf f9c6 5746 8f77 ebbf
00000060: d81e 7e17 929c dc3f 27c1 33f8 6444 e53f
00000070: e8ab 1602 d239 e0bf d943 1267 35a9 f0bf
00000080: d4c2 d13c 2e62 da3f 25d5 0bfa 661f e73f
00000090: eac5 9188 dccc e0bf bee1 22da 6d98 f2bf
000000a0: 22b6 080f 464f d93f 0bfe 3330 fffd ec3f
000000b0: a381 8f2d cd78 d8bf 5fb6 2328 3a1f edbf
000000c0: 79be ba36 c50c d23f ac4a dcd3 e77f ec3f
000000d0: 08b7 cf9e 1ff9 d2bf 72bd 0308 102b f2bf
000000e0: 41fc 6b1b 7986 c93f 6b10 8f16 906c ec3f
000000f0: 1ce6 0ed2 7d81 cfbf 0160 7f44 ba4d f4bf
00000100: 160a 32c8 6524 bf3f 2449 aa64 2faa ec3f
00000110: d63e 9a47 ade2 cabf 2e19 eea2 aeff f5bf
00000120: 6e5b ab89 4af5 d53f b963 ca29 1854 f03f
00000130: f03f 8344 f364 d3bf e250 fa72 4d83 eabf
00000140: f96a 4990 9599 ca3f f451 1731 f258 ef3f
00000150: cd7b 456f 9b44 c9bf 9439 d6c4 f867 f0bf
00000160: 4d2f 8cd1 d77f bf3f 86bd 3d5b 6f96 ee3f
00000170: 51dc ef9c c702 c3bf 89e3 e76f 7fde f2bf
00000180: cbc9 7ac6 7fbe a53f e572 59cf 9a08 ee3f
00000190: 7383 5b50 1470 bcbf 8313 ae78 1de9 f4bf
000001a0: 1693 57a2 0ed9 d33f 6ad0 e148 3657 f13f
000001b0: 26f4 53f1 2437 ccbf ad8a 0673 d2cf e5bf
000001c0: b1ec a936 1adb c73f 0585 25ca a2eb f03f
000001d0: acd1 c99c 4512 c2bf 8834 68eb b7ff ecbf
000001e0: 9266 4a1c e002 b83f 2c60 360f 3e6b f03f
000001f0: eccb 36ef 922c b9bf 66fa ebb3 2fcc f0bf
00000200: b8b4 a4ab 6914 8d3f aa0e af21 980a f03f
00000210: fdc5 fa2a d168 b1bf b56c 10b5 dfb5 f2bf
00000220: 9cc7 ffa6 9dff d13f 4720 cd19 3aa9 f13f
00000230: 5551 2b5c 3124 c6bf 2c04 4f16 584e e2bf
00000240: 1205 18fc ea4b c63f 3673 18b6 3972 f13f
00000250: 237b 4407 2e60 babf 3caa f5d7 1c57 e7bf
00000260: 5376 f489 97ec b83f 5179 516e d218 f13f
00000270: 7ee7 75ab 7b86 b0bf 2cdc 6cde 41a9 eabf
00000280: 0850 1bc9 7e3e a23f d5e6 6b56 49c7 f03f
00000290: f94e 4feb eed5 a0bf e226 c583 fc85 edbf
000002a0: 6574 5d47 d010 ac3f 46ed bd4d e06b ed3f
000002b0: 75eb 4a92 c7a7 a53f 6c25 9192 1ea6 ec3f
000002c0: aca1 b11e e7b9 98bf eb91 4cad 93b7 e9bf
000002d0: 2d19 bff9 cbc6 be3f d33b 6b37 f88a efbf
000002e0: b285 6090 090f bbbf e3c0 56c9 77c6 efbf
000002f0: c564 189e 230e b33f 5cbb d7fc b5d8 e2bf
00000300: d624 fc85 a977 babf 7036 9553 602c e3bf
00000310: 22df 5d29 d75d e23f 90a6 4d96 9ddd d83f
00000320: 5e65 10d5 13d7 e1bf 1737 1540 2363 d43f
00000330: b861 0686 be21 eb3f 95eb 5df6 8389 fa3f
00000340: cfa8 8d31 7a6c eabf 311d 47d3 58ad f93f
00000350: 4e06 b5ab 02c2 e03f 55c2 51c2 e9c9 f13f
00000360: 045d 878a 72ec dbbf a50b 8304 3723 d4bf
00000370: 25ba 537c 832a e13f 47f4 6ea9 7d2d ed3f
00000380: 2d8d 1448 a861 e0bf 2f39 1f96 5c72 e2bf
00000390: db7d 53a7 7e69 e03f 99b4 ea1e 86e6 e83f
000003a0: ee7a 9f8c 31be e0bf b66b aaa8 01d0 eabf
000003b0: a7ad cdef 483e de3f 1dbc 1f97 ddce e63f
000003c0: a5ed 4ce3 e397 e0bf a8cd dec4 dc87 f0bf
000003d0: 3412 fe97 e42e dd3f 329f 4121 8182 e43f
000003e0: 9b0f de82 c76f e1bf 5c3c 4178 5672 f2bf
000003f0: aa47 1f79 cad1 d73f 8a6f ead4 c0e8 ec3f
00000400: a9b1 7368 0c76 d8bf daa4 bf0c d7d5 ecbf
00000410: 0424 6957 a4cf d03f e12a 67dd 9d50 eb3f
00000420: 8d7c efa3 cfb5 d2bf e5d3 db5e e78b f2bf
00000430: 2eb0 0004 dd80 c73f 795d 3162 a29a ea3f
00000440: 6df5 a6eb 0eb9 cebf b334 58b2 26fd f4bf
00000450: 67ed 540c 58a0 bb3f 6e3d e93e c869 ea3f
00000460: 2cb8 6840 4af5 c9bf 0e28 9923 6ad0 f6bf
00000470: f1dc de60 4696 d43f b689 1f6b 533e f03f
00000480: 5a79 bed2 9bfd d2bf d616 185b af4a eabf
00000490: 649b db30 6185 c93f 038a b3dd 3068 ee3f
000004a0: 689f d1fa 9502 c9bf 950f a14f 723c f0bf
000004b0: 8432 49a9 a1ff ba3f 9ea7 3bfa 2e2b ee3f
000004c0: 983f a679 0fca c2bf b514 1b39 540b f3bf
000004d0: 9081 2ec7 8494 973f 7059 fb19 9449 ed3f
000004e0: 05ca c488 4891 bdbf 84bd ba5a 1937 f5bf
000004f0: d92b 4d7d 3809 d23f 2014 1282 c7de f13f
00000500: 0ead 20b5 baf5 cbbf fc68 72f1 9c83 e4bf
00000510: b8f2 bdf7 22c6 c53f 8109 3dd5 51e6 f03f
00000520: 50d7 d059 4617 c1bf e37a 7fb2 7eed ecbf
00000530: def0 0755 9e18 b73f 8918 f8f9 9634 f03f
00000540: 153e e24a 4c03 b7bf 2e48 5591 8114 f1bf
00000550: 915c 97bf f3da 943f 6928 7143 a649 ef3f
00000560: 78fd 15ae d5e2 afbf 3c91 c877 9f1b f3bf
00000570: 076e 3826 a214 d13f 48dc 3686 e896 f23f
00000580: fce4 7fa6 621e c5bf 3962 e25b 44ff e0bf
00000590: 8352 bcf0 ee69 c53f 1115 0492 e3bd f13f
000005a0: cef4 4c75 e329 b7bf 3d01 f2bf 2921 e7bf
000005b0: 5012 039c 5769 ba3f 1a73 a844 5e12 f13f
000005c0: acd0 a738 6970 a8bf b727 a544 b50f ebbf
000005d0: 1fb3 76ea 35ba a93f 8ab8 5fb3 bd74 f03f
000005e0: 9411 3401 a8cf 8bbf 86ea 273d 596a eebf
000005f0: dcd3 4f04 bf19 9a3f 9f7a cbfe 3062 e83f
00000600: 9603 e523 dd51 983f 2aa2 9801 04dd e63f
00000610: 3b56 354d a51a 9abf 5c94 a502 ccf3 e9bf
00000620: 17bd 4764 dcee be3f e076 7b56 bb7e efbf
00000630: e994 4bd8 777f bbbf 1497 b047 1c03 f0bf
00000640: 70ed 5211 8083 b23f 72c8 250d 9898 e2bf
00000650: 03ce be22 9f4d bbbf fa97 7a0b cde4 e2bf
00000660: 0c74 8018 e864 e23f cf7c f8e7 8154 d83f
00000670: 6adc 2e04 bb93 e1bf 20d6 2351 0a68 d33f
00000680: 42d4 d1e8 2230 eb3f bc78 517a 3f1e fb3f
00000690: 1fca 0b82 2385 eabf 6dbf f8f7 af6d f93f
000006a0: 9e69 1b67 5804 e23f 0c4c 873a f2af f23f
000006b0: 9ef3 83fd 4292 dcbf 0e00 c54a 3d6d d0bf
000006c0: d399 636b f90b e23f b683 b60a e6cd ed3f
000006d0: 4266 b65c ec04 e1bf 7177 dbb7 e5c7 e0bf
000006e0: 493d 7e3e c0c0 e03f 3c2a 51cd 1e9f e83f
000006f0: 259d 3eb9 dd68 e1bf 33bb e54a bd9f e9bf
00000700: e908 1a0d e226 de3f 32ba d729 2b2d e63f
00000710: 8286 28ca d85c e1bf 7c7b ffcc ae14 f0bf
00000720: 0857 7101 025c dd3f 9c57 e896 f90a e33f
00000730: bd32 e4f1 445c e2bf 4a75 ffd2 f727 f2bf
00000740: 1d70 1b8a 157e d93f ff54 d099 869a ec3f
00000750: 61b7 7a74 744b d8bf 06cb b0cc fd10 edbf
00000760: 688f 6ec6 7eb3 d03f 143c 0329 3ec1 ea3f
00000770: 5e16 9390 d975 d2bf 9f72 7641 dad2 f2bf
00000780: 05b3 0f6a e546 c43f 2d91 67d7 2772 e93f
00000790: c606 7469 5cdf cdbf 2eb8 1507 dd89 f5bf
000007a0: d365 c046 7450 b13f 6d3c b655 11a6 e83f
000007b0: 806a 67fd f1c0 c8bf 9932 2ebd bc9a f7bf
000007c0: ae27 cd18 b59d d63f 98e0 acba 868a f03f
000007d0: e48c b441 83b4 d2bf 754a dd04 6b80 eabf
000007e0: c607 4576 5374 ca3f e5ec 0252 c609 ef3f
000007f0: 6fb2 b08b f4fa c8bf 408f 2c75 0242 f0bf
0.526628755412026 1.0510566002902755 -0.4550021518764905 -0.357829027526827 0.5306436475500184 0.828336030327132 -0.5186623474262283 -0.6049764744676106
0.4961822822995144 0.6953181119269017 -0.5184432309361442 -0.858344685924947 0.4470563153667917 0.6645989272783809 -0.5070581475059699 -1.0413106943344614
0.4122424692095994 0.7225832828250175 -0.5250075023051839 -1.1622141381213704 0.3954634806458178 0.9060054723231031 -0.3823731369903049 -0.9100619110083236
0.2820294413058729 0.8906134736920044 -0.2964552927868316 -1.1355133355208094 0.19941629256206464 0.8882523003199031 -0.24613926655529006 -1.2689764667211423
0.12164913308701161 0.895774551974942 -0.21004262920586453 -1.3749224056678702 0.3430963844706899 1.0205308563656514 -0.3030365151471406 -0.8285281415615169
0.20781201882603975 0.9796076735315737 -0.1974062245671732 -1.02538372887975 0.12304447999866604 0.9558636457494891 -0.14852233088433534 -1.179320752269833
0.04246901796195209 0.9385503816407349 -0.11108519517757802 -1.306912871748154 0.3101231179592089 1.0837920042950153 -0.22043287070837997 -0.681618904742512
0.18637397450570384 1.0575282951688803 -0.1411826148574965 -0.9062156293672539 0.09379387560547972 1.0261822313532418 -0.09833639469324823 -1.049850180453768
0.014199090529098832 1.0025864902280923 -0.06800563144022216 -1.1694027970141125 0.28122655209073755 1.1038151748525864 -0.17297951698732086 -0.5720634875980344
0.17419183072346606 1.0903870690446644 -0.10303008725575728 -0.7293838708840847 0.09736010664024634 1.0685600575739793 -0.06455204902695574 -0.8331612915270674
0.03563305096545838 1.0486539245452395 -0.032882181381550475 -0.9226057599673505 0.05481577750354275 0.9194184797665137 0.04229568157958045 0.8952782499920153
-0.024146662948994965 -0.8036592850444867 0.1202208981258976 -0.9857140619659454 -0.10569820189313964 -0.9929770405197157 0.07443449601886971 -0.5889539659818683
-0.10338840027920368 -0.5991670258023998 0.5739551361029707 0.3885263412290465 -0.557504573956219 0.31855088480084376 0.8478691690134417 1.658573114748582
-0.825741860183621 1.604821038535942 0.5236829141287644 1.1117951956367922 -0.43630660560798185 -0.3146493476926316 0.5364396503699181 0.9118030843016037
-0.5119210632150605 -0.576460164267507 0.512877775963655 0.7781401256412607 -0.523216986326444 -0.8378914160015174 0.47255156915954405 0.7127521468772816
-0.518541282602588 -1.0331695261237233 0.4559871181775492 0.64093071456316 -0.544894939041558 -1.1529144952253523 0.3721796210130558 0.9034122618208908
-0.38220510673888924 -0.9011035202976487 0.26267345939828624 0.8535909008290582 -0.2923468686039506 -1.1591561990182921 0.1836200971168877 0.8313762586430321
-0.24002253061727732 -1.3118044821342607 0.10791540432994894 0.8254128674251839 -0.20279815812085766 -1.4258824720914194 0.32167205295577533 1.015216272783261
-0.2967290456816919 -0.8216168193036661 0.199382923942916 0.9502186136344907 -0.19539141413701633 -1.014757453013748 0.1054631269736977 0.9427714240421101
-0.14679139556801313 -1.190265868253204 0.023027491242488873 0.9152317531068501 -0.11549809779243254 -1.325951914226466 0.281812784542749 1.116889484489782
-0.21843656391261174 -0.6410660472641037 0.1701091489484463 1.0562303857446695 -0.1335227907708778 -0.9039910780228094 0.09021939826920142 1.012839294855015
-0.08989407375542442 -1.0675063778949254 0.02036648613815523 0.9777404134013185 -0.06227748632499702 -1.1942438773194928 0.2668843625303627 1.1618428461786312
-0.16498978738653836 -0.5311605257621245 0.16729532961530333 1.108859606146613 -0.09048291791710314 -0.7227982281620268 0.10316989478003191 1.066984432406747
-0.047732628026922214 -0.8456674900746667 0.050248799201062726 1.028501225165686 -0.013579666649555823 -0.9504820055438621 0.025488838804409983 0.7619862534009662
0.023749785724479354 0.7144794493843325 -0.025492270314620518 -0.8110103656478134 0.12083222816703586 -0.9842201890093882 -0.10741375952382594 -1.0007593918211954
0.0723190347952618 -0.5811271912373412 -0.10665316198610957 -0.5904298042485145 0.5748177031088075 0.3801579251612112 -0.5492835122776232 0.3032251160032917
0.8496260211237614 1.694884755902918 -0.8287522830926867 1.589279144896831 0.5630304349718249 1.167955616595239 -0.4464271045433693 -0.2566674451991283
0.5639617059176153 0.931384106563306 -0.5318509875098203 -0.5244015303576203 0.5235291691368867 0.7694238672350546 -0.5440510385568912 -0.8007494414176562
0.4711232307382845 0.6930137459983767 -0.5425838421253533 -1.0050495155080332 0.45874071255580917 0.5950897166646771 -0.5737633442345992 -1.1347578279595205
0.3983205650999951 0.893863010804722 -0.3796054017537838 -0.9083241460669746 0.26095551851380216 0.8360892106082951 -0.2884429847584665 -1.1764776761184874
0.15841357878471043 0.7951850134964268 -0.23337893628199974 -1.3461580540420175 0.06763388373692374 0.7702719377574688 -0.19338822243920006 -1.475277651773615
0.3533756963921587 1.03381989402809 -0.292267622151668 -0.8281760306366112 0.20667498850713012 0.9699431993280113 -0.1951585466462293 -1.0161156251060248
