data/QIPEDC/W00777B.npy (npy, 356288 bytes, 1 tensors)

array f8 [28, 15, 106]
0.0 0.0 0.0 0.0 0.0 0.0 0.0 0.0
0.0 0.0 0.0 0.0 0.0 0.0 0.0 0.0
0.0 0.0 0.0 0.0 0.0 0.0 0.0 0.0
0.0 0.0 0.0 0.0 0.0 0.0 0.0 0.0
0.0 0.0 0.0 0.0 0.0 0.0 0.0 0.0
0.0 0.0 -1.401857738623347 -0.3047198536876808 -0.9587089532815679 -1.1805442614190669 -0.3938024667888225 -1.5611259526863623
0.046347390720942634 -1.7097755106299803 0.28655299446451793 -2.1113240473215114 0.06405573638654766 -0.5096544546912695 0.6744929855645896 -0.3130035838675241
0.5488868484581377 -0.5040895608969334 0.2890584278431626 -0.629722373379243 -0.041147842092660834 0.17899499650185954 0.5880093650815937 0.38946781592392654
0.4462605216771911 0.12645681777391624 0.19556944326950904 0.023539113810522802 -0.22511149376803588 0.7599272280291791 0.3631236348883553 0.9717604916199942
0.22552999426180323 0.7016969344835778 -0.016824003214319948 0.6072107012432402 -0.455945832777565 1.254384046881459 0.0459062210432943 1.4915507097292335
-0.034080919442331326 1.2304028839852914 -0.24631431367101347 1.0885678585973482 -3.902185595085299 -3.36382264513628 0.10428394505270275 1.4116784194098744
-0.005304532015621248 -0.7959338955406581 0.10448546773957948 -1.0491165441775347 -0.14653239441233754 -0.9817079009179427 0.1039877480017195 -0.5473552677000365
-0.0865976991362788 -0.5046392297792427 0.6331693513659054 0.3507940386785391 -0.5696951647703308 0.25050396438395683 0.8786475339604947 1.8457858481813367
-0.9121603107331314 1.4316689868715828 0.0 0.0 0.0 0.0 0.0 0.0
0.0 0.0 0.0 0.0 0.0 0.0 0.0 0.0
0.0 0.0 0.0 0.0 0.0 0.0 0.0 0.0
0.0 0.0 0.0 0.0 0.0 0.0 0.0 0.0
0.0 0.0 0.0 0.0 0.0 0.0 0.0 0.0
0.0 0.0 0.0 0.0 -1.4149576143685612 -0.16368796021920623 -0.9879455895145678 -1.142903658105332
-0.42305944281423363 -1.5427978734086174 0.053458701845182956 -1.7239394670130355 0.3213143787761306 -2.0949192671092405 0.08589758867032991 -0.6594740495991397
0.6827643575646204 -0.48787060938664 0.48600843816290545 -0.5106380294726129 0.23886007349862357 -0.5618699322186792 0.0033370493192286673 0.10386984470146748
0.5899824339169163 0.2955806871179833 0.3855068385006894 0.15349365519626465 0.14942973072176396 0.07433885526333042 -0.16428990370716645 0.7601402079243742
0.3709860987550977 0.9379198055526936 0.20254676751886455 0.7551534555285994 -0.03046205025213424 0.6544123084455337 -0.37306693759343307 1.3271031266124225
0.08656623842765812 1.4722917768788817 -0.027770787054414478 1.2541515633689693 -0.2351063703734813 1.0996455599419834 -3.895779489232077 -3.3555429563110097
0.17530532626730366 1.1864025385168095 0.00041780977811229687 -0.791467355959071 0.1071300541207601 -1.0398916396465072 -0.13894252365737672 -0.9790409384103942
0.1053012258206321 -0.549088378378189 -0.08524188549972463 -0.5165720824743434 0.6245062584080455 0.3481567135193786 -0.5799308982700082 0.2453277340147529
0.876885015946426 1.8875255755070168 -0.9101250566468632 1.395050371827358 0.0 0.0 0.0 0.0
0.0 0.0 0.0 0.0 0.0 0.0 0.0 0.0
0.0 0.0 0.0 0.0 0.0 0.0 0.0 0.0
0.0 0.0 0.0 0.0 0.0 0.0 0.0 0.0
0.0 0.0 0.0 0.0 0.0 0.0 0.0 0.0
0.0 0.0 0.0 0.0 0.0 0.0 -1.3646857182177194 -0.1715737793056969
00000000: 0000 0000 0000 0000 0000 0000 0000 0000
00000010: 0000 0000 0000 0000 0000 0000 0000 0000
00000020: 0000 0000 0000 0000 0000 0000 0000 0000
00000030: 0000 0000 0000 0000 0000 0000 0000 0000
00000040: 0000 0000 0000 0000 0000 0000 0000 0000
00000050: 0000 0000 0000 0000 0000 0000 0000 0000
00000060: 0000 0000 0000 0000 0000 0000 0000 0000
00000070: 0000 0000 0000 0000 0000 0000 0000 0000
00000080: 0000 0000 0000 0000 0000 0000 0000 0000
00000090: 0000 0000 0000 0000 0000 0000 0000 0000
000000a0: 0000 0000 0000 0000 0000 0000 0000 0000
000000b0: 0000 0000 0000 0000 0000 0000 0000 0000
000000c0: 0000 0000 0000 0000 0000 0000 0000 0000
000000d0: 0000 0000 0000 0000 0000 0000 0000 0000
000000e0: 0000 0000 0000 0000 0000 0000 0000 0000
000000f0: 0000 0000 0000 0000 0000 0000 0000 0000
00000100: 0000 0000 0000 0000 0000 0000 0000 0000
00000110: 0000 0000 0000 0000 0000 0000 0000 0000
00000120: 0000 0000 0000 0000 0000 0000 0000 0000
00000130: 0000 0000 0000 0000 0000 0000 0000 0000
00000140: 0000 0000 0000 0000 0000 0000 0000 0000
00000150: 3882 5061 026e f6bf 9df3 81b3 8780 d3bf
00000160: 5741 1766 bead eebf e767 2461 82e3 f2bf
00000170: ad4b fc42 0f34 d9bf a898 fb34 5ffa f8bf
00000180: 0182 cd5e d8ba a73f fb84 da90 3d5b fbbf
00000190: 3bf1 f25e e256 d23f b308 b4dc fde3 00c0
000001a0: 6cc3 e6ec f465 b03f 651c e5db 164f e0bf
000001b0: b633 4c50 7295 e53f cd79 0f2f 4008 d4bf
000001c0: 76a1 ea26 7b90 e13f a4d5 496e 8021 e0bf
000001d0: 420d 8eeb ee7f d23f ae25 e788 af26 e4bf
000001e0: eb8a 2d78 5411 a5bf 6fc2 0fdc 4ee9 c63f
000001f0: a78c 1804 f9d0 e23f 5238 0f6b 0aed d83f
00000200: 245d 864a 888f dc3f 5ffc 58ac bc2f c03f
00000210: 8240 7865 6b08 c93f 8cd9 f82f a31a 983f
00000220: 71fd d713 74d0 ccbf 5235 f7e7 5251 e83f
00000230: 2402 10ea 6a3d d73f 30b0 6175 a918 ef3f
00000240: b98d cfb6 2ade cc3f f9ee 2921 4d74 e63f
00000250: d68a 5fbe 4f3a 91bf c4de f322 456e e33f
00000260: 71bc 216e 372e ddbf 12ae 9f01 f511 f43f
00000270: fbb6 202c 0581 a73f 67cd e946 64dd f73f
00000280: e847 d8e4 0d73 a1bf 3eef 39ef baaf f33f
00000290: de78 e038 3a87 cfbf 1470 8221 c66a f13f
000002a0: 5f82 ce14 ad37 0fc0 7d3c d3d8 1be9 0ac0
000002b0: d6cc 7f45 5ab2 ba3f a159 3d1c 3c96 f63f
000002c0: b85e 7178 34ba 75bf 0e00 645c 4a78 e9bf
000002d0: 2248 d942 8fbf ba3f f8f5 ee6d 2ec9 f0bf
000002e0: af1c e7d0 92c1 c2bf 1d5b 15b0 266a efbf
000002f0: 9021 dae8 f09e ba3f 5514 c231 ef83 e1bf
00000300: 78fc b24d 442b b6bf 77c6 852b 0126 e0bf
00000310: 6c46 1e5f ec42 e43f b063 f0d6 6873 d63f
00000320: c617 ac5a f13a e2bf 5009 a3c7 4108 d03f
00000330: b248 e26e e11d ec3f 43bc d5bd 5688 fd3f
00000340: 1ddb e9d1 6a30 edbf 74f9 54bd 1de8 f63f
00000350: 0000 0000 0000 0000 0000 0000 0000 0000
00000360: 0000 0000 0000 0000 0000 0000 0000 0000
00000370: 0000 0000 0000 0000 0000 0000 0000 0000
00000380: 0000 0000 0000 0000 0000 0000 0000 0000
00000390: 0000 0000 0000 0000 0000 0000 0000 0000
000003a0: 0000 0000 0000 0000 0000 0000 0000 0000
000003b0: 0000 0000 0000 0000 0000 0000 0000 0000
000003c0: 0000 0000 0000 0000 0000 0000 0000 0000
000003d0: 0000 0000 0000 0000 0000 0000 0000 0000
000003e0: 0000 0000 0000 0000 0000 0000 0000 0000
000003f0: 0000 0000 0000 0000 0000 0000 0000 0000
00000400: 0000 0000 0000 0000 0000 0000 0000 0000
00000410: 0000 0000 0000 0000 0000 0000 0000 0000
00000420: 0000 0000 0000 0000 0000 0000 0000 0000
00000430: 0000 0000 0000 0000 0000 0000 0000 0000
00000440: 0000 0000 0000 0000 0000 0000 0000 0000
00000450: 0000 0000 0000 0000 0000 0000 0000 0000
00000460: 0000 0000 0000 0000 0000 0000 0000 0000
00000470: 0000 0000 0000 0000 0000 0000 0000 0000
00000480: 0000 0000 0000 0000 0000 0000 0000 0000
00000490: 0000 0000 0000 0000 0000 0000 0000 0000
000004a0: c206 6f98 aaa3 f6bf eef9 f121 baf3 c4bf
000004b0: 0929 a611 409d efbf 9ea8 a058 5549 f2bf
000004c0: e1ab c9e9 6713 dbbf c30d aad2 4caf f8bf
000004d0: 8d2d 3960 f05e ab3f aeac f18c 4195 fbbf
000004e0: 91fe 242f 6a90 d43f b0f4 5f08 65c2 00c0
000004f0: 9ff2 2466 62fd b53f fbd8 7252 691a e5bf
00000500: f1a9 53a3 34d9 e53f 83b1 ffa5 4539 dfbf
00000510: 8757 df22 c31a df3f 60b8 9590 2557 e0bf
00000520: 5395 ff85 f792 ce3f d384 efa6 d6fa e1bf
00000530: 6386 1eb6 4c56 6b3f 048d 08d2 3697 ba3f
00000540: 8567 5cd7 22e1 e23f 830f 2042 cbea d23f
00000550: 0bab efdf 24ac d83f 0711 9b1a aea5 c33f
00000560: 0e02 406f 8320 c33f c296 2d08 df07 b33f
00000570: 4c1d be99 7307 c5bf 4e1d ad8e 1153 e83f
00000580: 101f 5b7a 3cbe d73f eed2 6365 7003 ee3f
00000590: 87b7 336f 0ded c93f 7d9d 5e94 372a e83f
000005a0: 4679 6896 7131 9fbf 27f3 db14 f2f0 e43f
000005b0: d5b0 0b26 54e0 d7bf e683 f37c d03b f53f
000005c0: 2a0a fc7a 3429 b63f 19d5 7dd2 818e f73f
000005d0: 9c47 bbf8 f16f 9cbf 175a ce3a 0111 f43f
000005e0: 42ed ea2d f717 cebf 6147 52f1 2598 f13f
000005f0: 526f d56f 8e2a 0fc0 7a6e cde7 26d8 0ac0
00000600: a0fb 90a9 6770 c63f 2223 6d3a 81fb f23f
00000610: a3a4 3b55 af61 3b3f 0044 3659 b353 e9bf
00000620: 440c de0e e06c bb3f 28a6 7a6a 65a3 f0bf
00000630: f1e9 905d dec8 c1bf 905e 7da9 4d54 efbf
00000640: f3d9 2069 05f5 ba3f 94ef 77ca 2192 e1bf
00000650: 657f 7886 69d2 b5bf 1c20 082d c287 e0bf
00000660: f150 808c f4fb e33f 68b5 9c18 3348 d63f
00000670: 8c4e 403e cb8e e2bf 4b94 3231 e666 cf3f
00000680: 6ff4 3a2a 710f ec3f d2a8 9204 4e33 fe3f
00000690: 8930 3295 be1f edbf 9956 b456 2052 f63f
000006a0: 0000 0000 0000 0000 0000 0000 0000 0000
000006b0: 0000 0000 0000 0000 0000 0000 0000 0000
000006c0: 0000 0000 0000 0000 0000 0000 0000 0000
000006d0: 0000 0000 0000 0000 0000 0000 0000 0000
000006e0: 0000 0000 0000 0000 0000 0000 0000 0000
000006f0: 0000 0000 0000 0000 0000 0000 0000 0000
00000700: 0000 0000 0000 0000 0000 0000 0000 0000
00000710: 0000 0000 0000 0000 0000 0000 0000 0000
00000720: 0000 0000 0000 0000 0000 0000 0000 0000
00000730: 0000 0000 0000 0000 0000 0000 0000 0000
00000740: 0000 0000 0000 0000 0000 0000 0000 0000
00000750: 0000 0000 0000 0000 0000 0000 0000 0000
00000760: 0000 0000 0000 0000 0000 0000 0000 0000
00000770: 0000 0000 0000 0000 0000 0000 0000 0000
00000780: 0000 0000 0000 0000 0000 0000 0000 0000
00000790: 0000 0000 0000 0000 0000 0000 0000 0000
000007a0: 0000 0000 0000 0000 0000 0000 0000 0000
000007b0: 0000 0000 0000 0000 0000 0000 0000 0000
000007c0: 0000 0000 0000 0000 0000 0000 0000 0000
000007d0: 0000 0000 0000 0000 0000 0000 0000 0000
000007e0: 0000 0000 0000 0000 0000 0000 0000 0000
000007f0: 9703 11b1 c0d5 f5bf 220b 7c2d 21f6 c5bf
