data/QIPEDC/W00815.npy (npy, 254528 bytes, 1 tensors)

array f8 [20, 15, 106]
000000 00 00 00 00 00 00 00 00 00 00 00 00 00 00 00 00
       0.0 0.0
000010 00 00 00 00 00 00 00 00 00 00 00 00 00 00 00 00
       0.0 0.0
000020 00 00 00 00 00 00 00 00 00 00 00 00 00 00 00 00
       0.0 0.0
000030 00 00 00 00 00 00 00 00 00 00 00 00 00 00 00 00
       0.0 0.0
000040 00 00 00 00 00 00 00 00 00 00 00 00 00 00 00 00
       0.0 0.0
000050 00 00 00 00 00 00 00 00 00 00 00 00 00 00 00 00
       0.0 0.0
000060 00 00 00 00 00 00 00 00 00 00 00 00 00 00 00 00
       0.0 0.0
000070 00 00 00 00 00 00 00 00 00 00 00 00 00 00 00 00
       0.0 0.0
000080 00 00 00 00 00 00 00 00 00 00 00 00 00 00 00 00
       0.0 0.0
000090 00 00 00 00 00 00 00 00 00 00 00 00 00 00 00 00
       0.0 0.0
0000a0 00 00 00 00 00 00 00 00 00 00 00 00 00 00 00 00
       0.0 0.0
0000b0 00 00 00 00 00 00 00 00 00 00 00 00 00 00 00 00
       0.0 0.0
0000c0 00 00 00 00 00 00 00 00 00 00 00 00 00 00 00 00
       0.0 0.0
0000d0 00 00 00 00 00 00 00 00 00 00 00 00 00 00 00 00
       0.0 0.0
0000e0 00 00 00 00 00 00 00 00 00 00 00 00 00 00 00 00
       0.0 0.0
0000f0 00 00 00 00 00 00 00 00 00 00 00 00 00 00 00 00
       0.0 0.0
000100 00 00 00 00 00 00 00 00 00 00 00 00 00 00 00 00
       0.0 0.0
000110 00 00 00 00 00 00 00 00 00 00 00 00 00 00 00 00
       0.0 0.0
000120 00 00 00 00 00 00 00 00 00 00 00 00 00 00 00 00
       0.0 0.0
000130 00 00 00 00 00 00 00 00 00 00 00 00 00 00 00 00
       0.0 0.0
000140 00 00 00 00 00 00 00 00 00 00 00 00 00 00 00 00
       0.0 0.0
000150 3a ec ab 6d a7 74 ed bf fc 43 7e a4 19 aa 06 40
       -0.9204899923346439 2.8330567217858498
000160 9a 5d ba 67 31 5e f3 bf 4f c5 1a 33 50 2e ef 3f
       -1.2104963352083815 0.9744034765373416
000170 e3 db 8c 20 64 94 ef bf 56 63 2d e3 d2 47 d4 bf
       -0.9868641505953487 -0.31688377557070646
000180 6f 54 f2 c3 8c 67 de bf e6 4a 00 77 0b c2 e8 bf
       -0.475070182184317 -0.7736871074906417
000190 0e ef 90 cd 13 ae 85 bf e4 f7 fa c4 39 c8 e2 bf
       -0.010585932455903026 -0.5869416091225017
0001a0 f6 f9 70 82 c2 fa e5 bf 89 f5 3f 58 95 d6 f5 bf
       -0.6868603274995724 -1.3648885199794185
0001b0 37 ec 60 3b 11 74 c1 bf d5 cb 9a 57 e0 9f f6 bf
       -0.1363545932707397 -1.4140323087747124
0001c0 67 2d b8 b0 7e fa c0 bf d2 0e d5 a5 9a 7b ea bf
       -0.13264449719313662 -0.8275883902465131
0001d0 1b b8 fb e1 42 1c d4 bf 19 b7 21 94 60 95 dc bf
       -0.31422493046454897 -0.44661726442324007
0001e0 96 b6 59 8c 12 18 ba bf b1 55 15 17 fb 38 f0 bf
       -0.10192981649898977 -1.013911333245556
0001f0 32 bd eb de e4 0a ce 3f 35 d8 d7 0b f7 d0 ea bf
       0.23470745930488018 -0.8380084258376487
000200 62 c3 c4 05 c0 74 bc 3f c7 1a e8 03 ca e6 cc bf
       0.1111564649661552 -0.22579312506441893
000210 1c 70 fc 1b b1 85 bd bf f9 59 f2 2a e4 55 be 3f
       -0.11532122548345608 0.11849809692862569
000220 c6 f9 51 e5 2c a4 db 3f a2 ec 7c aa ce a4 d8 bf
       0.43189546961357583 -0.38505903863160473
000230 bf 6d e8 77 8c 58 e2 3f b8 bd 4b 93 62 ef c7 bf
       0.5733091680480625 -0.18699295227223245
000240 71 ee 22 02 9d 60 db 3f 20 95 9f 97 51 c2 d9 3f
       0.42777180870664383 0.4024852734276738
000250 34 95 39 f3 47 ee c9 3f 0d d5 bd 25 59 79 e8 3f
       0.20258426071374347 0.7648130166186619
000260 44 0a e1 4c 2a 4b eb 3f d5 79 3b 56 30 01 d7 3f
       0.8529254437965581 0.3594475595581604
000270 08 cb f0 0a f7 99 ed 3f 65 1c d2 a0 58 56 e2 3f
       0.925044556969028 0.5730403080969039
000280 95 97 78 a1 9a 85 e8 3f 6e b6 21 ea fc a5 f0 3f
       0.7663090852481554 1.0405244012612473
000290 79 96 2d d8 9c 15 e2 3f 37 25 04 6b b2 06 f5 3f
       0.5651382658222267 1.3141349964447053
0002a0 26 89 53 bd 06 a1 08 c0 a3 14 56 a9 c9 4c 06 c0
       -3.0786261359327396 -2.7874940137285917
0002b0 88 c4 5b 0d 18 fd d8 bf 9e 7b 04 21 63 b1 a4 3f
       -0.39044762901819086 0.04041585710569183
0002c0 d5 12 ab a1 a0 9a c1 3f 7f 75 4c 9c 29 42 ea bf
       0.13753135580022638 -0.8205764820774418
0002d0 65 31 02 92 06 71 c5 3f 89 20 8c b4 ea bc ef bf
       0.1675117695743992 -0.9918111349407052
0002e0 b7 f9 ac b8 d7 00 6a 3f a6 b5 53 73 dc 29 f0 bf
       0.0031742299373995436 -1.0102200036011282
0002f0 e1 25 a4 3d 3a aa c1 3f da ab e0 18 0c 6c e3 bf
       0.13800743112396588 -0.6069393621340808
000300 5a c1 f9 fa 60 9d a5 3f f7 d3 78 e4 a4 48 e3 bf
       0.04221633018176148 -0.6026176893561787
000310 05 87 03 ad f4 95 d8 3f f8 15 f1 42 e0 77 d5 3f
       0.38415257354618887 0.33544165169982376
000320 3f 8a e1 39 84 7b e3 bf 28 2f 9f 46 b9 a3 cd 3f
       -0.608827698754176 0.2315589518387864
000330 c8 f2 b6 b4 4f d1 e2 3f c3 a9 84 65 d0 cb fc 3f
       0.5880507020552495 1.7997592893176353
000340 9f cf 13 15 15 42 eb bf 72 eb 57 7b 7f a5 fa 3f
       -0.8518166934650145 1.6654047792532904
000350 b0 e1 16 70 0c 3b d9 bf 98 53 f4 eb d2 2f 0b 40
       -0.3942290396330703 3.398351519960169
000360 96 d9 76 eb 7f 8d d0 bf eb 23 fa df 0d 84 05 40
       -0.2586364554839745 2.6894795892917407
000370 fe 83 2e 58 24 2d e7 bf 2b c9 44 52 39 91 f7 3f
       -0.7242604944514139 1.472955056535805
000380 4f 31 0e 14 5d 42 e7 bf fe bd b3 47 24 03 ed 3f
       -0.7268510238368807 0.9066335106307972
000390 b8 fe 3f 8b 3b 57 dc bf 3c 12 89 15 20 3c c4 3f
       -0.4428242549765673 0.15808487941298377
0003a0 57 47 3d 3b 74 ba df bf a3 d4 4a 3b c8 6c d1 bf
       -0.4957552507886382 -0.2722645358110844
0003b0 3a c7 1a 00 9f 36 bd 3f 76 5a 24 28 fa 8f cf bf
       0.11411470177224894 -0.24658133468684057
0003c0 a4 90 7f 13 52 e2 b5 3f 9a 17 c7 5f 78 04 e3 bf
       0.0854846284487985 -0.5942956801088599
0003d0 c2 a1 3f a2 fe 14 e3 3f 68 ff b4 f6 e0 af ae bf
       0.5963128250996805 -0.05993559848366098
0003e0 76 65 3f 84 b7 c6 e1 3f 28 6a 96 d5 c2 40 d4 bf
       0.5555074294053799 -0.3164527021232595
0003f0 95 f9 2a 9b 9a 8b cf bf bd fe ed 98 31 97 f3 bf
       -0.2464478738456363 -1.2244125341239134
000400 25 19 7a 40 82 6b d2 bf 9e e6 de cd c2 d1 f7 bf
       -0.2878118161828687 -1.4887111703705282
000410 d6 ec 0b 52 6a 8c cd 3f 4e e1 2e 30 1b 05 ea bf
       0.23084763532810965 -0.8131233159138362
000420 f2 78 77 90 a4 43 ca 3f c7 e5 0a 23 43 6a f2 bf
       0.2051892953304058 -1.1509429329729401
000430 ec 08 16 78 a7 56 c7 3f 27 42 00 37 42 13 c1 bf
       0.18233197558954062 -0.1334002274093262
000440 6d e2 d4 70 81 03 c7 3f f2 74 ed 7d c2 6d d1 bf
       0.17979448327402583 -0.2723242025147804
000450 1e da bc f0 56 dd a5 bf 25 ee 70 5d d7 bf c8 3f
       -0.042704312216688786 0.19335453093104707
000460 ad bd 83 35 9c f9 94 bf 38 03 76 e8 40 83 d1 3f
       -0.02048343731524731 0.27363608075397705
000470 e4 29 c6 2f 75 66 d9 3f c1 98 78 c3 4c 2d ef bf
       0.396878525404331 -0.974279767779784
000480 52 10 b3 47 79 6d d8 3f 43 a7 6a c1 a0 cc f3 bf
       0.3816817474546542 -1.2374579959236633
000490 94 68 77 1d 90 c7 e6 3f 09 d3 c2 28 67 bb d3 bf
       0.7118607116238018 -0.3083131692940673
0004a0 08 c0 9d 6e 9c 6d da bf 48 98 37 10 21 74 fa bf
       -0.41294012834896465 -1.6533518441660977
0004b0 b0 76 22 84 9d 0c e5 bf fb 35 45 4b 79 1e db bf
       -0.6577899533037534 -0.42373497343655203
0004c0 39 96 59 34 9a f7 e4 bf 8d bc 8c c8 97 33 e1 bf
       -0.6552248976192409 -0.5375479619014115
0004d0 91 7f 54 71 4d 64 ef bf 04 03 2c 64 10 25 84 3f
       -0.9809939588048896 0.009836319024090219
0004e0 d2 f9 8b db 11 0b f0 bf 4a 01 0b c3 9a 67 94 3f
       -1.0027025772138711 0.01992646995017936
0004f0 68 09 33 94 eb d4 b3 bf c2 17 ec 8a 53 0f f6 bf
       -0.07746765487812513 -1.3787417818689254
000500 5c ee 88 de 55 99 94 bf e3 a1 50 e8 32 75 fb bf
       -0.02011617823357735 -1.716113002281525
000510 d3 5f 1f c2 13 4c c6 3f e8 21 3c 25 98 47 e1 bf
       0.17419669130936075 -0.5399895407909385
000520 54 10 c9 23 44 f1 cc 3f 14 4f a1 fe ff 67 ea bf
       0.2261128592236924 -0.8251953099483864
000530 4c 41 62 93 1a 1e b5 bf 02 1a 6d 65 6d 9a d1 3f
       -0.08249059770810624 0.2750504961481114
000540 32 3f aa 18 fe 66 ab bf 4f 3f 7f 36 73 15 c9 3f
       -0.053520145903461006 0.19596710358609434
000550 99 57 89 1b e5 31 dc bf be 34 85 a2 f8 f9 e5 3f
       -0.4405453461562217 0.6867640661454499
000560 ae 39 19 e5 b4 f5 d8 bf 8a bd ba 3d a4 a3 e8 3f
       -0.389996741990127 0.7699757772115146
000570 fc b5 bb 2b e1 92 e3 3f e8 3b 23 99 69 94 ce bf
       0.6116796354451135 -0.23890418984817008
000580 94 bb 1b f9 7a 74 e7 3f e1 27 ec 5b 9e 26 e5 bf
       0.7329687943837251 -0.6609641833649641
000590 8d 49 4b 6f 47 74 e6 3f 56 a2 f9 65 02 18 dd 3f
       0.7016942189896312 0.4545904155589019
0005a0 e8 ed 86 ba 35 e9 eb 3f 78 ca 98 51 f3 b0 cc 3f
       0.8722180026156225 0.22415009960385013
0005b0 69 5c 8e b6 10 3a dc 3f b3 bb 36 e5 85 2b f3 3f
       0.4410440237783804 1.1981257394470333
0005c0 53 3b 45 3a 53 4e e3 3f df bf 89 13 dd ca f0 3f
       0.6033111703962767 1.0495272410589604
0005d0 2f 1a 59 df d9 92 ba 3f a5 50 f7 ee c4 49 f9 3f
       0.10380326941331285 1.5805100760090138
0005e0 d4 d8 bd a8 f2 a1 d3 3f ac 38 0c 86 72 29 f8 3f
       0.3067595146052444 1.5101189838638147
0005f0 04 2e 62 55 8f 92 dc bf 35 cc f2 32 e8 59 64 bf
       -0.4464453061889062 -0.0024842772614533056
000600 a3 bb a8 5f d9 09 d5 bf 8e 09 35 62 70 89 b1 3f
       -0.32872614232740655 0.06850340268741759
000610 93 69 6f f5 25 f1 c0 3f a6 86 a0 62 2d 53 ea bf
       0.13235926136151174 -0.8226534773168239
000620 de de 86 b5 66 0a c5 3f 78 e2 7a 8d ce cf ef bf
       0.16437991965880533 -0.9941170466691593
000630 d3 c8 21 73 e6 f0 29 bf 66 b7 a3 78 ab 30 f0 bf
       -0.0001979142485342757 -1.0118822777253285
000640 10 e9 58 7a 87 d2 c1 3f f2 9d a6 32 4f 5d e3 bf
       0.13923734163274348 -0.6051403035425535
000650 44 7a 34 b9 12 0f a4 3f be 1a 6a dd 55 4a e3 bf
       0.039177498920470316 -0.6028241467000368
000660 3c 5c 8b 1c b0 94 d8 3f 87 e8 ad f5 c1 75 d5 3f
       0.38407519137894375 0.33531235687372213
000670 92 4a b9 50 44 91 e3 bf e3 8f 4f ca 7d b3 cd 3f
       -0.6114827705990413 0.23204014185387142
000680 67 e0 6c a5 fb b6 e2 3f 4d ca c7 50 5c eb fc 3f
       0.5848367911303399 1.8074610858426639
000690 da 25 79 89 e6 a2 ea bf e7 91 3c 71 bf 96 fa 3f
       -0.8323853192352388 1.6618036673836458
0006a0 00 00 00 00 00 00 00 00 00 00 00 00 00 00 00 00
       0.0 0.0
0006b0 00 00 00 00 00 00 00 00 00 00 00 00 00 00 00 00
       0.0 0.0
0006c0 00 00 00 00 00 00 00 00 00 00 00 00 00 00 00 00
       0.0 0.0
0006d0 00 00 00 00 00 00 00 00 00 00 00 00 00 00 00 00
       0.0 0.0
0006e0 00 00 00 00 00 00 00 00 00 00 00 00 00 00 00 00
       0.0 0.0
0006f0 00 00 00 00 00 00 00 00 00 00 00 00 00 00 00 00
       0.0 0.0
000700 00 00 00 00 00 00 00 00 00 00 00 00 00 00 00 00
       0.0 0.0
000710 00 00 00 00 00 00 00 00 00 00 00 00 00 00 00 00
       0.0 0.0
000720 00 00 00 00 00 00 00 00 00 00 00 00 00 00 00 00
       0.0 0.0
000730 00 00 00 00 00 00 00 00 00 00 00 00 00 00 00 00
       0.0 0.0
000740 00 00 00 00 00 00 00 00 00 00 00 00 00 00 00 00
       0.0 0.0
000750 00 00 00 00 00 00 00 00 00 00 00 00 00 00 00 00
       0.0 0.0
000760 00 00 00 00 00 00 00 00 00 00 00 00 00 00 00 00
       0.0 0.0
000770 00 00 00 00 00 00 00 00 00 00 00 00 00 00 00 00
       0.0 0.0
000780 00 00 00 00 00 00 00 00 00 00 00 00 00 00 00 00
       0.0 0.0
000790 00 00 00 00 00 00 00 00 00 00 00 00 00 00 00 00
       0.0 0.0
0007a0 00 00 00 00 00 00 00 00 00 00 00 00 00 00 00 00
       0.0 0.0
0007b0 00 00 00 00 00 00 00 00 00 00 00 00 00 00 00 00
       0.0 0.0
0007c0 00 00 00 00 00 00 00 00 00 00 00 00 00 00 00 00
       0.0 0.0
0007d0 00 00 00 00 00 00 00 00 00 00 00 00 00 00 00 00
       0.0 0.0
0007e0 00 00 00 00 00 00 00 00 00 00 00 00 00 00 00 00
       0.0 0.0
0007f0 5a 02 9d 9f 78 ca e9 bf 95 5f 5f ab 50 c8 05 40
       -0.8059657208869553 2.7228101147156374
