data/QIPEDC/W00836.npy (npy, 165488 bytes, 1 tensors)

array f8 [13, 15, 106]
0	0x3fd5728f5bc3b5d3	0.33511718713165556
1	0x3ff7788dcc62e45c	1.4669321044769026
2	0xbff4651cef3b5134	-1.2746857972134196
3	0xbff4dfce477aa259	-1.304640082564353
4	0x3fded934d0a35b9f	0.48200722098175136
5	0x3fee23b88bb1ef93	0.9418604591769387
6	0xbfeaa192fdeed1c6	-0.8322234115244604
7	0xbff4e0f11427c9ab	-1.304917410595048
8	0x3fe125671678607f	0.5358157576438457
9	0x3fe01482ffc4513e	0.5025038714834762
10	0xbfd6f997492dcba8	-0.35898382326484546
11	0xbff0deac0333f305	-1.0543632626642545
12	0x3fe4f8f0dd49d4f3	0.655388290599744
13	0x3fd38bcd2e8eb248	0.30540780588743077
14	0xbfa2052db2709086	-0.03519575885027941
15	0xbfe5cb79160bbc9e	-0.6810880117972322
16	0x3fea4c927e62117e	0.8218471973819275
17	0x3fdad45d0ed256b8	0.4192116398565804
18	0x3fc6191314e72994	0.1726402141633342
19	0xbfd861b6614511ab	-0.38096389292720784
20	0x3fcea0d42cdbdafc	0.23928310575839606
21	0x3feb7df22ac99f68	0.8591242633528795
22	0xbfd3908f381b7d07	-0.3056982086108779
23	0xbff6a6580ace44fa	-1.4156113073443621
24	0x3fa5ae27f6f1fc91	0.04234433068722255
25	0x3feb36151e7c1ac3	0.8503518672376561
26	0x3fa2388e4b9a8e9a	0.03558773682496259
27	0xbfebacb1ef4f58fa	-0.8648309396765221
28	0xbfbdcb9b04b576d0	-0.11638802399599091
29	0x3febf403f4ac4633	0.8735370425003509
30	0x3fcf81e418712223	0.24615145867780183
31	0xbfe0f57be8add7ad	-0.5299663109315041
32	0xbfd10335c0ed885e	-0.2658209213315156
33	0x3fedcf86a8b9eca6	0.9315827651438624
34	0x3fdba97525563593	0.43221787115256766
35	0xbfd1457521c186f7	-0.2698643521926977
36	0xbf88b47e4ccf7e89	-0.012063013762541945
37	0x3ff0fda150c6b650	1.0619214206048078
38	0xbfe05759ce25d8eb	-0.5106629396748564
39	0xbff56b3b635acb9e	-1.3386796837846542
40	0xbfd258f0aa4220dc	-0.2866784727743956
41	0x3fedd6f97e6530b7	0.9324920147569377
42	0x3fd55d2c6d0ff993	0.33381186152100745
43	0xbff6d16b6faaec87	-1.4261278497713492
44	0x3fab08effbd791d9	0.052802562229576196
45	0x3fe9592b48792bdc	0.7921348968023909
46	0x3fe2f95480c4e273	0.5929358019848919
47	0xbfea7c68589eba60	-0.8276864748821247
48	0xbfbf589c49c4bfd3	-0.1224458389376644
49	0x3fea9f1c89e92461	0.8319227880066472
50	0x3feb51b7632d3d16	0.8537251412434752
51	0xbfd7fca3be1b494f	-0.37479489865394994
52	0x3fdbf0d435f2cab6	0.43657403248213755
53	0x3ff31d36fbdf502e	1.1946325148355856
54	0xbfd7c290e1c9ea5b	-0.37125036287003405
55	0xc00154a90cf2c44d	-2.1663380633913563
56	0x3fab6d597a880d7b	0.053568645675137604
57	0x3fed630e7019e81c	0.9183418454624674
58	0xbfaef4d67c914930	-0.060461714464184246
59	0xbff1e5594caafc73	-1.1184933657493985
60	0xbfc140a1f1301912	-0.13478493000747754
61	0x3feaa59c489fd254	0.8327161234324856
62	0x3fbf282b1bc5647d	0.12170667102818018
63	0xbfdf4fb173ac1954	-0.48923908516043935
64	0xbfd15422969536dc	-0.2707601995979141
65	0x3febb07fe5b5beda	0.8652953611872036
66	0x3fd373e12c5da73b	0.30394772846794965
67	0xbf989b38166f76cb	-0.024029613847111258
68	0x3fd297bd843c370d	0.2905114928588411
69	0x3ff3bdbf2d9a63bf	1.2338248998041619
70	0xbfe647cc9541c461	-0.6962645449804193
71	0xbffc68d88f0a1ee4	-1.7755971515161315
72	0xbfab34e74f6bc8a0	-0.05313799709792133
73	0x3fefb70be5495bab	0.9910945394757297
74	0xbfdad47b7cc799b8	-0.419218894820371
75	0xbfedac635c1284a4	-0.927293472126753
76	0xbfcb8243610112e3	-0.21491281734974796
77	0x3feea0664cf8923f	0.9570800307597621
78	0xbfd1a04561bb3d95	-0.2754071669014249
79	0xbfdca2ffc7bd53df	-0.4474486780721331
80	0xbfd4048cc91b794f	-0.31277770652186104
81	0x3ff04f30cc5bdd22	1.0193336470382026
82	0xbfbbb07d46cf2c03	-0.10816176394216374
83	0xbfae603d20ca307e	-0.05932799363390105
84	0x3fad06d314ca506f	0.056692692077519584
85	0x3fe6f380f469095b	0.7172245763434079
86	0xbfb6480c8760a460	-0.08703687958826967
87	0x3fea1833fe722c72	0.8154544801376586
88	0x3fa2d95001733571	0.036814212967878464
89	0xbfe99781a94e1f3d	-0.799744444536351
90	0x3fc3a3fc32862e7d	0.15344192950248106
91	0xbfef7638336262e1	-0.9831810954666161
92	0xbfb57491e373ca30	-0.08380996516260875
93	0xbff00be7b6982f53	-1.0029065258595053
94	0x3fbf5721489f638d	0.12242324851048476
95	0xbfe150e8fef00aa8	-0.5411267260791037
96	0xbfac9bb4c5c37ad8	-0.05587544359308588
97	0xbfe142873b8545ed	-0.539371124507111
98	0x3fe382b5b321105a	0.6097057818046878
99	0x3fd8827450835f34	0.3829623018514099
100	0xbfe0682471d0a93a	-0.5127126906348061
101	0x3fca5fe1021027ae	0.20605099297273227
102	0x3fe98e396982e7c1	0.7986113606232196
103	0x400070b9decffbef	2.0550420195790973
104	0xbff118faabeaa4a7	-1.0685984340182502
105	0x3ff38e6fd028440d	1.222274602045448
106	0x3fdee9cf65830299	0.4830206385923162
107	0x3ff7c6b91c2baaff	1.4860163784421159
108	0xbff7b842ff9ca18e	-1.482485769733191
109	0xbff526664441a015	-1.3218748728049878
110	0x3fe5e0b08a322e1e	0.683677930749983
111	0x3fefafdd4849a92d	0.9902178203458668
112	0xbfeff671565b9f52	-0.9988333403280001
113	0xbff5f30b0909779c	-1.3718366959578594
114	0x3fe63f5f522e12ef	0.6952358822896637
115	0x3fe059868b37cc5c	0.5109284133053609
116	0xbfe0ed1f192cac26	-0.5289454929055679
117	0xbff179f5eea6bcf5	-1.0922755548779695
118	0x3fe843a02a45f9b1	0.7582550836230465
119	0x3fcd5bd8ef8f7755	0.22936546036992903
120	0xbfcd573671d7169b	-0.22922401960947955
121	0xbfe4645b547da1ff	-0.6372505808076879
122	0x3fee0b7f6b854407	0.9389035320292586
123	0x3fced61f5b42f04b	0.2409094997036639
124	0xbfabd16bdb8aa3e1	-0.054332132863528455
125	0xbfcdf3470dfdd8cb	-0.23398674185927457
126	0x3fd140082ed165ac	0.26953320095125366
127	0x3fe8ddf6bc41f8e9	0.7770951916607177
128	0xbfcf4c9fec833357	-0.24452590034925478
129	0xbff87b371c919940	-1.5300818553892697
130	0x3faa58466b16a889	0.051454735348060394
131	0x3fe79867d7267dd4	0.7373542024760646
132	0x3fb18d7d37ee4406	0.06856520286079623
133	0xbfe7978a0297cdd6	-0.7372484255451421
134	0xbfc052761822aaae	-0.12751651934134628
135	0x3fe92d22565d25de	0.786759537391102
136	0x3fd1a10835a97ada	0.2754536174815435
137	0xbfcf28357e6ccd81	-0.24341458008857944
138	0xbfd241d718ec42ae	-0.2852685683620092
139	0x3fed378d88c1efee	0.913031355957626
140	0x3fdbf94feca416e9	0.43709180936308073
141	0x3fc4acf30f359cae	0.16152799837729986
142	0x3f964d7f0ff42f10	0.021780000065560634
143	0x3fef58c115c25ccf	0.9795842576012549
144	0xbfdc6eb5fe6f4f2d	-0.44425725791119214
145	0xbff73f25ee124ff6	-1.4529170322102778
146	0xbfd267c0fbc82363	-0.28758263195100237
147	0x3fe9dbec9cb6df7c	0.8080962239100553
148	0x3fe04f7908d32e79	0.5097012684213517
149	0xbff6a38310bceb74	-1.414919915564238
150	0x3f851b7c5aa7090c	0.010306331173414417
151	0x3fe0ec7fb80c7723	0.5288694948864968
152	0x3fe74c90ea74c2c7	0.7280964450092932
153	0xbfdd148b2328684c	-0.45437887605078653
154	0xbfcb58664bde504e	-0.21363524155151697
155	0x3fe40195e54a2c37	0.625193546134489
156	0x3fed1c62253b0c83	0.9097147681390115
157	0x3fd2b26c513acc53	0.2921400826700779
158	0x3fe1226f225b97f0	0.5354533835459261
159	0x3ff1fde17d51c67d	1.1244826216974666
160	0xbfd6dcc21d083c06	-0.3572240146176572
161	0xc005babc37a552b5	-2.7161793086364363
162	0x3fb039658529cd90	0.06337580205018001
163	0x3fe9aada56ce9772	0.8021060653161227
164	0x3f9fd190ac8da7b8	0.03107286503965387
165	0xbff17afee33f11b8	-1.0925282360850428
166	0xbfcae5593aa94ad4	-0.21012416233369058
167	0x3fe5b6d985eddfd9	0.678570520000899
168	0x3fc5a052da040453	0.16895518918321048
169	0xbfc6388e12c05f89	-0.17360092082594417
170	0xbfd9f5602e161658	-0.40560154438603524
171	0x3fe68d47a7b30f97	0.7047460818653118
172	0x3fd1011b8e6dfb9e	0.2656926051058067
173	0x3fe090dcde71ac06	0.5176834435091002
174	0x3fd6738deb7b1719	0.350802879297008
175	0x3ff4b0f61d420a73	1.293203462876275
176	0xbfe96ec53bf0ef5e	-0.7947717829442629
177	0xc00229c9368f12ca	-2.2704033148205314
178	0xbfb13ea4d072c094	-0.06736211861675862
179	0x3fef2e9a4aa952ff	0.9744388063651
180	0xbfdaa26d5b4f76a7	-0.41616376797706284
181	0xbff01fa21817c60f	-1.0077229443671774
182	0xbfd36a775b9a55f2	-0.30337318368523747
183	0x3fea0b61f2e3b121	0.8138894790586485
184	0xbfd0716627c16e9b	-0.2569213283766005
185	0xbfd254f0c19b84cb	-0.2864343538950151
186	0xbfdbd8e985bfe7fa	-0.4351142698429836
187	0x3fe886f37d1170e2	0.7664735262619866
188	0xbfbce5b63313d85a	-0.11288012263307348
189	0x3fd2d6f85edfac28	0.29437073960315496
190	0x3fae84832d289c0e	0.05960473943951437
191	0x3fe6686db382ddca	0.700247622115904
192	0xbfb1385d1fe2374e	-0.06726629284295635
193	0x3fe9eeb714376d79	0.8103900332311432
194	0x3fa22ead4036717f	0.035512365425549135
195	0xbfe97523574cbacd	-0.7955490784714471
196	0x3fc3bac0978a6a08	0.15413672828147207
197	0xbfef7145c6c757be	-0.9825772173305649
198	0xbfb56a087f35f2da	-0.08364918809634095
199	0xbfefe15be9801926	-0.9962596474222536
200	0x3fbf7b76368e98c2	0.1229776271053167
201	0xbfe14ef8ae3f71b8	-0.5408900645521078
202	0xbfac91873bdaae33	-0.05579779248850194
203	0xbfe178f3387ca2ec	-0.546014414144421
204	0x3fe396b9d96497b6	0.6121491666751726
205	0x3fd8542a365cb2ca	0.3801370173339761
206	0xbfe07ca982ce3796	-0.5152175478740328
207	0x3fca1d7429c297e7	0.20402385748928895
208	0x3fe99c6878ae24c3	0.8003427845989325
209	0x40007c5741505266	2.0607133009564675
210	0xbff12094862bf832	-1.0704541436275687
211	0x3ff37670e1b7fbb5	1.216416246141063
212	0x3fdb22a4b83f022e	0.42398946755205
213	0x3ff625f9be8ebc79	1.3842713779120273
214	0xbff6ca4c2c8919bb	-1.424389051405895
215	0xbff29c2958e44453	-1.1631253692942394
216	0x3fe3a12faf477a9b	0.6134260581419143
217	0x3fef55050d36ddd0	0.979128385361884
218	0xbfee42e8a5e983b1	-0.9456675758811938
219	0xbff4c1dc5c04ee21	-1.2973292917730606
220	0x3fe4bada41cbfef3	0.6478091511816885
221	0x3fe1acb5881e4cda	0.552332654815838
222	0xbfdfbbe3d433800e	-0.49584289286394856
223	0xbff2771de69afeec	-1.15408125000243
224	0x3fe7a64716338871	0.7390475686663774
225	0x3fd21cfc9b0c7ff9	0.283019210257407
226	0xbfcac98a8b75c62f	-0.20927554902623188
227	0xbfe84aa8acf875b7	-0.7591136339503269
228	0x3fed1eae0152b911	0.9099950815050609
229	0x3fd4638f2a2b73b8	0.3185766135991872
230	0xbfa9c87ad868c895	-0.05035766498294084
231	0xbfd929f5eb8267b3	-0.3931860732933458
232	0x3fd133030c361b5a	0.26873851959719774
233	0x3fe90c3083d7b493	0.7827379775095714
234	0xbfc95db5c6822d8a	-0.19817230408476078
235	0xbff91d45301e672d	-1.5696460609091887
236	0x3fb002ae69e8ba58	0.0625409134451983
237	0x3fe8a14fde81dfbd	0.7696914049001787
238	0x3fb3a5fae3170e07	0.07675140423003067
239	0xbfe859152e04af2a	-0.7608743571085814
240	0xbfbcbe600640db01	-0.11227989342374302
241	0x3feb0079be334b03	0.8438080515719267
242	0x3fcdb743832de180	0.23215526490436034
243	0xbfd029a5ed59ea27	-0.25254200152235956
244	0xbfd0cb3c7839c21f	-0.26240455380232847
245	0x3fefd6f4b8f92bd8	0.9949897396812686
246	0x3fd67d45b06b7e31	0.35139600971703816
247	0x3fc6474813a39b5b	0.17405034026088625
248	0x3fa01e94478754e1	0.031483300906680396
249	0x3feea21256c5a08c	0.9572841353192572
250	0xbfd8790395e9f935	-0.38238610878024143
251	0xbff7d956bceeac42	-1.4905612354439346
252	0xbfd1b31cbdf3ea5c	-0.27655714559629074
253	0x3fe99e43ae4aa7e6	0.8005693821080484
254	0x3fddbffec9cb52ad	0.4648434610983639
255	0xbff702c62d413fb3	-1.4381772773522072
