data/QIPEDC/W01575B.npy (npy, 343568 bytes, 1 tensors)

array f8 [27, 15, 106]
0	0x0000000000000000	0.0
1	0x0000000000000000	0.0
2	0x0000000000000000	0.0
3	0x0000000000000000	0.0
4	0x0000000000000000	0.0
5	0x0000000000000000	0.0
6	0x0000000000000000	0.0
7	0x0000000000000000	0.0
8	0x0000000000000000	0.0
9	0x0000000000000000	0.0
10	0x0000000000000000	0.0
11	0x0000000000000000	0.0
12	0x0000000000000000	0.0
13	0x0000000000000000	0.0
14	0x0000000000000000	0.0
15	0x0000000000000000	0.0
16	0x0000000000000000	0.0
17	0x0000000000000000	0.0
18	0x0000000000000000	0.0
19	0x0000000000000000	0.0
20	0x0000000000000000	0.0
21	0x0000000000000000	0.0
22	0x0000000000000000	0.0
23	0x0000000000000000	0.0
24	0x0000000000000000	0.0
25	0x0000000000000000	0.0
26	0x0000000000000000	0.0
27	0x0000000000000000	0.0
28	0x0000000000000000	0.0
29	0x0000000000000000	0.0
30	0x0000000000000000	0.0
31	0x0000000000000000	0.0
32	0x0000000000000000	0.0
33	0x0000000000000000	0.0
34	0x0000000000000000	0.0
35	0x0000000000000000	0.0
36	0x0000000000000000	0.0
37	0x0000000000000000	0.0
38	0x0000000000000000	0.0
39	0x0000000000000000	0.0
40	0x0000000000000000	0.0
41	0x0000000000000000	0.0
42	0xbfd226df89133366	-0.2836226309416844
43	0x3ffd4ad1604a534d	1.8307660828915744
44	0x3fb3452365234c5b	0.07527371615587823
45	0x3ffbec96d63b7196	1.7452610367246044
46	0x3fd6baf1622595ea	0.3551600893464114
47	0x3ff6c0b0f432c9e5	1.4220437563895925
48	0x3fdec45aa196de85	0.48073449878891267
49	0x3ff320ad9c3331fd	1.195478067547014
50	0x3fd8d82013cb6d73	0.38819124157972523
51	0x3fee0d0ce6819c72	0.9390930654598277
52	0x3fd7869419713488	0.3675890205821095
53	0x3fbfc1b71a2d8d88	0.12404961003408321
54	0x3fe2e872e1031c99	0.5908750910538344
55	0xbfe7e872edc0d635	-0.7471251147860075
56	0x3fe81223fa4c6e95	0.7522144211429401
57	0xbff29e8795fd9bb9	-1.1637035235414557
58	0x3feb1f08ef7d8a07	0.847538440470374
59	0xbff8b17d22656cf4	-1.5433322280503576
60	0x3f9f2c1d5b4e78d2	0.03044172162810172
61	0x3f869e58ab2dea80	0.011044209217051959
62	0x3fc33a6d3d9cd531	0.15022054203442672
63	0xbfd1aed1ffb9ff48	-0.2762951848344426
64	0x3fcafd90c938c812	0.21086320710452405
65	0x3fdc89cf8f8808b5	0.44591130272614105
66	0x3fd00a113a7c184d	0.25061445914650876
67	0x3ff00403c5b15dc3	1.0009801599861567
68	0xbfd43d1c7c65a8fa	-0.31622993610530126
69	0xbf2a5324e0e90296	-0.00020084214379958017
70	0xbfd2e42942541ce9	-0.29517585256003415
71	0xbfe23dc8b2f2ceb0	-0.5700419898116333
72	0xbfc953179eb20241	-0.1978482746963142
73	0xbfe85bae7a4b6835	-0.7611915958943941
74	0xbfba605fc7503f2d	-0.10303305259753577
75	0xbfeeae13775f217c	-0.9587495166279463
76	0xbfe45ac9ff4a8497	-0.6360826479105012
77	0x3fbce4045b2d2423	0.11285426355347332
78	0xbfe9d3dfbebfc3e4	-0.8071135259216331
79	0xbfe0d698e89805ce	-0.526195959362832
80	0xbfecd2660659122d	-0.9006834148390844
81	0xbfed668da7c5527d	-0.9187687184117547
82	0xbfeeb7b910db9142	-0.9599271134616532
83	0xbff5ca3f6995a2e2	-1.3618768810649091
84	0xc00d914140becc8e	-3.695925241301274
85	0xc00a57622848431c	-3.2926676890423447
86	0xbfdb893b845b5f7d	-0.4302510063694099
87	0x3fced3982ed34973	0.2408323506011346
88	0xbf9327b049818e39	-0.018706087576346262
89	0xbfe91795c269eaa5	-0.7841290280478758
90	0x3fbe6c252c88fe5e	0.11883766495974998
91	0xbff056fec7da402a	-1.0212390715351014
92	0xbfc272b7b5828b4d	-0.1441259037283892
93	0xbfef60904bf20e5f	-0.9805375560103576
94	0x3fb90fc79eea8617	0.09789703016078764
95	0xbfe179f998036119	-0.5461395234115428
96	0xbfb86daa0ee90539	-0.09542334426898415
97	0xbfe05b82615667ec	-0.5111705685733319
98	0x3fe579cef24ba034	0.671119187577466
99	0x3fd6391e08bfde34	0.3472361646122153
100	0xbfe0c59b9f5735e8	-0.5241220581171406
101	0x3fccd572b1207a7e	0.22526391648075966
102	0x3fecaf19bc789a5c	0.8963745766712452
103	0x3ffdda3c5d33a64a	1.8657802239125822
104	0xbff00794fba8d2ad	-1.0018510656783903
105	0x3ff67a9d962d7406	1.404935442572652
106	0x0000000000000000	0.0
107	0x0000000000000000	0.0
108	0x0000000000000000	0.0
109	0x0000000000000000	0.0
110	0x0000000000000000	0.0
111	0x0000000000000000	0.0
112	0x0000000000000000	0.0
113	0x0000000000000000	0.0
114	0x0000000000000000	0.0
115	0x0000000000000000	0.0
116	0x0000000000000000	0.0
117	0x0000000000000000	0.0
118	0x0000000000000000	0.0
119	0x0000000000000000	0.0
120	0x0000000000000000	0.0
121	0x0000000000000000	0.0
122	0x0000000000000000	0.0
123	0x0000000000000000	0.0
124	0x0000000000000000	0.0
125	0x0000000000000000	0.0
126	0x0000000000000000	0.0
127	0x0000000000000000	0.0
128	0x0000000000000000	0.0
129	0x0000000000000000	0.0
130	0x0000000000000000	0.0
131	0x0000000000000000	0.0
132	0x0000000000000000	0.0
133	0x0000000000000000	0.0
134	0x0000000000000000	0.0
135	0x0000000000000000	0.0
136	0x0000000000000000	0.0
137	0x0000000000000000	0.0
138	0x0000000000000000	0.0
139	0x0000000000000000	0.0
140	0x0000000000000000	0.0
141	0x0000000000000000	0.0
142	0x0000000000000000	0.0
143	0x0000000000000000	0.0
144	0x0000000000000000	0.0
145	0x0000000000000000	0.0
146	0x0000000000000000	0.0
147	0x0000000000000000	0.0
148	0xbfd63c1cacd9d0a8	-0.34741894607510426
149	0x4006fc58ff8e676f	2.8732166257222427
150	0x3fc6b2cf9cb954a3	0.17733187820946225
151	0x40010fc6ef5e796a	2.132703657217623
152	0x3fe0b857fe92445c	0.5225028965088643
153	0x3ff6207bae09f231	1.3829304502861641
154	0x3fe6740bffba6035	0.7016658777893158
155	0x3feac7d91a20a763	0.836895514517192
156	0x3fe3be2a7f9f8c09	0.6169636242524358
157	0x3fda543c30d3b2bb	0.4113913037133831
158	0x3fd0c5c10cf0ef55	0.2620699526194035
159	0x3fd79dcd8d67bfbf	0.36900652703388553
160	0x3fd8c7d8d1825727	0.3871976896274298
161	0xbfd480d3788bbc57	-0.3203629185872549
162	0x3fe10f01f87aa32a	0.5330819943529594
163	0xbfe52c4cbc5d24fc	-0.6616576842290267
164	0x3fe411de6d64bd19	0.6271812569229126
165	0xbfedd05b3168b68c	-0.9316841092128967
166	0xbfa7b50f945dac46	-0.04630325971705722
167	0x3fd152d3e3f754ec	0.27068040144270245
168	0x3fc2ca40fc399e77	0.146797297627234
169	0xbfd56e7f96b2d865	-0.33486928669606747
170	0x3fd204d38133a71a	0.28154456727371413
171	0xbfc980c98e87c77a	-0.19924277743808344
172	0x3fd78e9bb1e44038	0.3680791127417282
173	0xbf9528e3220ec0a8	-0.02066378493663082
174	0xbfd6c1fe6f3854ed	-0.35559044705708126
175	0x3fc8ce1f51cea674	0.19379035467618488
176	0xbfd2b0d120892c15	-0.29204204728438415
177	0xbfe40b38a44b3f98	-0.6263697823396681
178	0xbfcd4f6d9da13a56	-0.22898645588652994
179	0xbff10e6c1b3c966b	-1.0660210670406751
180	0xbfc60eb04b8c5a97	-0.17232326210860968
181	0xbff6a240a65092a0	-1.4146124359769274
182	0xbfe55ba2fac06c6b	-0.6674361131184815
183	0x3fcdd7527efafc40	0.23313361358848006
184	0xbfe86c657a8261a8	-0.7632319824943368
185	0xbfe30674aa2cb1c1	-0.5945380519602211
186	0xbfeb1b6e22f81206	-0.8470984156597872
187	0xbff0e529861a4a49	-1.055947803343445
188	0xbfeced7268b41baf	-0.9039852185240899
189	0xbff7a4fb53aabb0d	-1.477778746436971
190	0xc00dfa6bd9657502	-3.7472760185324896
191	0xc00a88903259eb3b	-3.3166812833491384
192	0xbfdb4d1668927632	-0.42658004963036256
193	0xbfc472625d2b64ff	-0.15974072980205986
194	0xbf85c2a37dd3ca20	-0.010625149991459415
195	0xbfe9129383d640e5	-0.7835176062526698
196	0x3fbe9f2d6cddffca	0.11961635501756898
197	0xbff06992bafd5425	-1.0257746986656084
198	0xbfc19ddd8a7695b2	-0.13763016949557777
199	0xbfef53d2d379aa48	-0.9789823656440797
200	0x3fb9d47f45d37281	0.10089869932876107
201	0xbfe17784c8c23ce7	-0.5458396836346794
202	0xbfb88e9d6306ae07	-0.0959261290324137
203	0xbfe020fbe7e1f581	-0.5040263680418066
204	0x3fe58203ad008e21	0.672120893378125
205	0x3fd743911c66e6ac	0.3634989526141037
206	0xbfe10b2a7a0fbdd7	-0.5326130279553877
207	0x3fd04803b1a57e87	0.2543954119518976
208	0x3feced69a7a35b3e	0.9039810442144256
209	0x3ffe6dc3e39753c8	1.9017981424596986
210	0xbff0513169fa47c0	-1.0198225154640426
211	0x3ff5185d27dcf5d4	1.3184482152131425
212	0x0000000000000000	0.0
213	0x0000000000000000	0.0
214	0x0000000000000000	0.0
215	0x0000000000000000	0.0
216	0x0000000000000000	0.0
217	0x0000000000000000	0.0
218	0x0000000000000000	0.0
219	0x0000000000000000	0.0
220	0x0000000000000000	0.0
221	0x0000000000000000	0.0
222	0x0000000000000000	0.0
223	0x0000000000000000	0.0
224	0x0000000000000000	0.0
225	0x0000000000000000	0.0
226	0x0000000000000000	0.0
227	0x0000000000000000	0.0
228	0x0000000000000000	0.0
229	0x0000000000000000	0.0
230	0x0000000000000000	0.0
231	0x0000000000000000	0.0
232	0x0000000000000000	0.0
233	0x0000000000000000	0.0
234	0x0000000000000000	0.0
235	0x0000000000000000	0.0
236	0x0000000000000000	0.0
237	0x0000000000000000	0.0
238	0x0000000000000000	0.0
239	0x0000000000000000	0.0
240	0x0000000000000000	0.0
241	0x0000000000000000	0.0
242	0x0000000000000000	0.0
243	0x0000000000000000	0.0
244	0x0000000000000000	0.0
245	0x0000000000000000	0.0
246	0x0000000000000000	0.0
247	0x0000000000000000	0.0
248	0x0000000000000000	0.0
249	0x0000000000000000	0.0
250	0x0000000000000000	0.0
251	0x0000000000000000	0.0
252	0x0000000000000000	0.0
253	0x0000000000000000	0.0
254	0xbfd01b53156f2e77	-0.25166775792306545
255	0x400668ac5f7dc164	2.8011100254299652
