data/QIPEDC/W01511.npy (npy, 941408 bytes, 1 tensors)

array f8 [74, 15, 106]
0	0x3fed4fd9cf893c27	0.9159974149168918
1	0x3fee7d5e6ab9d7f9	0.9528038105479474
2	0xbfd64bc3e60b7d6e	-0.3483743425876672
3	0x3fcf146f11335160	0.24281109180322868
4	0x3fe5c92fdda96127	0.6808089570359116
5	0x3fed6eab5b7948aa	0.9197594439122174
6	0xbfc4dd08e6787f74	-0.16299544576122182
7	0xbfa6201f8f592b96	-0.04321383118493498
8	0x3fda095933c89073	0.40682058388688985
9	0x3fec5490edc5ab77	0.8853230136859186
10	0xbfbba76db196e884	-0.10802350602799221
11	0xbfe02c4f61088b71	-0.5054089446242483
12	0x3fc9fe1e2cd66ab1	0.20306756200155499
13	0x3fec1c65994077ef	0.8784664147567564
14	0xbfb94061ea7f7684	-0.09863864874884071
15	0xbfebfb4e83e11140	-0.8744270873799351
16	0x3fab7368c4f54552	0.05361487774156139
17	0x3fed1592e37d52b6	0.908883518519892
18	0xbfb3589f62c54aaa	-0.07557102357285808
19	0xbff33789803205df	-1.2010588653214354
20	0x3fd4fe7cdca42d2d	0.3280326990795455
21	0x3fe6ec57276c5ff5	0.7163501520144552
22	0xbfd4b50723f327d5	-0.3235490656921887
23	0xbfef8386f22271ba	-0.9848055581274402
24	0x3fab84d2eb429ad7	0.05374774095371542
25	0x3fea116ab1172115	0.8146260699077482
26	0xbfd646f2b7870703	-0.3480803291569005
27	0xbff70f5a31203708	-1.4412481230714906
28	0xbfc382b8d7b9e9d2	-0.15242682012087855
29	0x3febd4e43878d0a0	0.8697377303092431
30	0xbfd6c76ff392f522	-0.35592268740204436
31	0xbffbc5c24de621a7	-1.7357810061385892
32	0xbfd5049835d72cd2	-0.32840543039192227
33	0x3fed35d70c856233	0.9128222698737488
34	0xbfd6f6a3b1b021af	-0.3588036761507522
35	0xbfffe8fa837cee1f	-1.9943795334101038
36	0x3fd7b1d069da8b5a	0.37022791230463314
37	0x3fe8a238732cf113	0.7698023080370454
38	0xbfda43cdf6d48c88	-0.41038846115606775
39	0xbfeee2d13c54bf21	-0.9651876619663861
40	0x3fae231e892f3138	0.05886168884862503
41	0x3febf8d48c0ee9c9	0.8741247878563679
42	0xbfc317eac5a4677a	-0.149167391304953
43	0xbfee24ba7f72f56c	-0.9419834603537942
44	0x3fb1990d841ff75a	0.06874165034966265
45	0x3feddc6712143705	0.9331546166519905
46	0xbfc4375a074b09b0	-0.15793919902905662
47	0xbff366f98f0c0baf	-1.212640341546585
48	0xbfb601f363799074	-0.0859672658785387
49	0x3feebf19061d15e6	0.9608273620039511
50	0xbfc4cdb58c83e2bc	-0.16252774582951257
51	0xbff7414f633eb78f	-1.4534448506123885
52	0x3fe1317312e6df43	0.5372863167931218
53	0x3fed143ad805abd5	0.9087194651777916
54	0xbfc74e740126ac8d	-0.18208169990734682
55	0xbfdd7e07bb72d4c7	-0.4608172731926285
56	0x3fd3463c705b91fc	0.3011618706935051
57	0x3feefe301bcc287b	0.9685287993354587
58	0xbfccd57b2adcb39a	-0.22526492684246763
59	0xbfeafe389a700c5d	-0.843532849918471
60	0x3fc1dc7d4eb33b40	0.13954130499629436
61	0x3ff0020d789e7008	1.00050112835652
62	0xbfcf0b38db18fee6	-0.24252997110487867
63	0xbff18631c5d5b31a	-1.0952623107834314
64	0x3f72b6fc52c78154	0.004569039953338756
65	0x3ff026a8abeefafa	1.0094382015374195
66	0xbfd04250dc5c2121	-0.2540475990249594
67	0xbff5257453794136	-1.3216441403092865
68	0x3fe303b1cc19107f	0.5942009912764802
69	0x3ff0da8f3c611258	1.0533592566072425
70	0xbfceed68ea9d2c23	-0.24162017303237446
71	0xbfd423c46340ceaf	-0.3146830529469566
72	0x3fdb182c22cd0c76	0.42335036657841074
73	0x3ff12b086916209f	1.073006067747009
74	0xbfd1e235ca2c4f11	-0.2794317697855471
75	0xbfe31bd2539adffa	-0.5971461899671333
76	0x3fd392e19c09f852	0.30583992231539014
77	0x3ff13c6be80dcbc0	1.0772513451199615
78	0xbfd2ddd5b866c4c5	-0.29478972442582246
79	0xbfe9cf5bcddb6636	-0.8065623303074918
80	0x3fca76939b6c8329	0.2067436703591963
81	0x3ff113f4440c7c3d	1.0673716219096285
82	0xbfd3969cd73168a3	-0.3060676671499413
83	0xbff01230cb2d321a	-1.0044410645088022
84	0xbfd917b8ccefe76c	-0.39207286847487555
85	0x3fc74fd338f3e599	0.18212356835264812
86	0xbfe0b3d593f335d2	-0.5219524278306216
87	0x3fa8abe0d37d8347	0.048186326805768114
88	0x3fbc6aa18aeef288	0.11100206033638405
89	0xbfe858c78c84b1e2	-0.7608373398302855
90	0x3fc6f4b9aa023822	0.17934342194752256
91	0xbfeee741f110a57a	-0.9657296856213826
92	0xbfa222cd514e7acf	-0.03542176835548149
93	0xbfefd58d7e7c3eaf	-0.9948184461990958
94	0x3fc24d0303145914	0.14297521257749024
95	0xbfe053d8d52ece7f	-0.5102352298476517
96	0xbf95c0972f9cb861	-0.02124248722173439
97	0xbfe02071552d4212	-0.5039602912530106
98	0x3fe042fabede26b3	0.5081762054334916
99	0x3fb50158d65de9b9	0.08205180390897383
100	0xbfe56a6fd88457fa	-0.6692427853438396
101	0x3fd170192c0ca7e2	0.2724669389887123
102	0x3fee326b80d11d8f	0.9436547771410221
103	0x3ff8b5317dcf0baf	1.5442366518407018
104	0xbff28c441a9e50bb	-1.159244636514855
105	0x3ffd63a33cfebf0a	1.836825598013038
106	0x3fedc315353a7777	0.9300638236634161
107	0x3fee9eb9879a1d0f	0.9568755768276861
108	0xbfd48567ee7fcf51	-0.32064245501463967
109	0x3fd381c674f5d441	0.3047958509626519
110	0x3fe51a2c63834be4	0.6594449943171381
111	0x3ff1ac864910c49b	1.1046202520485966
112	0xbfbff2edbfd20bbd	-0.1248005479156253
113	0x3f3e6537dc1928b1	0.00046379674686093235
114	0x3fd7f059722000f6	0.3740447630407425
115	0x3ff0f63d9d9a3094	1.060117354997634
116	0xbfb4e8a2f9cd6d94	-0.0816747531766196
117	0xbfe01f55a865b779	-0.5038250245104187
118	0x3fc47fd56181c0d5	0.16015116940571397
119	0x3ff004b4ec86294c	1.0011491049977677
120	0xbfb229e4f82f1ea6	-0.07095175799542605
121	0xbfeca09cd458fedd	-0.8946060321249792
122	0x3f76d76ee1887a5c	0.005576546791898975
123	0x3fef485082227455	0.9775774518672146
124	0xbfa2833b97d29704	-0.03615747669509342
125	0xbff376e7d92e0993	-1.216529701575017
126	0x3fd4e542ae9be496	0.3264929490247338
127	0x3fe4887248c75228	0.6416560574967365
128	0xbfd34d0ac8a30d10	-0.3015772780747321
129	0xbfef316dc7168561	-0.9747837913929908
130	0x3f96bb7bc10f7496	0.02219956746909143
131	0x3fe7542c8f07ac1f	0.729025153499041
132	0xbfd41c3f833cd08b	-0.314224126969983
133	0xbff73c9abff07145	-1.4522960183740719
134	0xbfc98be673890289	-0.19958191529623928
135	0x3fe8e6e005cbce89	0.7781829941945527
136	0xbfd421e0b662c2f3	-0.31456773577796965
137	0xbffc37a42180ac77	-1.7635842617699191
138	0xbfd8b89a72e2b765	-0.38626729220674455
139	0x3fea1bdc13e937eb	0.8159008396994499
140	0xbfd425fe1cae84b0	-0.3148188858122678
141	0xc000390c45f64bc6	-2.0278554406918117
142	0x3fd7414c262c4de5	0.36336044051969757
143	0x3fe57297848e399a	0.6702382649398715
144	0xbfd94e58df31c9ae	-0.3954069308885221
145	0xbfeeed124b20b139	-0.9664393870676015
146	0x3f93cd0d7fc3bd3c	0.01933690159142752
147	0x3fe84c531465f097	0.7593169592287435
148	0xbfc0c51918aaac09	-0.13101495460918525
149	0xbfedeb512f45f2e2	-0.9349752353005807
150	0x3fa2f0544a8af749	0.03698981676050878
151	0x3fed872d18565ed8	0.9227509951915307
152	0xbfc10745845b9dfd	-0.13303441012179454
153	0xbff378c629fd629e	-1.216985858938791
154	0xbfc01179d095db74	-0.12553332028229713
155	0x3fee4c4c6060df2f	0.946813762892793
156	0xbfc1200b50c68e39	-0.1337904114162585
157	0xbff76213be110560	-1.4614446091148565
158	0x3fe16d67304d3067	0.5446048682583865
159	0x3fecfa5ce5fe018a	0.9055618755374308
160	0xbfc675c209c235b6	-0.17546868778701502
161	0xbfdb04e2983b8b31	-0.4221731650015271
162	0x3fd2006469adeccc	0.2812739402795159
163	0x3feea000493f6067	0.9570313864342211
164	0xbfcb828bd913cee4	-0.21492145633202775
165	0xbfeae3ce3d207302	-0.8403083032495433
166	0x3fbc6df742ec8587	0.11105294593700964
167	0x3fefc7a0fa982b6f	0.9931187529012798
168	0xbfcd7cc0d2dcba26	-0.23036966606146442
169	0xbff1daad7999b2f4	-1.1158880949034797
170	0xbfa3476da7525b68	-0.03765432994366941
171	0x3feff523134f8f25	0.998673951832164
172	0xbfced60693962a67	-0.24090654569984624
173	0xbff5b6bcb8f92f12	-1.3571135736010018
174	0x3fe33bf062ad2628	0.6010667731545185
175	0x3ff110854bbba5c6	1.0665333708114857
176	0xbfce2bb1d805d8af	-0.23570845649709812
177	0xbfd1e4a05e72071b	-0.2795792505568088
178	0x3fdb2acedda4faed	0.4244877972122783
179	0x3ff15b92ab2a13dc	1.0848566709621457
180	0xbfd12fa92865efa1	-0.26853398270736234
181	0xbfe2f032970f8980	-0.591820998230375
182	0x3fd37fa48f2437c4	0.30466569880161054
183	0x3ff195fc38da4a43	1.09911749084553
184	0xbfd20dc5a845a300	-0.28209058220686245
185	0xbfea24fc1de5d020	-0.8170147499026861
186	0x3fc8f99d74f2827c	0.19511764726941638
187	0x3ff17d1f350ef1ef	1.0930473396866736
188	0xbfd2932c1b82f55d	-0.29023268400836405
189	0xbff07bb4d6c294cf	-1.0302017582956073
190	0xbfd9fbb3833234d0	-0.4059876233303159
191	0x3fbe9dd175bea747	0.11959561466815415
192	0xbfe119ab07fa906a	-0.5343833118281627
193	0xbfa73175f77716fb	-0.04529923101249086
194	0x3fbe3e56ab2c013a	0.11813871077538787
195	0xbfe83868a5263760	-0.756885836178963
196	0x3fc7a01dfc3e6294	0.18457388702951916
197	0xbfeec3dec3541487	-0.9614099326141891
198	0xbf9c1fba36ae4404	-0.02746478041405355
199	0xbfefdbc7bcd7e0e8	-0.9955786407799936
200	0x3fc21808de12d299	0.14135847896036038
201	0xbfe03a5d320e085d	-0.5071245172150715
202	0xbf88b1e842f241c6	-0.012058081191100533
203	0xbfdfe954826c244a	-0.49861634003224664
204	0x3fe03566459c46e6	0.5065184936122165
205	0x3fb1800ef04238d8	0.06836026540460993
206	0xbfe5d0c34c807e5b	-0.6817337507417948
207	0x3fd1267df4b2be6c	0.2679743661528622
208	0x3fee2c1f92102c70	0.9428861477657744
209	0x3ff8ad41dd564bf0	1.5422991415005036
210	0xbff2c168d23243a7	-1.1722191057963103
211	0x3ffd74a902c40495	1.840981493762489
212	0x3fef154adefdb5c9	0.9713491778654141
213	0x3fee7e8828b016ce	0.9529457850155383
214	0xbfd328ed5565ea77	-0.2993729909864337
215	0x3fd67edf644e732e	0.35149369044829626
216	0x3fe480d6c63d8d6b	0.6407274124034478
217	0x3ff2d43cda13c2c0	1.176815845359826
218	0xbfbb042be6374d26	-0.10553240175731968
219	0x3fab3ac3ce598080	0.05318271535793517
220	0x3fd61b5eaf2eda03	0.34542052371708126
221	0x3ff1d1e7c899c1d9	1.1137464366876115
222	0xbfaf0aea46c497ac	-0.06063015092722365
223	0xbfde21e78bef467e	-0.470819365172339
224	0x3fc0fc6f28fe7e57	0.13270368100801264
225	0x3ff0824b905b2bdd	1.031810344592251
226	0xbfa5b1584f4c7a11	-0.042368659667989424
227	0xbfebcec96489f1de	-0.8689925159119942
228	0xbf9dbf401a74e2b4	-0.029049874892026664
229	0x3fef84a27df91063	0.9849407635124517
230	0x3f7134a70700378d	0.0042006039148087095
231	0xbff31abdb0807b0d	-1.194028558216533
232	0x3fd452980324f676	0.3175411253649608
233	0x3fe423ef9f292d86	0.6293867214784974
234	0xbfd28570fa47bddf	-0.28939461175374775
235	0xbfef82183f27aeb5	-0.9846307023521691
236	0xbf80050b686fa6c5	-0.007822121739042296
237	0x3fe6bb00cb98bb6f	0.710327527665738
238	0xbfd3350d78f6e2a4	-0.3001130753796508
239	0xbff7ae7b4e998254	-1.4800980634974126
240	0xbfcc187448a0ef23	-0.21949628397293805
241	0x3fe770ca07e6598b	0.7325182108204883
242	0xbfd37e8f5bec7f0a	-0.30459960915503415
243	0xbffcc955e6b8c4b8	-1.7991541874473977
244	0xbfda0f5bdbc96db2	-0.4071874281268847
245	0x3fe813d3b3ac9126	0.7524202832469526
246	0xbfd3dde822e202ca	-0.31041911512879194
247	0xc00093216e3c4bbd	-2.0718411075735887
248	0x3fd73334a126ca85	0.36250034081891896
249	0x3fe3eaa554706907	0.6223932885361884
250	0xbfd86c4419dda7e6	-0.38160803342782257
251	0xbfef26cc69981cc2	-0.973486143339777
252	0xbf9140bc3e706f18	-0.016848508177743943
253	0x3fe764eae14b7d43	0.7310690307894351
254	0xbfbdea798302b108	-0.11685904930590507
255	0xbfee264c21208591	-0.9421749732029402
