data/QIPEDC/W01679.npy (npy, 279968 bytes, 1 tensors)

array f8 [22, 15, 106]
0	0x3ffce01494be926c	1.8047071276024793
1	0x3fcb96a19789d145	0.21553439997991056
2	0x3ffe4a1fbed492cf	1.8930966810523164
3	0xbfeee3a19d7dab34	-0.9652870250696197
4	0x3ff7c211a02688f0	1.4848800903205834
5	0xbff7e879ed4b72df	-1.4942569035840092
6	0x3ff060e6c16a9848	1.0236575656249602
7	0xbff1f2b71e7e1809	-1.1217566672435189
8	0x3fe8d559defb54fe	0.7760438304054842
9	0xbfe41d74f24a5294	-0.6285958034737456
10	0x3fe9788d486478dc	0.7959658063807882
11	0xbf99f2d57cc7ab5d	-0.025340400448765055
12	0x3fb46c5cfd0dbeec	0.0797784917647239
13	0xbfb8e217dbe6ae03	-0.09719990843466779
14	0xbfdd143ef2eb0f3d	-0.4543607113121089
15	0x3f86ab9b7ed9a838	0.011069502648030846
16	0xbfec6ab3d571c7fd	-0.8880252045476024
17	0x3fd17912ac3e9d04	0.2730147058559427
18	0x3fe155f9d5c2f5ce	0.5417451071768313
19	0x3fdcb1a3349d6add	0.4483421338860987
20	0xbfd420e0f105dc1d	-0.3145067552317771
21	0x3fc6b94a5aa48011	0.17752961564929184
22	0xbfedfbb34b1436bd	-0.9369751421342795
23	0x3fc995dd90cad27c	0.19988603181777254
24	0xbff66821dcec58f2	-1.400422919255615
25	0x3fdd2cbed68121e6	0.45585604617784126
26	0x3fd8257e57d77359	0.3772884233310854
27	0x3fe1c27d4f2ab623	0.554991392729509
28	0xbfd96bc77181eedf	-0.39720331272813597
29	0x3fcc69e23a8aa4ce	0.22198131426310969
30	0xbfee9cbd2dea55c4	-0.9566331764969438
31	0x3fc8fb7979ff83b4	0.1951743932432045
32	0xbff65d44fc3c1de6	-1.3977708676264853
33	0x3fd5f11ca4c98e21	0.3428413018466206
34	0x3fd2906f168db51c	0.29006554796690565
35	0x3fe13fa71df2ac6f	0.5390201172753118
36	0xbfd50f22c2bb0759	-0.3290488149324254
37	0x3fd3573e49cd4e58	0.30219990927910123
38	0xbfe9e651675b5bb5	-0.8093649882019834
39	0x3fc8f75588a4a090	0.19504803821587702
40	0xbff2ed3a250606c2	-1.1829167791587882
41	0x3fc997e3c2857a6c	0.19994780538668822
42	0x0000000000000000	0.0
43	0x0000000000000000	0.0
44	0x0000000000000000	0.0
45	0x0000000000000000	0.0
46	0x0000000000000000	0.0
47	0x0000000000000000	0.0
48	0x0000000000000000	0.0
49	0x0000000000000000	0.0
50	0x0000000000000000	0.0
51	0x0000000000000000	0.0
52	0x0000000000000000	0.0
53	0x0000000000000000	0.0
54	0x0000000000000000	0.0
55	0x0000000000000000	0.0
56	0x0000000000000000	0.0
57	0x0000000000000000	0.0
58	0x0000000000000000	0.0
59	0x0000000000000000	0.0
60	0x0000000000000000	0.0
61	0x0000000000000000	0.0
62	0x0000000000000000	0.0
63	0x0000000000000000	0.0
64	0x0000000000000000	0.0
65	0x0000000000000000	0.0
66	0x0000000000000000	0.0
67	0x0000000000000000	0.0
68	0x0000000000000000	0.0
69	0x0000000000000000	0.0
70	0x0000000000000000	0.0
71	0x0000000000000000	0.0
72	0x0000000000000000	0.0
73	0x0000000000000000	0.0
74	0x0000000000000000	0.0
75	0x0000000000000000	0.0
76	0x0000000000000000	0.0
77	0x0000000000000000	0.0
78	0x0000000000000000	0.0
79	0x0000000000000000	0.0
80	0x0000000000000000	0.0
81	0x0000000000000000	0.0
82	0x0000000000000000	0.0
83	0x0000000000000000	0.0
84	0xbfb61bad17554418	-0.08635980434088741
85	0x3ff6cd8a0711206a	1.4251804615069212
86	0xc0086fd328594830	-3.054601969933195
87	0xc0077858643567e4	-2.933762343292061
88	0x3f8b686523200d32	0.013382711538730694
89	0xbfea56dee36104ea	-0.8231043282504775
90	0x3fc2273706d09864	0.1418217452312006
91	0xbff0067d94970e35	-1.0015846065806617
92	0xbfb4539dbf13c608	-0.07940088191005412
93	0xbff03fb2ae513e26	-1.01555126278607
94	0x3fba0f837c1fd164	0.10179921894434113
95	0xbfe342934aacab32	-0.6018768747793273
96	0xbfb08cdfe5ef633f	-0.06464957584047414
97	0xbfe31371a0ed81e6	-0.5961235182876947
98	0x3fe0c38953a593bd	0.5238691934324532
99	0x3fd3e8ad782e515c	0.31107651459139674
100	0xbfe0988c4e8284ec	-0.5186215909381224
101	0x3fccd9293e069616	0.22537723091697676
102	0x3fe400513404df6c	0.6250387207028161
103	0x3ffc652bddc74d44	1.7747000373099846
104	0xbfe7c89e4a4c2992	-0.7432395411608914
105	0x3ffba225c6d23103	1.7270868078658743
106	0x3fff4fa07d06133d	1.9569401630153174
107	0xbfd5cfc29aa4671d	-0.34080567456986605
108	0x3ffea294afbaee47	1.914692579694831
109	0xbff5489db49b2c30	-1.3302285246779881
110	0x3ff8d033bc38bff8	1.5508305885705322
111	0xbff8adcc553d5b88	-1.542431195228092
112	0x3ff246fc95ef1cf4	1.1423307282255424
113	0xbff1811a670e9c63	-1.0940193200747437
114	0x3fea2fe45b44938a	0.8183461935592373
115	0xbfe1131806b099fe	-0.533580792490113
116	0x3fe30a43425ae0ea	0.5950027748104081
117	0xbfcac236f9dad0ab	-0.20905196380556865
118	0xbfa44d8bcecafb3f	-0.039654129975579704
119	0xbf8ff2ef0d26fc96	-0.015600078190685356
120	0xbfe1f965b7b03309	-0.5616940105115599
121	0x3fd48bfd86cc21a8	0.32104433215911365
122	0xbff057614d90e521	-1.0213330297395447
123	0x3fe6df29fbd6d49b	0.7147416990980163
124	0x3fda61363d18092b	0.4121833416576403
125	0x3fb5d22d828eeee9	0.0852383083101206
126	0xbfd3fa2420ef8b26	-0.3121424028051244
127	0x3fc3934997cc4509	0.15293235694893095
128	0xbfecc5374f870fac	-0.8990742257378677
129	0x3fd63b883bd33125	0.34738355486185163
130	0xbff66c70ed7dcf43	-1.401474883748009
131	0x3fe3306925608e2b	0.5996595125220144
132	0x3fd3aa79db06dfa4	0.3072800291952211
133	0x3fc86523f0207161	0.1905865595334815
134	0xbfd6bb531b283009	-0.3551833882527267
135	0x3fced43a54b0d6b6	0.24085168013850983
136	0xbfecde45450b8073	-0.9021326397451176
137	0x3fd8c0aca8d6e3bc	0.38675991523956177
138	0xbff645a371cb457b	-1.3920015759543662
139	0x3fe2d68ca78a1ece	0.588690116143846
140	0x3fd2c23ceca54e60	0.293105345820754
141	0x3fd048412fc0e00b	0.2544100729314784
142	0xbfd18b4b0a0d15dd	-0.2741267774730128
143	0x3fd30353ee56cf27	0.2970781161813982
144	0xbfe7156338977a79	-0.721360788851441
145	0x3fd9373f3bee1303	0.39399700977837443
146	0xbff1c4bf2fa301b5	-1.1105338917551368
147	0x3fdf8291bb075154	0.4923443151904128
148	0x0000000000000000	0.0
149	0x0000000000000000	0.0
150	0x0000000000000000	0.0
151	0x0000000000000000	0.0
152	0x0000000000000000	0.0
153	0x0000000000000000	0.0
154	0x0000000000000000	0.0
155	0x0000000000000000	0.0
156	0x0000000000000000	0.0
157	0x0000000000000000	0.0
158	0x0000000000000000	0.0
159	0x0000000000000000	0.0
160	0x0000000000000000	0.0
161	0x0000000000000000	0.0
162	0x0000000000000000	0.0
163	0x0000000000000000	0.0
164	0x0000000000000000	0.0
165	0x0000000000000000	0.0
166	0x0000000000000000	0.0
167	0x0000000000000000	0.0
168	0x0000000000000000	0.0
169	0x0000000000000000	0.0
170	0x0000000000000000	0.0
171	0x0000000000000000	0.0
172	0x0000000000000000	0.0
173	0x0000000000000000	0.0
174	0x0000000000000000	0.0
175	0x0000000000000000	0.0
176	0x0000000000000000	0.0
177	0x0000000000000000	0.0
178	0x0000000000000000	0.0
179	0x0000000000000000	0.0
180	0x0000000000000000	0.0
181	0x0000000000000000	0.0
182	0x0000000000000000	0.0
183	0x0000000000000000	0.0
184	0x0000000000000000	0.0
185	0x0000000000000000	0.0
186	0x0000000000000000	0.0
187	0x0000000000000000	0.0
188	0x0000000000000000	0.0
189	0x0000000000000000	0.0
190	0xbfc2c5a913fa2cbe	-0.1466571185631888
191	0x3ff88e22829c6e30	1.5347008802408588
192	0xc00899d78fd2f852	-3.075118182779115
193	0xc007a11bdc45d2bf	-2.9536664208229406
194	0x3f918c231ffde890	0.01713614351999887
195	0xbfea50b863ed38b3	-0.8223535491649926
196	0x3fc24749821df5b8	0.1428005109154762
197	0xbfefe06678d86503	-0.9961426124820324
198	0xbfb45a3f50d187e8	-0.07950206492526457
199	0xbff032d8b025aa87	-1.0124136811015505
200	0x3fba7963a650e39f	0.10341475305985036
201	0xbfe34569f545b928	-0.6022233763194764
202	0xbfb0b240b4a72619	-0.06521992121192745
203	0xbfe329f472a67069	-0.5988714446316524
204	0x3fe0ee12614ebf3d	0.5290614986933871
205	0x3fd382b73083b007	0.3048532460950359
206	0xbfe0a05ee75638ce	-0.5195765035912474
207	0x3fcc57520c234902	0.221414810110737
208	0x3fe3e1021ba4f0f2	0.6212168254783406
209	0x3ffc86d75a8d0934	1.7829202210564974
210	0xbfe7fa85833feac7	-0.7493312419386137
211	0x3ffb90a7ea4c2fd8	1.7228163864374348
212	0x3ffd5de950a39399	1.8354275846442987
213	0xbfe3108bcc3e7710	-0.595769785799094
214	0x3ffd8964b7fbe953	1.846043318450559
215	0xbff809d09d545239	-1.502396215980424
216	0x3ff8663e280b6a71	1.5249616207353507
217	0xbffa5383bf0bc544	-1.6453893149121805
218	0x3ff2542a09b5a6cc	1.1455479029922797
219	0xbff1ce3576ae904c	-1.1128439556132603
220	0x3fe991a8b4e1326c	0.7990306408697285
221	0xbfe4fafce29dabb0	-0.6556381631938759
222	0x3fe3910cbfa7a61e	0.6114562743434282
223	0xbfbd0786110ab639	-0.11339605251370068
224	0x3f9c272e2b4a2b04	0.02749321116656757
225	0x3fbd773c5d345e0d	0.11510064387800174
226	0xbfddc987da1c7f8e	-0.46542545604642604
227	0x3fdb0e9823314cc3	0.42276576458716536
228	0xbfec96c33c5d2b02	-0.893403642557445
229	0x3fe81a962d5d2c41	0.753245438195684
230	0x3fd943c77d954317	0.3947619177243253
231	0x3fc238106a406750	0.14233594120087867
232	0xbfd1e19994e6fc10	-0.27939452687491073
233	0x3fd305d903599fa7	0.2972319157329317
234	0xbfea70065d4899a0	-0.8261749097771833
235	0x3fe060298951dadc	0.5117385561014447
236	0xbff4cca7f58729ed	-1.2999648657738547
237	0x3fe839ac9a8f0b80	0.7570403116918527
238	0x3fd00ba67019f17d	0.25071106860539044
239	0x3fc77c3ece35e365	0.1834791666876995
240	0xbfd8632140d28150	-0.3810504086523183
241	0x3fd16c2ff4da631a	0.2722282305854137
242	0xbfec7124f21ddb9e	-0.8888115624275661
243	0x3fdad66794157045	0.4193362184648815
244	0xbff58e951957ad7a	-1.3473101606312796
245	0x3fe401f5c26f3837	0.6252392575786477
246	0x3fca3094fb079963	0.20460760361965943
247	0x3fc60feacc384e96	0.1723607537429543
248	0xbfd64edbecbb779c	-0.34856317633045264
249	0x3fcd68056e08179b	0.229736975408909
250	0xbfe8a5e67a25126d	-0.770251501621329
251	0x3fd3e653facbadcf	0.31093310825118875
252	0xbff23c2c8f275521	-1.1396909324587983
253	0x3fda690a8bec1b45	0.4126612059048294
254	0x0000000000000000	0.0
255	0x0000000000000000	0.0
