data/QIPEDC/W01776.npy (npy, 190928 bytes, 1 tensors)

array f8 [15, 15, 106]
000000 4f 14 11 6d f5 df e8 3f f3 61 19 90 ef c0 03 40
       0.7773387079438495 2.4692069299455794
000010 54 9d ab 6e a1 6b ef bf cd 70 d7 42 f1 0c fd 3f
       -0.9818885003595974 1.8156597720144874
000020 ca e8 c4 a3 39 db e4 3f e0 be 6d a0 a4 75 f4 3f
       0.6517608831993809 1.2787214533563471
000030 e2 38 f8 b5 fd 34 dc bf 73 57 30 f0 70 a7 f1 3f
       -0.4407343174979258 1.103379190671572
000040 8d 1c 07 c2 18 e2 dc 3f 6e d1 24 aa be 06 d4 3f
       0.4512998480608495 0.3129116689263104
000050 06 d8 e6 44 81 cc 69 3f eb 4f 63 d3 63 4e c6 3f
       0.0031492733753237826 0.17426727124859495
000060 34 df ae 68 2f 92 dc 3f e7 1c 8b c5 d0 06 da bf
       0.44642243597944575 -0.4066659859785901
000070 9d aa 6f 21 73 eb d4 3f 80 a9 34 75 12 b7 dd bf
       0.32687071099523185 -0.4642988342844987
000080 ab 09 2e d1 cc 18 e4 3f c7 7f ef 8b 4d 21 ec bf
       0.6280273519080785 -0.8790652974239429
000090 ca e8 c4 a3 39 db e4 3f 9d e9 5b e6 13 10 ee bf
       0.6517608831993809 -0.939462613983142
0000a0 49 54 e9 23 1d 63 bc 3f 08 08 86 e5 da 7b e2 3f
       0.11088735701317022 0.577619026458934
0000b0 7d e8 d1 68 35 e7 d5 bf 30 bd 0c 6b 8b ad e6 bf
       -0.34223685489963157 -0.7086846438232097
0000c0 87 5d 0a 93 53 54 d5 bf bb 53 4e 08 cc 1d b1 bf
       -0.3332718788091928 -0.06686091616422989
0000d0 c9 96 66 2e 0b 62 66 3f 1c ed b6 1b a3 5f ef bf
       0.002732297743210353 -0.9804244557666695
0000e0 0d 7b b7 a1 06 52 dc bf 6f 11 9b 22 17 33 da bf
       -0.4425064639344079 -0.40936830882517133
0000f0 b0 ce 10 99 e8 f5 bf 3f 6a df ef 2b 04 19 f4 bf
       0.12484601723627509 -1.2561074940003558
000100 57 fb 36 71 1a 66 dd bf 2d ae 2f f2 b9 16 e3 bf
       -0.4593568902600302 -0.5965242128563141
000110 d7 0d f2 eb a8 2e c8 3f 4f 89 90 bf 36 b5 f8 bf
       0.18892394562509082 -1.5442416651718138
000120 27 db 0e 4b 03 67 c1 bf 79 d2 62 be 66 50 f0 3f
       -0.13595620312636322 1.0196292340234818
000130 c1 1e 7f 9d 95 1a e5 bf 33 4a ba 76 9a 4a ea bf
       -0.6594951702217814 -0.8216068571949279
000140 ce eb 9a e9 c0 31 e2 bf 48 26 53 aa 48 9a d4 3f
       -0.5685734331703942 0.32191673882752925
000150 de a8 43 38 b5 6c de 3f 96 11 6d d3 f8 1b fd bf
       0.4753850030380259 -1.8193290957288801
000160 5d 72 e4 76 af cc b2 bf cd 7f fb de d3 99 d8 bf
       -0.07343575146337274 -0.38438889289500083
000170 38 40 a6 7a 10 6d e8 3f cd ff 0b f8 bb c1 eb bf
       0.7633135219093736 -0.8673992008843868
000180 62 9b cc 30 8f 20 8f bf 55 bd f9 14 78 18 e7 bf
       -0.01519882075952034 -0.721736947028982
000190 91 f1 3c 9b 45 0d ed 3f 87 19 0b 6d 13 47 c0 bf
       0.9078701049798373 -0.12716906380064705
0001a0 20 c9 b1 0f db 0e d9 3f 4e 1a f6 22 f1 4f ff 3f
       0.39153172047294227 1.9570170751263904
0001b0 d1 d0 b9 8a ff f3 e3 bf fb 2b bd c6 c0 a4 f8 bf
       -0.6235349378098595 -1.540222908329041
0001c0 c0 e0 e8 4e 09 7f c5 bf 81 26 82 52 78 05 e8 3f
       -0.16793934205066385 0.7506677257053554
0001d0 86 44 51 06 54 0b a0 3f 64 e5 b7 60 11 74 f4 bf
       0.031336427470372505 -1.2783368852672874
0001e0 8e 3f 69 3b 18 d1 c9 bf 71 31 45 8e 4f 63 cf 3f
       -0.20169356251653564 0.24521822401801388
0001f0 4e 2b ba fb 10 b8 d3 3f e6 10 9b 68 b6 d3 c6 bf
       0.3081095178865113 -0.17833595378591055
000200 10 8b 3e 2a d2 9d bf bf 3e dc a6 bf dc 2f 98 3f
       -0.12350190669398509 0.0236200801825499
000210 f7 e3 79 4e 07 e1 dc 3f 7a 81 a0 f7 ff a0 e3 3f
       0.45123465217289954 0.6134033047165268
000220 3d af da d5 56 15 c3 3f f0 bd 03 4c 21 8f 03 40
       0.1490887207231654 2.444887727607913
000230 6f 51 4e 40 a8 3f f1 bf 8b 72 18 2d 38 63 f2 bf
       -1.0780413162184137 -1.1492234956305392
000240 b9 3b fa a2 02 f7 cc bf 97 0d ca 40 9d 31 f4 3f
       -0.22628815610775435 1.2621128588515143
000250 68 8e 7f b1 6f 5f e0 bf a2 a5 85 46 aa 0f f0 bf
       -0.511649939228346 -1.0038244967239298
000260 aa 97 f4 f9 c2 22 c7 bf d9 fc 15 5f f8 cb e9 3f
       -0.18074834065299444 0.806148706164005
000270 ee b7 ed f2 fd 2c c8 bf 60 04 a5 59 4c 4f c6 bf
       -0.18887304651019526 -0.17429499032189977
000280 35 1f 25 60 41 5e bb bf 40 97 9e e6 ea ab e3 3f
       -0.10690697285928936 0.6147360328948039
000290 05 21 46 6f c9 6b 94 3f 30 b6 61 14 ae d8 e0 3f
       0.019942424217817684 0.5264501951293763
0002a0 75 ba 28 18 1b 66 b0 3f 27 ff 4f cf 34 8e d9 3f
       0.0640580114347616 0.3993045830284125
0002b0 14 22 84 15 75 5e ad bf 22 a2 c2 d0 f2 3b dc 3f
       -0.057361277462465804 0.44115896593806003
0002c0 a1 b7 50 e9 7f b5 8c bf dc 6a 5e b4 1c f2 e9 bf
       -0.014018058116643863 -0.8108047030285337
0002d0 18 3f b0 1f cc ee bd 3f 57 5f 23 c7 ba 32 f0 bf
       0.11692500852245435 -1.0123851565203574
0002e0 ad 19 e9 bb ab c2 bd bf 99 f0 9f 66 57 74 f0 bf
       -0.11625169122371544 -1.0284036644725687
0002f0 fd 23 34 fb 7f 88 b6 3f 48 18 89 be 1f 82 e3 bf
       0.08802032359029961 -0.609634277476979
000300 0f 97 52 35 61 a7 b6 bf 34 ce 8e 6e f9 06 e4 bf
       -0.08849151183912006 -0.6258513602574056
000310 75 b3 e4 6a 22 27 e1 3f 18 15 49 83 2d b0 d2 3f
       0.5360271537552835 0.29200303860518906
000320 63 fb ae 07 7a 8a de bf 2f a3 6c c5 90 34 d1 3f
       -0.47720194578498915 0.2688333442661585
000330 96 5c ec 52 7e ac e2 3f a7 22 c5 14 18 d4 fb 3f
       0.5835563296885933 1.7392807780580968
000340 e2 65 89 9f 35 1d e4 bf e3 e7 8b 77 65 97 fc 3f
       -0.6285656085921654 1.7869620008264
000350 37 01 ff 92 c4 e1 f0 3f df d2 15 f7 e4 d2 00 40
       1.0551191083942066 2.1029757789168424
000360 a2 dd b3 24 a8 28 f0 3f 90 27 91 41 bd 25 e7 3f
       1.0099259790129982 0.7233568459134734
000370 12 9d 57 24 50 d2 ea 3f ae 42 f2 93 2f d4 db bf
       0.8381729802903541 -0.4348257965839747
000380 98 4a 03 71 e8 8d e6 3f 83 c8 4a 73 d1 2f f5 bf
       0.7048227507860529 -1.3241743568037527
000390 71 6d 44 6b f5 d8 e7 3f 4a 44 91 89 8e e2 ff bf
       0.7452342124046664 -1.99281171548161
0003a0 10 34 95 74 67 2b e0 3f f9 6a 83 73 e3 7d d0 bf
       0.5052983548172296 -0.25768362312889753
0003b0 8f 74 d4 c6 34 ff d0 bf cd db 73 68 c7 8d f0 bf
       -0.26557654778464096 -1.0346139984301204
0003c0 f1 ab ce 43 f7 7c d3 bf bb 12 15 dd fe 03 f1 bf
       -0.30450231191451765 -1.063475478747178
0003d0 8c 90 d3 50 6b 6f cb bf 2b d2 a1 6f 9a da ed bf
       -0.21433774420359375 -0.9329349689783774
0003e0 43 2c 28 b6 3d f6 cb 3f 93 cb c3 af e4 84 da 3f
       0.21845218080884096 0.41436116375478454
0003f0 14 80 f3 1d e3 74 e1 bf 41 36 fc a9 68 96 e0 bf
       -0.5455184540733193 -0.5183604545615667
000400 5d 15 0e 53 3b 93 db bf 0b 1a a2 f8 46 93 e1 bf
       -0.430861312015926 -0.5492281776540165
000410 fc 93 c0 09 26 e3 ca bf a2 03 e6 25 b0 55 d5 bf
       -0.21005702472862697 -0.3333549852468939
000420 19 87 54 ca 9f ce 9c bf c1 d1 07 96 a1 ca f0 3f
       -0.028131958698515456 1.0494705067222727
000430 4d 52 ca e4 8f ee e4 bf ef 40 b1 29 3f 30 b2 3f
       -0.6541213482437996 0.07104868667488849
000440 ea a9 35 27 12 b8 df bf e2 51 3a 33 6e 7b ae 3f
       -0.49560979680123174 0.05953544974650861
000450 5a 37 98 5a d3 52 d2 bf 5e 01 18 3e 1f f6 d2 3f
       -0.2863052735054815 0.2962720972427827
000460 7d f9 dd ae f4 e5 cc bf 64 24 04 e6 0f b0 f9 3f
       -0.22576769388610876 1.605483911991791
000470 52 a8 16 14 56 04 e4 bf 32 58 f2 ff a6 f3 e5 3f
       -0.6255293266633635 0.6859927176435632
000480 6a 40 8f 19 3b 6a de bf 10 fb 30 89 84 00 e4 3f
       -0.4752338170628777 0.6250631980436498
000490 cf fe 32 7c b5 30 d4 bf a3 8b 3c cf 57 da e9 3f
       -0.3154729569323366 0.8079031989658357
0004a0 00 00 00 00 00 00 00 00 00 00 00 00 00 00 00 00
       0.0 0.0
0004b0 00 00 00 00 00 00 00 00 00 00 00 00 00 00 00 00
       0.0 0.0
0004c0 00 00 00 00 00 00 00 00 00 00 00 00 00 00 00 00
       0.0 0.0
0004d0 00 00 00 00 00 00 00 00 00 00 00 00 00 00 00 00
       0.0 0.0
0004e0 00 00 00 00 00 00 00 00 00 00 00 00 00 00 00 00
       0.0 0.0
0004f0 00 00 00 00 00 00 00 00 00 00 00 00 00 00 00 00
       0.0 0.0
000500 00 00 00 00 00 00 00 00 00 00 00 00 00 00 00 00
       0.0 0.0
000510 00 00 00 00 00 00 00 00 00 00 00 00 00 00 00 00
       0.0 0.0
000520 00 00 00 00 00 00 00 00 00 00 00 00 00 00 00 00
       0.0 0.0
000530 00 00 00 00 00 00 00 00 00 00 00 00 00 00 00 00
       0.0 0.0
000540 00 00 00 00 00 00 00 00 00 00 00 00 00 00 00 00
       0.0 0.0
000550 00 00 00 00 00 00 00 00 00 00 00 00 00 00 00 00
       0.0 0.0
000560 00 00 00 00 00 00 00 00 00 00 00 00 00 00 00 00
       0.0 0.0
000570 00 00 00 00 00 00 00 00 00 00 00 00 00 00 00 00
       0.0 0.0
000580 00 00 00 00 00 00 00 00 00 00 00 00 00 00 00 00
       0.0 0.0
000590 00 00 00 00 00 00 00 00 00 00 00 00 00 00 00 00
       0.0 0.0
0005a0 00 00 00 00 00 00 00 00 00 00 00 00 00 00 00 00
       0.0 0.0
0005b0 00 00 00 00 00 00 00 00 00 00 00 00 00 00 00 00
       0.0 0.0
0005c0 00 00 00 00 00 00 00 00 00 00 00 00 00 00 00 00
       0.0 0.0
0005d0 00 00 00 00 00 00 00 00 00 00 00 00 00 00 00 00
       0.0 0.0
0005e0 00 00 00 00 00 00 00 00 00 00 00 00 00 00 00 00
       0.0 0.0
0005f0 ba fe 1c 04 22 7d 63 bf 80 29 9d b0 24 92 da 3f
       -0.002379003942138383 0.4151698803658732
000600 ee 21 73 7e d6 f1 0b c0 98 cd ba a4 9c 1d 0b c0
       -3.493084895981375 -3.3894589299686224
000610 88 d3 6f 5c 51 da 8e bf 08 44 9a 9a cb 12 ea bf
       -0.015064845689247056 -0.8147943515378993
000620 54 c9 d9 5f 8a d7 bd 3f da 71 03 30 ff 47 f0 bf
       0.11657013740640326 -1.0175773501897454
000630 73 88 40 be 4d 65 be bf e7 11 32 f3 82 76 f0 bf
       -0.11873327154947493 -1.0289334773852887
000640 3d dc a2 f4 16 24 b6 3f 9f 02 19 2c e8 62 e3 bf
       0.0864881846672327 -0.6058235989840631
000650 2d 83 51 1b 7f f4 b6 bf 70 c2 3e ae b7 d2 e3 bf
       -0.08966822068169895 -0.6194723513818428
000660 b6 60 8a e6 5b 89 e1 3f 27 41 6e 4f 5e f6 d2 3f
       0.5480174544091116 0.2962871337595225
000670 2a da 6f f5 61 65 de bf 5f 33 60 8e fb 58 d1 3f
       -0.4749379059643696 0.2710560694111361
000680 83 33 8a 50 1f 4e e2 3f f1 a0 54 cd 99 d1 fb 3f
       0.5720364163440624 1.7386720677114307
000690 1b 3b 48 86 9b fd e3 bf 33 4a e6 98 47 7d fc 3f
       -0.6247079489420203 1.7805858585967484
0006a0 a3 ed 97 86 3f ee ec 3f 5c 0b 17 f2 03 19 00 40
       0.9040830258158404 2.0122145570070824
0006b0 2e 6f a9 43 cc ac ee 3f d5 b0 d7 a2 48 fd e7 3f
       0.9585934945602952 0.7496684246557616
0006c0 d8 05 a7 b0 b9 eb ea 3f 97 2a 04 b0 62 45 d7 bf
       0.8412750673525649 -0.36360995472993224
0006d0 c3 39 14 f7 43 2f e6 3f 50 0f b4 49 45 f2 f3 bf
       0.6932697129976123 -1.246648109344239
0006e0 da db e2 c3 24 6e e5 3f 0b 9f 29 3a e6 5b fe bf
       0.6696952653791144 -1.8974363586402798
0006f0 11 e0 06 06 93 b0 e0 3f b6 cb 54 fa 5b f3 b9 bf
       0.5215544812881509 -0.10136961804964426
000700 42 b3 23 a9 44 b5 d0 bf 3c 35 5f b2 83 53 ef bf
       -0.2610637332680207 -0.9789446338487902
000710 c2 43 40 52 d5 7f cb bf db 92 32 8a 8e 3c f2 bf
       -0.21483866230167165 -1.1397843740789344
000720 cd 5d 39 2e 7b cb af bf 1d 93 f4 47 c5 11 f1 bf
       -0.06209931315668946 -1.066838532519973
000730 7f 36 15 73 97 a6 cc 3f 04 45 6c ad 31 3b e2 3f
       0.2238339721611062 0.5697258364836277
000740 6c d9 05 7e 9b 0c e1 bf bd 66 16 3c f1 c5 dd bf
       -0.5327889882453696 -0.4652064406196635
000750 d1 41 1e d1 45 02 dc bf de fd 3a e5 e4 d1 e4 bf
       -0.4376387159509508 -0.6506218411595304
000760 77 9a a7 01 3f 72 d0 bf 17 df 28 50 8e 52 e1 bf
       -0.2569730297240435 -0.5413276258104557
000770 d4 3a bd bf 91 8c a6 bf 1f 06 0d 85 df bf f2 3f
       -0.044041208892499434 1.1718440244006911
000780 48 d6 73 4d 37 01 e4 bf c4 a3 9c 52 98 0d b6 3f
       -0.625148440622703 0.08614494339839412
000790 e7 a9 9a 32 51 fe dd bf af 8a 7e cb 1e 1a 29 bf
       -0.46864728872119915 -0.0001915133086614804
0007a0 70 ac 79 99 8d fc d1 bf 47 9d 4d 79 0a 03 c9 3f
       -0.28103961932965316 0.19540530131346598
0007b0 b3 0c a1 5d ec f6 d0 bf 76 c9 5f 15 12 9b fa 3f
       -0.26507100242106246 1.6628590426376753
0007c0 cd 77 e7 e9 f1 7c e3 bf 1f 22 b9 0c 9e 81 e6 3f
       -0.6090020721855979 0.7033224342822598
0007d0 7e 27 7c ec d3 e7 dc bf c1 f4 0f 33 41 67 e2 3f
       -0.45164964765773863 0.5751043317137815
0007e0 4e ec 9a ed ef 58 d3 bf 15 80 27 75 da 38 e7 3f
       -0.3023032970774623 0.7256901062173734
0007f0 00 00 00 00 00 00 00 00 00 00 00 00 00 00 00 00
       0.0 0.0
