data/QIPEDC/W02057.npy (npy, 267248 bytes, 1 tensors)

array f8 [21, 15, 106]
00000000: 0000 0000 0000 0000 0000 0000 0000 0000
00000010: 0000 0000 0000 0000 0000 0000 0000 0000
00000020: 0000 0000 0000 0000 0000 0000 0000 0000
00000030: 0000 0000 0000 0000 0000 0000 0000 0000
00000040: 0000 0000 0000 0000 0000 0000 0000 0000
00000050: 0000 0000 0000 0000 0000 0000 0000 0000
00000060: 0000 0000 0000 0000 0000 0000 0000 0000
00000070: 0000 0000 0000 0000 0000 0000 0000 0000
00000080: 0000 0000 0000 0000 0000 0000 0000 0000
00000090: 0000 0000 0000 0000 0000 0000 0000 0000
000000a0: 0000 0000 0000 0000 0000 0000 0000 0000
000000b0: 0000 0000 0000 0000 0000 0000 0000 0000
000000c0: 0000 0000 0000 0000 0000 0000 0000 0000
000000d0: 0000 0000 0000 0000 0000 0000 0000 0000
000000e0: 0000 0000 0000 0000 0000 0000 0000 0000
000000f0: 0000 0000 0000 0000 0000 0000 0000 0000
00000100: 0000 0000 0000 0000 0000 0000 0000 0000
00000110: 0000 0000 0000 0000 0000 0000 0000 0000
00000120: 0000 0000 0000 0000 0000 0000 0000 0000
00000130: 0000 0000 0000 0000 0000 0000 0000 0000
00000140: 0000 0000 0000 0000 0000 0000 0000 0000
00000150: ce03 bde2 e33e e0bf db98 48b5 0621 fb3f
00000160: 3809 64c6 54e7 b4bf 2aef 260a 457d f93f
00000170: ae9a 6ba4 1573 db3f 0058 715b 3421 f13f
00000180: 7f4c 7016 f537 ea3f d528 8b2a 0df0 e93f
00000190: 2b95 9880 272c f23f 874b a9ad 2a7a e53f
000001a0: 3071 1264 6631 c73f ae02 c691 2b23 d7bf
000001b0: 92f3 6b68 ac17 d83f 6b09 f863 10c7 f6bf
000001c0: 135b bd41 716c df3f 88d2 f960 5f79 00c0
000001d0: 8083 7396 2d42 e23f 5a50 8013 6be2 04c0
000001e0: a327 3074 7df2 c2bf 7677 d6ea 98d8 dbbf
000001f0: 2941 8224 c5a5 ba3f 1bdc a238 08a8 e6bf
00000200: 4354 b3b5 3acb bd3f 9154 b04d b76f c73f
00000210: 3c56 26fa c9bd a73f 5dd0 e249 02e9 e63f
00000220: 6083 9982 37fe debf 2e3f 8591 5ddc d5bf
00000230: 48ec 3b12 7336 cdbf a3f3 079d d50e e0bf
00000240: 840e b722 5e63 c8bf 5079 8f83 e6d9 d33f
00000250: 2c28 dea0 7c66 d0bf 37eb 2032 5e6c e83f
00000260: dd49 bbbd a0b8 eabf 7258 1d7d 5150 c1bf
00000270: c6b7 59ea b644 e2bf 24c0 3b7d 62bd d1bf
00000280: c332 2b60 f62f debf 9c9f c165 9983 d53f
00000290: 46c9 28f3 a4bb dfbf faef 6ac2 b889 e63f
000002a0: 3bb9 cbe4 d592 0bc0 5140 abb5 d4ca 08c0
000002b0: 4314 1ce2 dc72 c9bf b149 24e1 0a49 e7bf
000002c0: e505 818f 13a6 9bbf c2c6 e2bc db48 e9bf
000002d0: 2f40 e061 2aac c03f b77d 661b ba96 efbf
000002e0: bab9 5dd9 0b57 bebf 4d30 999f e2e3 efbf
000002f0: 4990 5de2 c68c b63f d26d f85c 428d e0bf
00000300: 2a0b 890f 9c75 babf 57e4 ef5e 51bc e1bf
00000310: 78de 0aea cdce e53f fece 7326 0ab8 dd3f
00000320: 0584 35f9 bd31 ddbf 7a1c f4a6 64e5 d23f
00000330: b133 8388 d1d4 eb3f d97f d6ab 1daf 0140
00000340: bd18 8f28 4f08 f1bf c6d1 bc1d de01 ec3f
00000350: 0000 0000 0000 0000 0000 0000 0000 0000
00000360: 0000 0000 0000 0000 0000 0000 0000 0000
00000370: 0000 0000 0000 0000 0000 0000 0000 0000
00000380: 0000 0000 0000 0000 0000 0000 0000 0000
00000390: 0000 0000 0000 0000 0000 0000 0000 0000
000003a0: 0000 0000 0000 0000 0000 0000 0000 0000
000003b0: 0000 0000 0000 0000 0000 0000 0000 0000
000003c0: 0000 0000 0000 0000 0000 0000 0000 0000
000003d0: 0000 0000 0000 0000 0000 0000 0000 0000
000003e0: 0000 0000 0000 0000 0000 0000 0000 0000
000003f0: 0000 0000 0000 0000 0000 0000 0000 0000
00000400: 0000 0000 0000 0000 0000 0000 0000 0000
00000410: 0000 0000 0000 0000 0000 0000 0000 0000
00000420: 0000 0000 0000 0000 0000 0000 0000 0000
00000430: 0000 0000 0000 0000 0000 0000 0000 0000
00000440: 0000 0000 0000 0000 0000 0000 0000 0000
00000450: 0000 0000 0000 0000 0000 0000 0000 0000
00000460: 0000 0000 0000 0000 0000 0000 0000 0000
00000470: 0000 0000 0000 0000 0000 0000 0000 0000
00000480: 0000 0000 0000 0000 0000 0000 0000 0000
00000490: 0000 0000 0000 0000 0000 0000 0000 0000
000004a0: 9e80 d84d 4ccf e7bf f096 29e4 a92f 0240
000004b0: ae98 a5ff 1d1e c0bf dde1 1ed8 fb68 fc3f
000004c0: 8410 ae48 b682 dc3f fd85 ebea d6e5 f23f
000004d0: 92ed 04d9 964b ed3f 1509 f61f 68f9 ec3f
000004e0: 4a00 3300 e066 f43f f754 6c24 45b0 e63f
000004f0: cae6 da18 e0da c03f 546f 2df7 aecf c8bf
00000500: 7521 7dd4 9a2d d53f 2b83 6c1c e39c f1bf
00000510: 4106 ae96 570c df3f a321 7a1e e35f fbbf
00000520: 0a0d 6bf5 f241 e33f 775f ebee ac40 02c0
00000530: ea25 6ea7 b8cf c4bf f802 d180 02d7 d2bf
00000540: 268f cc00 e54a c13f 3b18 6c77 0a57 efbf
00000550: c8a8 ec5a 1ba1 c63f e53b 7eb3 58c4 c0bf
00000560: e10a cf0a 0310 b83f 09a7 108f f8a4 e03f
00000570: 6617 1b0c af55 dfbf bd95 1d5f 06b7 cfbf
00000580: 6e6b e315 ab04 cabf 3661 781f ccae ebbf
00000590: da20 b164 7119 c4bf ec02 61c3 2adf 7a3f
000005a0: 0b0a e59d 4241 cebf fab8 2b87 191d e43f
000005b0: ad28 81b4 a4fc ebbf 2795 b1ea 9218 b7bf
000005c0: 1199 5449 43a4 e3bf 942f c452 b6de e3bf
000005d0: 779b 9cf3 1b04 dfbf 25b7 e97f 1bae 6abf
000005e0: df1d a8d7 def9 dfbf 6db3 f38f 079f e03f
000005f0: 9cd9 a212 af2b 0cc0 9c76 26f4 0f1e 09c0
00000600: 545a c630 e81e c7bf c32a 7d85 a067 f0bf
00000610: 89d5 ccc9 e1a7 94bf e25f 8b18 011a e9bf
00000620: 549e af26 8a67 c03f 4212 e84f 8f7e efbf
00000630: 3896 fe7f 5c10 c0bf 840e a391 fdcb efbf
00000640: 2b78 065f c892 b83f 5896 448a 0667 e0bf
00000650: ea55 1c7c b837 babf b918 eb2f de66 e1bf
00000660: 129e 14d1 131b e63f 22a9 4894 0813 e03f
00000670: 294f fc31 82c1 ddbf 2571 03d9 8c63 d43f
00000680: 617f 8a65 bc04 ec3f 57e4 58c4 7b0f 0240
00000690: c30a aeba 7e3d f1bf b03c 18a2 b4af e73f
000006a0: 0000 0000 0000 0000 0000 0000 0000 0000
000006b0: 0000 0000 0000 0000 0000 0000 0000 0000
000006c0: 0000 0000 0000 0000 0000 0000 0000 0000
000006d0: 0000 0000 0000 0000 0000 0000 0000 0000
000006e0: 0000 0000 0000 0000 0000 0000 0000 0000
000006f0: 0000 0000 0000 0000 0000 0000 0000 0000
00000700: 0000 0000 0000 0000 0000 0000 0000 0000
00000710: 0000 0000 0000 0000 0000 0000 0000 0000
00000720: 0000 0000 0000 0000 0000 0000 0000 0000
00000730: 0000 0000 0000 0000 0000 0000 0000 0000
00000740: 0000 0000 0000 0000 0000 0000 0000 0000
00000750: 0000 0000 0000 0000 0000 0000 0000 0000
00000760: 0000 0000 0000 0000 0000 0000 0000 0000
00000770: 0000 0000 0000 0000 0000 0000 0000 0000
00000780: 0000 0000 0000 0000 0000 0000 0000 0000
00000790: 0000 0000 0000 0000 0000 0000 0000 0000
000007a0: 0000 0000 0000 0000 0000 0000 0000 0000
000007b0: 0000 0000 0000 0000 0000 0000 0000 0000
000007c0: 0000 0000 0000 0000 0000 0000 0000 0000
000007d0: 0000 0000 0000 0000 0000 0000 0000 0000
000007e0: 0000 0000 0000 0000 0000 0000 0000 0000
000007f0: 5ade baea 68f5 e8bf e614 b917 7c96 0340
0.0 0.0 0.0 0.0 0.0 0.0 0.0 0.0
0.0 0.0 0.0 0.0 0.0 0.0 0.0 0.0
0.0 0.0 0.0 0.0 0.0 0.0 0.0 0.0
0.0 0.0 0.0 0.0 0.0 0.0 0.0 0.0
0.0 0.0 0.0 0.0 0.0 0.0 0.0 0.0
0.0 0.0 -0.50767702374298 1.6955630380048692 -0.0816548332550483 1.5930834194723027 0.42889920288727523 1.070606572340239
0.8193307340865345 0.8105531531266715 1.1357798598558684 0.6711629287550388 0.18119506727533397 -0.36152161822978257 0.3764449138396283 -1.4235996155772124
0.49099379939927806 -2.059263951896643 0.5705783785343641 -2.6105557940991675 -0.1480252091717463 -0.435095052083731 0.10409195081070223 -0.7080117326903549
0.11638228355452988 0.18309680264852493 0.046369849954470216 0.7159434741102008 -0.484266164339763 -0.3415750428293788 -0.22822416677795077 -0.501810843182842
-0.19053246207305474 0.31017458770465556 -0.2562552996611227 0.7632285098146444 -0.8350375848479491 -0.13526362046349366 -0.5708880021245413 -0.277184126184695
-0.4716773928783306 0.33615717827933067 -0.4958279013254877 0.7043117329808404 -3.446697032420301 -3.0990385239493112 -0.19881783524047777 -0.7276663205432695
-0.027000718721188383 -0.79014384166495 0.13025407580471568 -0.9871492896235655 -0.11851572090902254 -0.9965680234104269 0.0880855848932366 -0.5172435584858539
-0.10335708026199755 -0.5542380193939022 0.6814946719304791 0.46435788874735795 -0.45616101586171026 0.29525104812677905 0.8697288194904244 2.210505812152388
-1.0645286163649381 0.8752279835521726 0.0 0.0 0.0 0.0 0.0 0.0
0.0 0.0 0.0 0.0 0.0 0.0 0.0 0.0
0.0 0.0 0.0 0.0 0.0 0.0 0.0 0.0
0.0 0.0 0.0 0.0 0.0 0.0 0.0 0.0
0.0 0.0 0.0 0.0 0.0 0.0 0.0 0.0
0.0 0.0 0.0 0.0 -0.7440549393104623 2.273273260611738 -0.12591910345799334 1.7756308023655187
0.44547803018236487 1.1811131645739572 0.9154772032410838 0.9054451584090965 1.275115967539039 0.7090173446073597 0.13167954648615982 -0.19383799618924036
0.33090849638804026 -1.1008025274570155 0.4851283046228652 -1.7109099569807789 0.6018004220317448 -2.281579844053279 -0.16258915114694555 -0.2943731554005775
0.1350981000806481 -0.9793751080003469 0.1767915910689395 -0.13099201931296914 0.09399432195554482 0.5201380533446535 -0.4896047228070216 -0.24777297634424925
-0.20326746529357415 -0.8650875677731509 -0.15702645699116752 0.006560484927889059 -0.2363665839166774 0.6285522117666738 -0.8745902562598268 -0.09021871785951828
-0.6138016159282264 -0.6209365479021351 -0.48462580480775536 -0.0032568490126355814 -0.499625883676769 0.519412785679021 -3.521330018610753 -3.1396788667905877
-0.1806307066114693 -1.0252995695506548 -0.02017166895094172 -0.784424350679725 0.12815977944341006 -0.9841991959261309 -0.12549930810671284 -0.9936511845084657
0.09598972625687512 -0.512576360754518 -0.10241272954984706 -0.5438071189789958 0.6908053477863538 0.5023234268349237 -0.46493582612423495 0.3185760611793447
0.8755781157706047 2.2575602855327292 -1.0775134365255077 0.7401984373008386 0.0 0.0 0.0 0.0
0.0 0.0 0.0 0.0 0.0 0.0 0.0 0.0
0.0 0.0 0.0 0.0 0.0 0.0 0.0 0.0
0.0 0.0 0.0 0.0 0.0 0.0 0.0 0.0
0.0 0.0 0.0 0.0 0.0 0.0 0.0 0.0
0.0 0.0 0.0 0.0 0.0 0.0 -0.7799572548455658 2.448478875480407
