data/QIPEDC/W02037.npy (npy, 229088 bytes, 1 tensors)

array f8 [18, 15, 106]
000000 c3 f6 32 3a c3 7c e3 3f da 1b d7 ee 37 4d e5 3f
       0.6089798104000795 0.6656760849808692
000010 d4 f4 a3 5f 24 14 e4 bf c1 f1 51 77 b3 a4 eb bf
       -0.627458750531924 -0.8638551073523147
000020 73 2c e3 2a da 0b d2 3f de 2f 4c b6 f9 83 ed 3f
       0.2819734019109951 0.922360282945643
000030 ee b8 9b 7c fe 2e dc bf ed a4 30 87 20 0c f2 bf
       -0.4403682915571058 -1.1279607087001822
000040 2a f0 e9 57 8e 2e 8d 3f 9f 86 50 3b 7b 40 f0 3f
       0.014248954828183075 1.0157425229048511
000050 29 e2 ce fd 10 ff c7 bf 24 2c 59 4e 70 02 f4 bf
       -0.18747150795913228 -1.2505953846437103
000060 b3 65 9f eb ba 3b c4 bf 47 1d 0a 62 db 12 f1 3f
       -0.1580728197575759 1.0671037511509256
000070 80 79 bd 0f 9c 77 87 3f 1c dd 6a 5c 90 e9 f4 bf
       0.011458605985976034 -1.3070224390083416
000080 35 1c 9c 2a 92 18 d0 bf a3 81 82 5c e4 8a f1 3f
       -0.2514996925460225 1.096409188619966
000090 49 aa e1 4d 6d d7 c5 3f 9e 5c ac 33 9d 0a f6 bf
       0.17063680937583772 -1.377591325615675
0000a0 3d 43 21 20 74 1b 7d bf 85 20 19 4a ff 99 e7 3f
       -0.00710625993276964 0.737548489306406
0000b0 96 f8 27 81 e5 8a ae bf 32 71 ee ca 70 ca f1 bf
       -0.05965344621289252 -1.111923973751868
0000c0 8b c3 38 53 47 81 c4 bf 9b 43 87 24 d8 de ea 3f
       -0.16019527019082277 0.839702674240573
0000d0 f6 2c 53 44 5d 6c cc 3f 57 23 0a c6 54 8f eb bf
       0.22205701671769135 -0.8612464778862926
0000e0 25 11 79 a0 31 69 c5 bf 55 cc 69 55 57 88 f0 3f
       -0.1672727616843385 1.0332864128547687
0000f0 5a 62 4d 08 10 75 d7 3f df ab 0f 0d f8 d5 e5 bf
       0.36651993571061825 -0.6823692565061455
000100 60 dc 83 24 cd c9 ba bf 96 4f aa e5 46 25 f2 3f
       -0.10464174405557136 1.1341008158969763
000110 7d 45 a7 ed e5 ce dd 3f d3 44 e0 bc 43 9c e0 bf
       0.4657530613740944 -0.5190752686486583
000120 cc f4 94 65 f6 58 bb 3f 62 e8 85 42 cc b3 e5 3f
       0.10682620983148466 0.6781979846266604
000130 9f 0e 56 44 fb 04 bb bf 8f 1a 06 e3 c5 16 ed bf
       -0.10554476183284088 -0.9090299066600255
000140 9b 61 12 4f da 54 95 3f 18 fd 44 8b e0 41 ea 3f
       0.020831500126037388 0.8205416412455717
000150 8e 17 73 da a5 89 be 3f 11 d8 52 69 44 81 f2 bf
       0.11928783972970633 -1.156559382839536
000160 2b 68 3a 84 51 ab ba bf dd d4 ad be de 35 f2 3f
       -0.10417661169268004 1.13815187915798
000170 0e f4 a4 5f 06 1c c9 3f 5d 7b 5a d7 cd 68 e8 bf
       0.19616775198110797 -0.7627934652444811
000180 ce 24 af d1 aa d3 a3 bf 31 dd b4 03 7f a5 f3 3f
       -0.038724268051348085 1.2279043335709725
000190 30 6e 47 82 8e 66 cc 3f f5 f4 15 bf c2 34 e0 bf
       0.22187978135376474 -0.5064405185836721
0001a0 9f df 6d 3e f8 72 d0 3f 83 8e 32 df 88 f5 e2 3f
       0.25701719376183435 0.5924724921537322
0001b0 6d b1 74 28 f8 51 d9 bf b4 8b 6d ac bb 43 f6 bf
       -0.3956280131412971 -1.3915364013161993
0001c0 90 d9 e8 38 77 2a c6 3f 20 78 19 d8 17 2c ea 3f
       0.17317095068729005 0.817882463521304
0001d0 60 7b ef 91 78 fa b2 bf f4 32 c6 11 91 e5 eb bf
       -0.07413438380124893 -0.8717732760574948
0001e0 3c fc 8e e6 7a 2c c2 3f c4 af 53 ee 12 18 f2 3f
       0.14198242433301 1.1308774289745864
0001f0 aa 89 bc 41 1d d2 cb bf 28 79 01 e3 4c 36 eb bf
       -0.21734967908657882 -0.8503784593301917
000200 7a c3 d2 be 39 36 c6 3f 18 3e 9b b6 c2 94 f3 3f
       0.1735298330072757 1.2238185055792936
000210 1b 29 73 c9 ba 38 d7 bf 55 4c 1b 6e d6 d8 ee bf
       -0.3628375022205021 -0.9639694357414422
000220 90 20 c4 66 01 34 e0 3f 18 50 98 da 18 83 e4 3f
       0.5063483245039766 0.6410030621941614
000230 cf 55 87 17 f1 2c e1 bf 24 28 bf 52 13 35 f1 bf
       -0.5367360553306585 -1.0754578811925137
000240 a5 39 04 8b c8 08 dd 3f 16 f9 01 eb b3 99 eb 3f
       0.4536610944350293 0.8625125493997838
000250 b5 e5 14 ba 39 d8 d3 bf 69 93 22 a5 28 83 e6 bf
       -0.3100723569110316 -0.70351059201185
000260 07 aa cf bb bc 87 d8 3f fe 80 e4 6d f9 7f f1 3f
       0.3832847436994204 1.0937437336615967
000270 de 9f 75 6f 7d c2 da bf 81 7b 9b 2f 86 ba e7 bf
       -0.41812072643960885 -0.7415190629798049
000280 e3 89 4f b5 dc c3 d7 3f f5 03 57 d5 d3 d0 f2 3f
       0.37132947641489816 1.1759832700338368
000290 7f 12 d9 09 b2 46 e1 bf 6e 09 f0 32 54 2c ec bf
       -0.539879817232375 -0.8804112429500444
0002a0 eb b9 f6 d9 19 aa db 3f b7 c9 ad bf 54 9a f1 3f
       0.43225714002156107 1.1001784789519726
0002b0 1c ef c0 78 bb 1f df 3f 1e b8 54 29 f2 43 f4 3f
       0.4863117865786408 1.2665883650292993
0002c0 34 73 5b 80 fe 05 a0 3f f2 b7 20 62 10 c2 e9 bf
       0.03129573170529057 -0.8049394527968146
0002d0 4f c4 80 39 50 74 c5 3f 20 19 72 61 0b 05 f0 bf
       0.16761210258258294 -1.001231556555986
0002e0 f6 c4 6f 84 d8 14 c0 bf 2e 7f 14 72 1e af f0 bf
       -0.1256361624396402 -1.0427536445858538
0002f0 99 95 6a 99 d5 05 c0 3f 4b e5 13 2a 9e 7d df bf
       0.1251780509093521 -0.4920421038546762
000300 35 7f 1e 7f 18 5c b6 bf 12 be f7 8a 40 44 df bf
       -0.08734276870245312 -0.4885407788378596
000310 9c 47 b6 ad 63 a1 e3 3f 8a fb a8 79 ff 00 d6 3f
       0.6134508507550325 0.34381091004245745
000320 4d 8e 00 2c 1e 12 e6 bf 7c c2 20 12 f5 7a d5 3f
       -0.6897116527001771 0.33562971849736534
000330 f8 96 bc 14 78 f1 ec 3f 9b 5c 51 ef 97 cc f5 3f
       0.9044762043965582 1.3624495838501278
000340 cc 1c 33 c2 ed 0e ee bf fe 10 96 9f 14 9a fc 3f
       -0.9393223565065454 1.7876173242412388
000350 ec 92 e0 ac e7 0f db 3f 55 0d 53 f3 43 a8 ec 3f
       0.42284576304000043 0.8955402138166543
000360 de 0e 52 c1 47 c8 e1 bf f1 e1 0b 8b 46 fe ec bf
       -0.5556982780257973 -0.9060394969702071
000370 4d 08 fd e5 28 e9 bc 3f a3 b6 ac 9d d9 e8 f2 3f
       0.11293273558570256 1.1818481597105481
000380 7d 21 66 c5 d9 31 d7 bf a8 f5 d2 2e 16 9c f2 bf
       -0.362417643330012 -1.1631070927681808
000390 e5 3e 36 4a ba 1f be bf 0d 01 7c 7b de e9 f2 3f
       -0.11767162620366951 1.1820969413384461
0003a0 6a 76 99 ad 5d 3f bc bf 96 a5 2d 8d 1b 4d f4 bf
       -0.11034188736217634 -1.2688251032617237
0003b0 f6 6b c0 04 75 e7 d0 bf a9 c3 7e 7a b0 20 f2 3f
       -0.26412702049282133 1.1329808030097672
0003c0 ee b8 28 45 3b d3 b9 3f 80 b4 05 6c b5 4f f5 bf
       0.10087938726858045 -1.3319601268406416
0003d0 10 3b ac 1d 89 9f d0 bf 2b fd 08 a6 22 85 ee 3f
       -0.25973728082401326 0.9537518732903768
0003e0 47 1b cf fb a3 6c d1 3f 6c 99 cb d0 f6 15 f6 bf
       0.27225589361880903 -1.3803623348299778
0003f0 6b 24 33 06 d1 9c bd bf 2c d0 5a 59 dd a1 e9 3f
       -0.11567407990800553 0.801008867760634
000400 25 7b f7 a6 5a 3d a0 3f 27 44 a5 36 36 5d f2 bf
       0.03171809471290591 -1.147756780108702
000410 e2 66 72 70 c9 49 c4 bf 69 8c 7a 51 59 3f e8 3f
       -0.1585017966324847 0.7577330199604947
000420 49 f7 9b aa 9b 3d d4 3f d3 de bc a5 af 47 ea bf
       0.3162602583032493 -0.8212507474008482
000430 ad 73 a0 a4 65 1b c4 bf dc ab 4a 25 52 af e9 3f
       -0.15708609140793098 0.8026514747956486
000440 51 41 cd ef 7b 42 dc 3f 0a 4c b5 3d 88 be e3 bf
       0.4415578691305387 -0.6170083241689792
000450 47 9c 4e b3 b2 85 c1 bf a5 0f 92 fe da 71 ea 3f
       -0.13689264064052706 0.8263983699875906
000460 31 06 55 3e 08 a3 e0 3f 97 89 a8 cc 69 f4 dc bf
       0.5199013917373972 -0.4524178026787466
000470 3b 09 4c 20 f1 68 9c 3f 6a 41 4f 02 0b ce e7 3f
       0.027744071575406464 0.7439017338856904
000480 03 9c 42 d7 45 95 93 bf 7c 54 9f 8b c6 a1 ee bf
       -0.019124118102492826 -0.9572479941367784
000490 e1 b7 8d 45 f7 e3 86 3f 3d a6 b3 ad fb 93 e8 3f
       0.011176997957331682 0.768064345608941
0004a0 52 b8 1a 67 e1 d1 d1 3f aa 8e 9d 66 5d 78 f3 bf
       0.27843508785997984 -1.2168859489837964
0004b0 eb a3 de 77 16 f3 c6 bf 35 0d 6a 4f 96 2d f0 3f
       -0.17929344990741866 1.0111296751136483
0004c0 60 87 6e 1b 81 1b d5 3f 71 78 84 39 48 34 ea bf
       0.3298037307632651 -0.8188820956600137
0004d0 14 d7 15 fa b6 a6 c6 bf 01 18 c9 4d 73 a9 f0 3f
       -0.17696273051449707 1.0413697279450391
0004e0 a4 2d 61 b0 b1 85 d4 3f fc 0c 58 8d 02 db e1 bf
       0.32066004013605665 -0.5579846153854358
0004f0 ca 83 86 8d 5a 52 bf 3f 88 b3 47 71 63 22 ec 3f
       0.12235036807261604 0.8791978085042595
000500 7e 8b c4 4c 9d c9 d6 bf d8 f3 c9 6e 81 19 f7 bf
       -0.35605556961871077 -1.443726952332545
000510 36 85 96 bb d3 ca bf 3f ee cd 02 cc d8 ed ee 3f
       0.12418864564690044 0.9665340408886871
000520 91 9f e0 ed c4 9a 77 3f 01 99 ce 32 87 ff ea bf
       0.005762833838197327 -0.8436923973393108
000530 38 01 c4 64 7f ff b7 3f bd 43 f9 d9 11 85 f0 3f
       0.09374233446215363 1.032487727603651
000540 a7 fc 76 a0 fc 0b c3 bf 82 a5 e3 60 d8 80 ea bf
       -0.14880330882258372 -0.8282281772964526
000550 a4 81 a4 c0 ed e2 aa 3f 8e ce e7 c1 65 b6 f0 3f
       0.05251257874101903 1.0445306372102183
000560 35 53 8b 50 c9 d3 d1 bf 9b a4 c4 c3 b4 f4 ee bf
       -0.2785514151158169 -0.9673713515850467
000570 82 90 6b 88 86 6f d9 3f 3d a0 f5 3d 71 2f ee 3f
       0.39743197748453707 0.9432913026948949
000580 40 54 3a 53 88 e7 e0 bf b7 37 97 63 20 9c f1 bf
       -0.5282632470649631 -1.1006168260823708
000590 9b c9 e2 8e f6 e9 d9 3f 33 80 fc 31 40 95 ef 3f
       0.4049049754495628 0.9869690872474223
0005a0 d5 b3 d2 dd 4a d7 d1 bf 49 ed 66 e6 ad 25 e5 bf
       -0.2787654081574236 -0.6608495235481452
0005b0 59 86 28 12 7e 24 d7 3f 04 6a c4 c7 3a c5 f0 3f
       0.3616023232772015 1.0481517604263226
0005c0 80 82 aa 79 48 90 d8 bf f6 54 2e d5 ae 6c e6 bf
       -0.38380634194803775 -0.7007669604960529
0005d0 72 5a a4 81 cd f8 d4 3f c6 10 57 98 88 b4 f0 3f
       0.3276857152972418 1.0440755797181267
0005e0 d1 84 d2 70 e1 44 df bf 93 e6 b5 93 bc 7a eb bf
       -0.4885791398792892 -0.8587324986430808
0005f0 6e dc dd c1 66 34 da 3f ac ae 43 56 62 8a f1 3f
       0.40944832737245107 1.0962851876928807
000600 51 33 1b 7a 0a f2 de 3f 58 21 42 27 b5 50 f3 3f
       0.4835230057185998 1.207204011299913
000610 c2 de d7 f5 6d 99 a0 3f e9 c0 e5 fa 83 95 e9 bf
       0.032420574436341734 -0.799501409563189
000620 38 c8 70 c4 e6 7d c5 3f 1c 7d 47 a6 51 08 f0 bf
       0.16790470687698344 -1.002030992058116
000630 2c e0 44 a3 81 3a c0 bf 7d 1c dd 6b 77 a3 f0 bf
       -0.126785473557676 -1.039908810942307
000640 b6 d7 4a d7 c3 5a c0 3f 19 7b 99 9e f8 97 df bf
       0.1277699280960271 -0.49365058410869406
000650 5f 9f cd 8f ae 46 b6 bf 05 6e 6c 33 80 68 df bf
       -0.08701601992436057 -0.4907532217200415
000660 89 9a eb 20 d0 f3 e3 3f c3 e9 1b 31 45 3c d6 3f
       0.6235123293852932 0.34742860599331155
000670 b5 1d 00 09 de 48 e6 bf d1 4c 6d ad 50 12 d7 3f
       -0.6963949371137718 0.36049286781526485
000680 c4 18 67 de 2e f2 ec 3f aa d4 14 be 73 a7 f5 3f
       0.904563364391628 1.3533818650296703
000690 84 0f d4 41 6c 45 ee bf 04 d2 61 0e 90 3b fc 3f
       -0.9459744725904646 1.7645416795541005
0006a0 c9 49 eb c5 29 48 d7 3f 03 a6 c8 45 ad fd ed 3f
       0.36377949073826393 0.9372164118732943
0006b0 ac 3e ca fa a9 db e0 bf 28 84 56 bd d3 3f ed bf
       -0.5268144510500483 -0.9140413949973025
0006c0 80 61 f1 86 e8 6a b3 3f 79 c8 8f c2 95 f1 f2 3f
       0.07585004133705375 1.1839807128967819
0006d0 ce f5 7c 79 00 42 d4 bf 5b ce e6 e3 69 0c f3 bf
       -0.316528433457134 -1.1905306723027909
0006e0 94 65 08 18 ce 72 c3 bf 72 20 1a bb 00 d6 f2 3f
       -0.15194107221104203 1.17724679075948
0006f0 0a cb 4e e2 8e ce a6 bf 4e 6d 7f e7 eb bc f4 bf
       -0.04454466354891025 -1.296123413360721
000700 6c 4f 95 7b 87 8d d2 bf 4b fc aa b4 b2 a6 f1 3f
       -0.2898882586352929 1.1031977708187408
000710 6c c8 1e 36 17 76 c8 3f 25 76 5a ea 61 7d f5 bf
       0.19110384123411295 -1.3431109575680094
000720 30 fb 65 c7 d1 a5 d1 bf f4 4d f8 82 d7 56 ef 3f
       -0.27574581596848 0.9793508108145361
000730 fb 95 1b ec 74 3f d8 3f 71 b1 7a 1b 0e 36 f6 bf
       0.37887309129141017 -1.3881970475586878
000740 9f 00 d3 03 b0 f8 c6 bf ec 15 62 dd 20 14 e7 3f
       -0.17946434199075598 0.7212070773973074
000750 65 a0 f3 27 b1 ab ba 3f 99 74 8a c7 b8 8a f2 bf
       0.1041823122537849 -1.1588676256717803
000760 56 f7 06 bf 3c f3 cf bf d6 9d 36 e7 f3 cc e7 3f
       -0.2496105129957253 0.7437686458478605
000770 ef 02 26 0f 46 d8 d8 3f 11 bb bc eb 40 80 e9 bf
       0.3882002971586606 -0.7969059566729318
000780 47 da ec f3 b2 15 cd bf fc 64 27 2c 2f 40 ec 3f
       -0.2272247019806903 0.8828349935894546
000790 63 a9 99 02 d8 78 df 3f 9f 8a 08 80 54 5c e1 bf
       0.491750719584749 -0.5425207615520157
0007a0 6d 70 68 1a 7e 96 c4 bf f8 45 fe 5e ae 4a ef 3f
       -0.1608426693864006 0.9778663497292532
0007b0 0e 3e 49 85 28 6f e1 3f e5 70 a5 54 fc 3b d7 bf
       0.5448191264385416 -0.3630362345336507
0007c0 01 bc 1d 3f 49 d1 ac bf c7 50 4c 68 c6 7e e3 3f
       -0.05628422637425246 0.6092254674026883
0007d0 34 95 43 38 2e ef a7 3f ed 24 73 47 4b ad ee bf
       0.04674667774978972 -0.9586540599349554
0007e0 65 f0 4f c5 1b 3e bb bf 92 e8 f7 e6 df 5a e4 3f
       -0.10641645018762487 0.6360930930234352
0007f0 2d ec 49 57 48 d0 db 3f a7 c7 8d da c4 5f f4 bf
       0.434587559931688 -1.2733810937174697
