data/QIPEDC/W02214.npy (npy, 216368 bytes, 1 tensors)

array f8 [17, 15, 106]
00000000: 7e07 cc8e 431c ec3f 5910 7f4d 25d9 fa3f
00000010: 7932 8cb9 e879 f0bf ec0c 6dde d954 bf3f
00000020: 6203 0f41 efa3 e63f 448b f5b6 15fa f03f
00000030: 9a53 bcbc cf79 f0bf f952 53da 9d96 d5bf
00000040: 7f5b 2c74 0ba1 e23f 39c7 46b7 ed53 e13f
00000050: 5e69 a08f d7b9 ebbf 9379 290c 1c5f e5bf
00000060: 5d98 d053 05e3 e13f be8e 6e0c 9140 c23f
00000070: e978 76eb 7848 e5bf 9fe2 9fad 002d e8bf
00000080: d925 9776 1c83 e33f de65 509e 3169 c0bf
00000090: d775 9928 8a04 e1bf a01c 4f3f 4bbe e7bf
000000a0: 990a 3d9f f03c e73f 48ae e2a0 51a4 e53f
000000b0: 3041 a061 1391 e9bf f745 9965 02a9 e5bf
000000c0: af15 5920 0839 e13f fd30 adf5 d880 da3f
000000d0: 7b4a a55c 9558 e1bf 8509 f24e 665a f0bf
000000e0: 0a4e f6f3 7363 df3f 3b6a 5183 fc92 dd3f
000000f0: cea9 061c d14c d9bf d159 11fd 1ee4 f2bf
00000100: ab16 c6c6 fc66 e03f 7448 6664 18a5 e03f
00000110: 7678 516a f3d1 d1bf 3846 26fa 57c3 f4bf
00000120: 595d d55a 0851 e73f d67a e99f 77eb ec3f
00000130: 2e46 d220 1c16 e6bf 7236 5fbd 21c2 dbbf
00000140: eace d291 b5ac df3f e76c a77d e109 e73f
00000150: d035 9350 bd97 debf 55cd bd16 52ea f0bf
00000160: bf84 920a 05c1 da3f 5f3a cb8a 9891 e23f
00000170: 99e8 d113 7e98 d3bf 144d c0fc f3ea f3bf
00000180: 52f2 9b09 3e18 dd3f a735 507f 513c e53f
00000190: c9c0 b71b e489 c6bf e27f 66bb 8026 f6bf
000001a0: 6c41 eae4 98e5 e53f 0138 8935 a328 ee3f
000001b0: 3e0d cbf2 82c5 e5bf 7d9a 4242 59e8 dbbf
000001c0: 35ef 30c4 5c34 dc3f 82b6 1c82 3f21 e93f
000001d0: 17be 1770 141f dbbf f07f 5eaf b897 e9bf
000001e0: 69d6 4372 ec27 d83f 476b fd75 a2c3 ea3f
000001f0: ded2 6eeb 8e37 d2bf 395a da05 d416 f0bf
00000200: 9ee3 a3cc d9c4 d93f 7176 b5c0 2575 ed3f
00000210: f5c5 1a8b 4922 c7bf 0d44 f4ae 73ab f2bf
00000220: 4a32 6991 1e3b e43f e2b0 f10c b8c4 f23f
00000230: 585b 859b ce67 e4bf e0d1 9bfa d555 ccbf
00000240: 1815 b449 18df d93f 6320 0f14 a8b7 f03f
00000250: f3e5 45ac 96b1 ddbf 5b78 9274 13ea e0bf
00000260: a9f9 20ae 1408 d73f e478 0c68 22f3 f03f
00000270: f931 05c8 b915 ddbf c858 40ff 391e e4bf
00000280: feec 2908 da78 d83f 8815 66ba 33f1 f13f
00000290: 7d28 acdf f21c debf 16fc fa34 3cec e4bf
000002a0: 47ce 6cc7 b0bd c53f 3e3d fbf4 6e04 d73f
000002b0: 1266 9dec 6e0f c83f 7101 ab14 ba2f dd3f
000002c0: 05d7 a3c2 6448 8bbf 6849 523e 6931 e9bf
000002d0: 6a80 8d48 d79d ba3f 68af ff2f 0f2f f0bf
000002e0: 7485 7675 29ea bebf 22c0 f97c 78c1 efbf
000002f0: efaa 2d54 ef5e b23f 6700 7ee5 947c e3bf
00000300: 1263 1c72 5119 b5bf ecfb 2d9d 5947 e3bf
00000310: 9e9f 6dd5 fbe1 e03f 72ca 8d7b 78f8 ca3f
00000320: efbb dae3 a630 e0bf c97d 5a37 8b0a c83f
00000330: 291d bd17 7ab8 e63f 575b 9eec 8c5e fe3f
00000340: e079 eaec d61b e6bf f74d 00ec 894b fb3f
00000350: f776 6a29 64e5 ee3f a895 7292 6a37 fc3f
00000360: 49b6 c3bc ec12 f3bf c48d 89ae 2029 da3f
00000370: a33b 25ed a172 e93f fdf2 696a f946 f13f
00000380: 874d f916 5349 f3bf f0ed 542d ae15 c9bf
00000390: 1147 d696 301c e53f 98a2 047d 958d df3f
000003a0: 2746 65a4 8174 eebf e471 5044 7a73 e2bf
000003b0: 0ab6 9636 e7ed e33f ee6d 0553 dd4d b23f
000003c0: 4c05 73f6 cb45 e5bf c552 c1a0 aa99 e3bf
000003d0: b6e0 da76 1ccd e53f afa5 b1a8 a8c7 cdbf
000003e0: 5d23 209a 8342 dfbf 5afe dd50 0059 e2bf
000003f0: fd18 c21f 67e5 e73f de34 24dc f502 e13f
00000400: f0b5 9925 a228 ecbf 5cfe c78f 0b57 e2bf
00000410: b304 05a3 66a7 de3f f59b a6fa 4407 cf3f
00000420: bdcd 8bc2 2033 e2bf 4394 e678 ccad efbf
00000430: 9ada 47b2 bdc2 df3f 1419 0af6 2355 d03f
00000440: a386 caec e17c d7bf 15d1 9745 de81 f3bf
00000450: 7527 7653 7d2a e33f 2fbc 3997 c4e9 d63f
00000460: 1a06 5deb bcaa cabf 447f 57b4 4e3a f6bf
00000470: 5229 8467 3525 e83f 6be4 e692 6764 e93f
00000480: 5119 a149 4002 e8bf 46c9 e00c 0d0d cebf
00000490: 1a39 5624 9883 de3f 0b4c ff7c 6e33 e33f
000004a0: 4e4b 0fe2 2fd7 e0bf 4daa e8c3 b25f f0bf
000004b0: cdf9 08ec 6b0c dd3f bc8b 1589 342a d73f
000004c0: 5875 e276 bb39 d4bf 29c4 3348 a4de f4bf
000004d0: c768 2728 4547 e23f 0848 d6f6 009e df3f
000004e0: e567 aa7d 9104 c3bf b24d 9695 bc25 f8bf
000004f0: 1f2f 9f09 12b3 e63f e725 8a56 5a32 eb3f
00000500: 0768 2362 b8ec e8bf c84f 7d13 c02c cfbf
00000510: bb5b 2115 1254 db3f 0ea4 5089 5e78 e63f
00000520: 8283 15b1 b6bc dbbf c6d1 0496 20bf e6bf
00000530: 9045 7bfe 2b0e dc3f efa9 c1bf 5ed8 e73f
00000540: d15d cd82 04b9 cfbf f749 7bf8 cd31 f0bf
00000550: 53fa 0de2 51f3 e03f 77b2 980d 0377 eb3f
00000560: a45a 4536 5761 bcbf 410a 7afb c15a f3bf
00000570: 1584 135d aec1 e53f a344 9482 2e2a f33f
00000580: be6f 2cd0 cec0 e7bf 6e44 0962 5deb 7dbf
00000590: ef22 d0c0 1645 db3f ebe8 0f91 5d53 f13f
000005a0: 5886 3c9f 1370 e1bf d75d 6a73 1481 dabf
000005b0: d0d4 018e 869d da3f 7adc 86cd a9fa f03f
000005c0: b43e b45c 3527 e3bf 5885 5302 fce2 e0bf
000005d0: 4f99 2de9 bea3 de3f 1469 1517 f59d f13f
000005e0: a32b 8801 11d7 e5bf aad1 5541 2d7f dfbf
000005f0: 4c46 c831 d7fd c53f 91e8 946e aefa d73f
00000600: aab0 5332 5b8c c93f a3dc a189 29ed de3f
00000610: 784f ebb6 3bc9 87bf 4c45 c1fa ea81 e9bf
00000620: d108 bcfc b2de ba3f fa1c 7514 7a6b f0bf
00000630: 2ef0 8dd6 99e4 bfbf 8bfb e3c4 9631 f0bf
00000640: 4425 8df1 f68e b23f aaff e6d2 f01c e3bf
00000650: b393 13b4 05c7 b5bf dfbc c950 09c4 e2bf
00000660: 09aa b2a2 9ab5 e03f 589d 046b 0d90 cc3f
00000670: 653d 9bd2 d5d7 dfbf 9543 7e25 6b10 ca3f
00000680: 0b4b 4085 2187 e63f 85aa bcc6 6628 fe3f
00000690: 5d9e 3e9c ede9 e5bf d112 c58f 0d52 fb3f
000006a0: e937 0425 f5a2 f13f e499 6a3e 50d6 fa3f
000006b0: 9e6e e7aa c520 fcbf 5750 8937 cf4f d03f
000006c0: cdc0 0a07 0a8f ec3f 85f5 3cbb 7311 ec3f
000006d0: ae94 eab4 a39a f7bf 6d8d c27c 10a9 d13f
000006e0: dd70 4eaf 6b30 e73f b420 553d 62a4 c03f
000006f0: 61ad e53c 6dca f0bf ce1f 582d f494 ca3f
00000700: 3c0c ab51 5fc2 e53f d78b 0565 a7de d9bf
00000710: 7a06 0e40 6643 e6bf 59d4 1197 e53a ca3f
00000720: 1f79 6fd6 efa8 e83f cca9 fc8f b0db e8bf
00000730: 6268 b5d4 b749 ddbf b4b9 f629 b498 bd3f
00000740: 5c18 96d5 2e4a eb3f 6e3b 149a 28dd ce3f
00000750: 1209 e44a 103f f0bf 1bb8 c2c5 06fe debf
00000760: 4041 c80f c4fa e03f 19e7 a3b5 2b36 b0bf
00000770: d640 ae03 1fda e0bf 9fc5 82f4 0476 e8bf
00000780: 7324 e4d4 b0e3 e13f e05a daf4 bf36 b1bf
00000790: d046 508f 705e ccbf c50e 27eb 0516 edbf
000007a0: fce7 3fdf 63ae e53f d39a 10c7 a991 873f
000007b0: 1de6 04a4 6e5f 923f 0154 b11a 8cf3 f0bf
000007c0: 712f 8f5f dc4f eb3f 6ae0 4167 c591 e23f
000007d0: 17a2 92e5 832f f0bf 51fa f090 009f dfbf
000007e0: 94e0 9955 4498 e13f b84e d756 9190 dc3f
000007f0: 4be0 aaba 87f0 e1bf 75c2 02b9 3f36 e7bf
0.8784501828197191 1.6780140902710825 -1.0297629592852486 0.12238847427674998 0.7075115461994808 1.0610558649866144 -1.0297391293035845 -0.33731790848587156
0.5821587819108202 0.5414951877230357 -0.866435795326918 -0.6678600537814411 0.558962501240568 0.1425954161360234 -0.6650967215425939 -0.755493487463429
0.6097547832698026 -0.12821026067903935 -0.5318041604002087 -0.7419792400841239 0.7261889562726821 0.6763084547323581 -0.7989594370610913 -0.6768810257291865
0.5382118827625869 0.4141142272171832 -0.5420634088025759 -1.0220702251250213 0.4904451258127841 0.4620963365938768 -0.39531352745930526 -1.1806936154804257
0.5125717050838906 0.5201532326630187 -0.2784393823875527 -1.2976913234200662 0.7286416792002611 0.9037435649186942 -0.6901989594500202 -0.43372386449195865
0.4949163364465067 0.7199561552219195 -0.47801144474655377 -1.0572071922623156 0.4180309870954026 0.5802729330842559 -0.3061824029497387 -1.244861590680391
0.45460463465113776 0.6636130796993499 -0.17608310082824222 -1.3844001121833505 0.6842770071980744 0.9424606366753779 -0.6803602926305883 -0.436056437213132
0.4406959453515243 0.7853086034062502 -0.42377196260983524 -0.7997706818750867 0.377436744295983 0.8363811783304776 -0.28464100829596173 -1.0055732945089757
0.40263981804269544 0.9205502284855368 -0.18073386471000644 -1.1668583711764342 0.6322167244011976 1.1730270867947685 -0.6376717603223865 -0.22136950241805575
0.40424163053133233 1.044838026386082 -0.4639641458848864 -0.5285737301635537 0.3598682117916732 1.0593589844134437 -0.45445103200179876 -0.6286897645357152
0.38237620160334973 1.1213872224046515 -0.47051688998238445 -0.6538373026631941 0.16985139596509866 0.35964559482541236 0.18797098687609598 0.45603801744802924
-0.013321673574391743 -0.7872816292968254 0.10397096177394052 -1.0114890932990992 -0.1207605277800406 -0.9923670235566571 0.07176109128128492 -0.6089577181119353
-0.0824175742713005 -0.6024597234644467 0.5275859039802417 0.2107077220240004 -0.5059389543802107 0.18782177164847116 0.710019155850124 1.898083614627202
-0.6908983828796487 1.7059420794292899 0.9655018624214041 1.763529369412348 -1.1921203015912332 0.40876023335132694 0.7952432281252765 1.0798277050773202
-1.205401506177482 -0.19597413266625052 0.6596911378894409 0.49301659783172047 -0.9517219744540782 -0.5765963873159845 0.6227909151254505 0.0715006187141893
-0.6647701085532076 -0.6125081195592307 0.6812879868876027 -0.23265560376175418 -0.48843469668695666 -0.5733644084393277 0.7467532749440405 0.5316113757741296
-0.8799601301558919 -0.5731256302096415 0.4789673416126547 0.24240934599694666 -0.568741207096927 -0.9899656640378754 0.4962610474607715 0.2551965620736081
-0.3669972240842105 -1.219206115577497 0.5989367132290072 0.3580180622875017 -0.20833550922729743 -1.3892352146721842 0.7545420667459359 0.793506419103449
-0.7502747953483696 -0.23477328423320837 0.47678187893406376 0.6000282708504313 -0.5262679496030189 -1.0233638432206533 0.4538831524877452 0.3619510019981893
-0.31602369890045656 -1.3043558903120902 0.5711999687439623 0.49401878457240445 -0.1485769141771122 -1.5092130511519426 0.7093591869283705 0.8498965921618805
-0.7788965145839492 -0.24355317069659876 0.42700626433855476 0.7021935159619959 -0.4333931664787586 -0.7108309679084008 0.43836498119079526 0.7451623673671842
-0.24783378969981 -1.0121593195259473 0.5297021308068203 0.8582778230243794 -0.11086030077908987 -1.2096576522168478 0.6798927133460234 1.1977982617138785
-0.7422861162080989 -0.007304539467967703 0.4260918505611206 1.0828529039850376 -0.5449312315069603 -0.4141284110168874 0.41586459987531743 1.0611970928564731
-0.598536187231693 -0.5277080579218518 0.4787442471628269 1.1010638143257596 -0.6825032262726051 -0.4921372545279846 0.17180910044457887 0.3746753768824727
0.19959583241814488 0.4832252353730359 -0.011614290733099372 -0.7971091172750362 0.10496061964298355 -1.0262394713516287 -0.12458192337175042 -1.0121066752469428
0.07249396703004601 -0.5972828025041867 -0.08506808897398237 -0.5864302232638713 0.5221684625333306 0.22314613080491585 -0.4975485378935985 0.20362605410312243
0.7039954760133197 1.8848636401332055 -0.6848056842472477 1.7075324646004229 1.1022845693546464 1.6773226202145617 -1.758001010507463 0.2548711817119104
0.8924608361758374 0.8771303803438718 -1.4752537791294276 0.27594387229529255 0.7246607231095613 0.13001659388306097 -1.0494205836101502 0.20767070974420537
0.6799770922738229 -0.40421471467396713 -0.6957274676389738 0.20492238880584315 0.7706221759979462 -0.7768175899739673 -0.45762439510656894 0.1156113245440114
0.8528055354697801 0.24112422488584734 -1.0153963971538968 -0.484254544377906 0.5306110676047311 -0.0633265799005155 -0.5266261169326991 -0.7644066596605404
0.5590442808180697 -0.06724166610579685 -0.22163207051976608 -0.9089383690665832 0.6775378570885091 0.011508299243428699 0.017942169915135964 -1.0594597857173087
0.8534986368554042 0.5802943245644319 -1.011600395935721 -0.49407972483087287 0.5498372718711999 0.44632371407099525 -0.5606115957116428 -0.7253721822253981
