data/QIPEDC/W02461B.npy (npy, 712448 bytes, 1 tensors)

array f8 [56, 15, 106]
0.4664499600684742 2.098613572712564 0.5101319561057461 0.6415171374172548 0.41210367185113894 -0.5089682141948338 0.2508493765494362 -1.4225941572129506
0.24889865326530947 -2.179436740934922 0.3810392279793368 -0.24253847878283197 0.059563074796789066 -0.9248198017891507 -0.08865130757636568 -1.2455679217044107
-0.16111471633366592 -1.5321542854852954 0.26348088057194463 0.34092818257215746 -0.08790424904947969 -0.21984514913420045 -0.23802369408372567 -0.5144982229846858
-0.279855166537421 -0.7857197871141329 0.15178104477013202 0.9842356271164178 -0.17631843545383952 0.5502263317616599 -0.36313887460348915 0.21221849633899018
-0.4354932052057602 -0.1435969820675152 0.03536928634118622 1.6319493217836016 -0.23321791350924184 1.3667752535050752 -0.33695504399392345 1.097887454552997
-0.3789945259525581 0.795388363644249 0.0 0.0 0.0 0.0 0.0 0.0
0.0 0.0 0.0 0.0 0.0 0.0 0.0 0.0
0.0 0.0 0.0 0.0 0.0 0.0 0.0 0.0
0.0 0.0 0.0 0.0 0.0 0.0 0.0 0.0
0.0 0.0 0.0 0.0 0.0 0.0 0.0 0.0
0.0 0.0 0.0 0.0 0.035865996780232744 0.624269837755043 -3.149462634548443 -2.870468937590357
0.008642655142469837 -0.8226893858243777 0.127115530884523 -1.009569067267891 -0.09969202759224195 -1.0186451895887223 0.08561085026891957 -0.5840149961293487
-0.08006233747968125 -0.5763572831976583 0.5400837267632711 0.22045039713555947 -0.576280090412471 0.20700309669588032 0.5796695417934016 1.7541009188634085
-0.5850878493681914 1.8297215093131511 0.5679106349207084 2.0992190026963846 0.4989013375911009 0.9355639973260552 0.3073661828274943 -0.24839223702721852
0.17821469808999035 -1.2027941441165855 0.1725656503504344 -2.006471458862933 0.3510588175564492 0.017890782598913448 0.07562501489717359 -0.7861643754311045
-0.07746080732010777 -1.271263997496583 -0.18950703595716165 -1.7670188001615739 0.24435354905841983 0.48158006031953443 -0.02366987486203512 -0.2578627336080835
-0.17779273156865252 -0.6939148096689547 -0.25831869218454134 -1.1509121921870888 0.08134498091458772 1.0832205022056691 -0.13016936409480387 0.4638528160444266
-0.27323710761857756 0.007483234674545281 -0.3151695739429867 -0.4280177714895263 -0.13787271670280918 1.7909314358732664 -0.27787237276317717 1.3665239085177652
-0.3122130955726038 0.9842743908621564 -0.3040574936189127 0.5822723889309651 0.0 0.0 0.0 0.0
0.0 0.0 0.0 0.0 0.0 0.0 0.0 0.0
0.0 0.0 0.0 0.0 0.0 0.0 0.0 0.0
0.0 0.0 0.0 0.0 0.0 0.0 0.0 0.0
0.0 0.0 0.0 0.0 0.0 0.0 0.0 0.0
0.0 0.0 0.0 0.0 0.0 0.0 0.05001755084505709 0.5891711466660234
-3.1333968135941332 -2.857648922852304 0.007566066701460604 -0.8207976125962787 0.1258183927704195 -1.0091925647054596 -0.1019210700735564 -1.0154740597876017
0.08451740426767086 -0.5882199264785787 -0.08375235078955591 -0.579717097897683 0.5375247269837071 0.21573851274740258 -0.5736287427796194 0.2040934971921163
0.5774945275525214 1.758210307816435 -0.5736189546330464 1.8353589437096471 0.6880564461636437 2.002165291511538 0.6031108010129418 0.8879536467256834
0.3756861579797852 -0.29025072038496375 0.2422700175365285 -1.2545918306063462 0.2350013075768232 -2.087080647759629 0.32740648277368 0.011264756214530951
0.04946606018803333 -0.8004137048440976 -0.08838061559578005 -1.3210059940281556 -0.19197069919321536 -1.827102536645016 0.19716300043444068 0.4691627769953856
-0.06576404868283466 -0.12717411983757465 -0.1712798798193832 -0.5872764416170726 -0.21505225298348649 -1.060848029498728 0.02592609952341748 1.0739505909903087
-0.19454896369461352 0.553185028394417 -0.28855527295018635 0.08092724777463942 -0.29924010112420696 -0.3744901118823689 -0.1740281277311245 1.7839899393353755
-0.3183506231154297 1.3625341683977628 -0.3613750692740232 0.9660933754596788 -0.37554071902500585 0.5390073153046357 0.0 0.0
00000000: 0dbc edee 50da dd3f fcef ade9 f5c9 0040
00000010: 49cc 8340 0053 e03f 10fb a0f2 4e87 e43f
00000020: ca60 4a14 e85f da3f 6173 55b5 7749 e0bf
00000030: c81d 208b ea0d d03f 695d 4b17 f2c2 f6bf
00000040: 507f e53b e9db cf3f 6921 b087 7c6f 01c0
00000050: 8b84 aa5b f262 d83f c869 3239 800b cfbf
00000060: 8752 9a24 0d7f ae3f 5615 6cb2 1f98 edbf
00000070: bbc2 c922 dab1 b6bf 93ac 0aa1 d8ed f3bf
00000080: 4859 c732 689f c4bf 955e 4936 b483 f8bf
00000090: d060 4be9 dedc d03f 13a8 9b70 c4d1 d53f
000000a0: 00d2 d892 e480 b6bf e299 dbc6 e223 ccbf
000000b0: 7fa0 e176 8f77 cebf 0b38 32fa c476 e0bf
000000c0: 5545 f9a4 25e9 d1bf 8535 afd2 9d24 e9bf
000000d0: f95f b8af 8f6d c33f f3bc c0b6 db7e ef3f
000000e0: 6462 fa3c 9a91 c6bf 5d0f 8a40 749b e13f
000000f0: bc01 95d5 aa3d d7bf d9ed b0c6 f929 cb3f
00000100: 124b 7fe4 1edf dbbf 2a63 e4ca 6261 c2bf
00000110: d48b 3c50 ec1b a23f a2a3 5ce4 761c fa3f
00000120: d188 aea7 15da cdbf 2095 6cba 4fde f53f
00000130: eb45 8be3 ab90 d5bf a4e6 7f6f f290 f13f
00000140: 9a12 9541 7241 d8bf 7912 2f4c d273 e93f
00000150: 0000 0000 0000 0000 0000 0000 0000 0000
00000160: 0000 0000 0000 0000 0000 0000 0000 0000
00000170: 0000 0000 0000 0000 0000 0000 0000 0000
00000180: 0000 0000 0000 0000 0000 0000 0000 0000
00000190: 0000 0000 0000 0000 0000 0000 0000 0000
000001a0: 0000 0000 0000 0000 0000 0000 0000 0000
000001b0: 0000 0000 0000 0000 0000 0000 0000 0000
000001c0: 0000 0000 0000 0000 0000 0000 0000 0000
000001d0: 0000 0000 0000 0000 0000 0000 0000 0000
000001e0: 0000 0000 0000 0000 0000 0000 0000 0000
000001f0: 0000 0000 0000 0000 0000 0000 0000 0000
00000200: 0000 0000 0000 0000 0000 0000 0000 0000
00000210: 0000 0000 0000 0000 0000 0000 0000 0000
00000220: 0000 0000 0000 0000 0000 0000 0000 0000
00000230: 0000 0000 0000 0000 0000 0000 0000 0000
00000240: 0000 0000 0000 0000 0000 0000 0000 0000
00000250: 0000 0000 0000 0000 0000 0000 0000 0000
00000260: 0000 0000 0000 0000 0000 0000 0000 0000
00000270: 0000 0000 0000 0000 0000 0000 0000 0000
00000280: 0000 0000 0000 0000 0000 0000 0000 0000
00000290: 0000 0000 0000 0000 0000 0000 0000 0000
000002a0: f348 6b26 075d a23f 3730 21bd 04fa e33f
000002b0: 62e0 3a77 1932 09c0 5a13 196b b8f6 06c0
000002c0: 6e07 8089 3db3 813f 9339 dcb0 7853 eabf
000002d0: e439 fb5b 5245 c03f 4580 efe4 3127 f0bf
000002e0: 613c 2eae 6a85 b9bf 362e f8e5 5e4c f0bf
000002f0: 9877 16ba 97ea b53f c9f8 9737 40b0 e2bf
00000300: f6d5 1d21 f77e b4bf bba6 44d4 8471 e2bf
00000310: 019a f1aa 5d48 e13f 3c31 0bf7 b737 cc3f
00000320: 200a b5f1 e270 e2bf 4b61 3dd5 137f ca3f
00000330: cbad 8f23 a78c e23f 236e 0620 cc10 fc3f
00000340: ef58 4a27 0ab9 e2bf 999a b40f 8a46 fd3f
00000350: 081f 81ec 522c e23f 1bc8 1d55 33cb 0040
00000360: 909a 38e0 ffed df3f f492 7ae8 23f0 ed3f
00000370: 0cfd c835 e3ab d33f 0a5c 4e1b 51cb cfbf
00000380: 5044 fb3d bdcf c63f 15d1 8c12 a53e f3bf
00000390: dd83 5598 a116 c63f c063 81e8 400d 00c0
000003a0: fe26 1867 bf77 d63f 4a12 a618 f651 923f
000003b0: f32c be35 295c b33f 3238 3831 4228 e9bf
000003c0: f25f 29b2 78d4 b3bf e247 ddea 1857 f4bf
000003d0: c321 e63c c441 c8bf 25c7 6181 b545 fcbf
000003e0: 6e08 ef22 fa46 cf3f 5199 5e2c 35d2 de3f
000003f0: e93d bb69 ea3c 98bf 590c edb1 d280 d0bf
00000400: 31e5 c687 e9c1 c6bf 8a9f b7d4 8c34 e6bf
00000410: b932 b81f 4b88 d0bf ee2d 20e7 226a f2bf
00000420: 56ce b850 06d3 b43f dd47 7505 df54 f13f
00000430: e938 ddc4 63a9 c0bf 4b5f c4b8 c3af dd3f
00000440: 88a0 517e b77c d1bf 1aa0 2083 bda6 7e3f
00000450: 64e1 3101 bd2b d4bf 53e0 a9a6 a464 dbbf
00000460: 0be7 9f2c d0a5 c1bf 9643 a7b8 a7a7 fc3f
00000470: 81b4 5e34 a9c8 d1bf 0993 842c 48dd f53f
00000480: 1e81 b7a2 4cfb d3bf 9362 e101 2d7f ef3f
00000490: f99a cc8f ad75 d3bf 2e50 7ab4 f9a1 e23f
000004a0: 0000 0000 0000 0000 0000 0000 0000 0000
000004b0: 0000 0000 0000 0000 0000 0000 0000 0000
000004c0: 0000 0000 0000 0000 0000 0000 0000 0000
000004d0: 0000 0000 0000 0000 0000 0000 0000 0000
000004e0: 0000 0000 0000 0000 0000 0000 0000 0000
000004f0: 0000 0000 0000 0000 0000 0000 0000 0000
00000500: 0000 0000 0000 0000 0000 0000 0000 0000
00000510: 0000 0000 0000 0000 0000 0000 0000 0000
00000520: 0000 0000 0000 0000 0000 0000 0000 0000
00000530: 0000 0000 0000 0000 0000 0000 0000 0000
00000540: 0000 0000 0000 0000 0000 0000 0000 0000
00000550: 0000 0000 0000 0000 0000 0000 0000 0000
00000560: 0000 0000 0000 0000 0000 0000 0000 0000
00000570: 0000 0000 0000 0000 0000 0000 0000 0000
00000580: 0000 0000 0000 0000 0000 0000 0000 0000
00000590: 0000 0000 0000 0000 0000 0000 0000 0000
000005a0: 0000 0000 0000 0000 0000 0000 0000 0000
000005b0: 0000 0000 0000 0000 0000 0000 0000 0000
000005c0: 0000 0000 0000 0000 0000 0000 0000 0000
000005d0: 0000 0000 0000 0000 0000 0000 0000 0000
000005e0: 0000 0000 0000 0000 0000 0000 0000 0000
000005f0: fe08 3682 e69b a93f 2ead d572 7dda e23f
00000600: 2338 3e59 3211 09c0 5ccd d809 77dc 06c0
00000610: 4b8e ac90 98fd 7e3f 738c d75a f943 eabf
00000620: 0095 172d d11a c03f c76b 4c1a a725 f0bf
00000630: 6d3f bdce 7f17 babf e895 4bba 613f f0bf
00000640: c1bf 45bf eea2 b53f b797 6298 b2d2 e2bf
00000650: f1b0 9a47 cb70 b5bf ede1 0cdf 0a8d e2bf
00000660: 96f6 650e 6733 e13f 5a6f 5ed0 519d cb3f
00000670: 0817 49aa 2a5b e2bf a319 e257 bc1f ca3f
00000680: 28a0 aecd d57a e23f a6fc b821 a121 fc3f
00000690: f277 5023 165b e2bf f276 fa56 a15d fd3f
000006a0: 0b65 c2f3 8e04 e63f b0d3 813c 6f04 0040
000006b0: dce0 c605 af4c e33f ba9f 21c4 1d6a ec3f
000006c0: f850 85f4 3d0b d83f 3368 ecc1 7793 d2bf
000006d0: 4a74 0f35 b402 cf3f 4987 24e2 ce12 f4bf
000006e0: 02a4 47d9 8514 ce3f d3ef b156 57b2 00c0
000006f0: d8b9 0052 3af4 d43f 8982 4ffc f911 873f
00000700: 2e05 8a8d 9d53 a93f 486b b233 fd9c e9bf
00000710: a18f 95ad 1ca0 b6bf 01bc 622e d722 f5bf
00000720: 529d 69f1 7e92 c8bf 8643 95de cf3b fdbf
00000730: a06f 6c1f a33c c93f b786 ec4f c306 de3f
00000740: 5567 58a6 e9d5 b0bf c0cb ccd6 3d47 c0bf
00000750: 6cbe 24c5 7fec c5bf 4e9c cef6 f7ca e2bf
00000760: 7b62 bf0c d586 cbbf bc91 8bc8 3bf9 f0bf
00000770: 5780 4316 5f8c 9a3f 062c 9dd0 e62e f13f
00000780: cdff 44fe fae6 c8bf 43e8 b216 b1b3 e13f
00000790: ac33 1a89 b077 d2bf 1e20 8cea a5b7 b43f
000007a0: a0bb fef3 bf26 d3bf 3073 cd5f a5f7 d7bf
000007b0: ab3a 98be 8d46 c6bf 576a dd08 398b fc3f
000007c0: 9a49 bc4a db5f d4bf 1537 cfa0 f0cc f53f
000007d0: 58c9 07e6 c420 d7bf 0469 8fa7 3cea ee3f
000007e0: a2d6 a1f0 db08 d8bf b238 f144 8c3f e13f
000007f0: 0000 0000 0000 0000 0000 0000 0000 0000
