data/QIPEDC/W02512.npy (npy, 292688 bytes, 1 tensors)

array f8 [23, 15, 106]
00000000: b01e 4e50 78c9 d7bf e676 3d2f d957 0040
00000010: ceae 0704 a5c1 c53f 44eb 1ae0 559e fb3f
00000020: 9db3 09ca 106a e03f c619 b52e 704f f23f
00000030: 6be4 1117 5507 e53f 69a6 3ba8 a56d df3f
00000040: 0778 d00e ac71 e53f 2465 103a b8db ac3f
00000050: c2d1 b83b d7e7 c43f 7d79 aa82 2d4b ed3f
00000060: c21a 73c0 84d1 d23f c70c b963 1926 89bf
00000070: 6b1c e5b3 6e6b d23f 7574 3194 35da cebf
00000080: 41b0 664c bc15 c93f a03c c632 8c39 e1bf
00000090: c58a be3d ceaf c1bf 6667 b3cb 8019 eb3f
000000a0: 07f4 9652 efe8 b43f 2c94 2172 ccb0 dfbf
000000b0: 120a 5dc1 8ddd c93f 05fc 8a6a 6a9a f2bf
000000c0: 368d 10a6 3a8d d33f 7e5a d449 2a0e fbbf
000000d0: 2e03 2f85 eea7 d9bf ac85 4382 4b93 e93f
000000e0: d5d2 2219 bd76 c3bf be71 7201 b4ca e0bf
000000f0: 666e d72e 7199 9c3f d881 3407 5c0a f4bf
00000100: a8d0 cd77 a795 c63f e30b d4e8 2af1 fdbf
00000110: 9d65 37b0 f202 e4bf 2541 f9d3 4783 e73f
00000120: 6ec4 8b5b a7cf e3bf e2cc a1a9 c537 c03f
00000130: f7bd eee8 d517 e6bf 5fce ecaf b2a1 d3bf
00000140: 37bf 15ad e7e9 e7bf 02f0 ac68 d537 e9bf
00000150: 0000 0000 0000 0000 0000 0000 0000 0000
00000160: 0000 0000 0000 0000 0000 0000 0000 0000
00000170: 0000 0000 0000 0000 0000 0000 0000 0000
00000180: 0000 0000 0000 0000 0000 0000 0000 0000
00000190: 0000 0000 0000 0000 0000 0000 0000 0000
000001a0: 0000 0000 0000 0000 0000 0000 0000 0000
000001b0: 0000 0000 0000 0000 0000 0000 0000 0000
000001c0: 0000 0000 0000 0000 0000 0000 0000 0000
000001d0: 0000 0000 0000 0000 0000 0000 0000 0000
000001e0: 0000 0000 0000 0000 0000 0000 0000 0000
000001f0: 0000 0000 0000 0000 0000 0000 0000 0000
00000200: 0000 0000 0000 0000 0000 0000 0000 0000
00000210: 0000 0000 0000 0000 0000 0000 0000 0000
00000220: 0000 0000 0000 0000 0000 0000 0000 0000
00000230: 0000 0000 0000 0000 0000 0000 0000 0000
00000240: 0000 0000 0000 0000 0000 0000 0000 0000
00000250: 0000 0000 0000 0000 0000 0000 0000 0000
00000260: 0000 0000 0000 0000 0000 0000 0000 0000
00000270: 0000 0000 0000 0000 0000 0000 0000 0000
00000280: 0000 0000 0000 0000 0000 0000 0000 0000
00000290: 0000 0000 0000 0000 0000 0000 0000 0000
000002a0: 2ab8 d635 1fd1 debf 6e90 40c7 7412 c83f
000002b0: c021 3dd8 ec01 0fc0 35b7 f6c7 d3fb 0ec0
000002c0: ca3e 79ef 23db 71bf 4454 118b 2fff e8bf
000002d0: 8e1f 820a 5c54 b93f 2ede b7b2 4d99 f0bf
000002e0: adae 4e8c 57ae c3bf b403 d6ad ea1c f0bf
000002f0: 3de0 d7c7 bc80 b33f 0be0 c558 6dd8 e0bf
00000300: 333b 8df4 a262 b7bf 9dfd 5120 90df dfbf
00000310: b1c9 ad29 696b e33f d7d9 f777 5076 ca3f
00000320: fee2 f0d9 e03c e3bf 16c2 1bdf 3496 cc3f
00000330: af75 9a53 29f1 ec3f 6d1e 2a85 729f fc3f
00000340: c856 1e34 b4be eabf 8869 81aa e718 fa3f
00000350: 8716 254c 0a6c b5bf 0188 4e38 38c2 fe3f
00000360: 8008 0254 16cc aa3f f10e 7723 de89 fe3f
00000370: 67e5 c1d5 d39e d63f 78f5 5fe6 4b69 f63f
00000380: dfce 8e1a 330a d2bf d839 d006 4911 f03f
00000390: db3a 6759 78ae e63f 004b a5d5 eb0e e43f
000003a0: 54b5 4d2d 84a8 d4bf 8950 13a7 6892 823f
000003b0: 2bff c498 de2c ed3f 8628 51fe c9ee bebf
000003c0: 6035 1868 a6ea c4bf 99f9 5cf1 7ece ecbf
000003d0: 4b2c 6113 6008 f03f d139 3c7a dfa1 e2bf
000003e0: 951a e066 16d8 9cbf 5fbe ca7c 668e f8bf
000003f0: 4aee b54f 7273 c63f 8136 a597 5a4f de3f
00000400: 801e 37da f2cc d6bf 8077 e414 256b dd3f
00000410: fb8d 1b41 0f64 b23f e6c0 42f3 44b5 ddbf
00000420: 23e3 07bd ee6a e1bf a9de 189b b963 d0bf
00000430: d275 6f25 dca6 a3bf 3a86 cc80 ec7c e8bf
00000440: 328f 0196 f9c0 e4bf f7ef 17fc c4eb e9bf
00000450: dce0 a8aa c2c0 cabf d7fb 5244 9523 f2bf
00000460: 7012 7095 da8a e8bf c228 f558 3150 f4bf
00000470: 2c8b 5e96 3afe 62bf fbdc e1ac 602a e13f
00000480: b650 00c3 4fa3 623f b595 b134 a4ac e33f
00000490: 7a09 e40b 707b c53f ab04 350f 87e9 f1bf
000004a0: 24ad 00d0 772c c7bf c751 a9a9 7a64 a0bf
000004b0: fccf f1fc 3157 5dbf 4969 f391 077e ecbf
000004c0: e7c5 4ad3 17d9 b2bf 3171 b7f6 2aee ebbf
000004d0: 795c d8df 2f57 c03f a314 1736 d901 f7bf
000004e0: 5fc3 24a3 2411 7a3f f4fd 2a7b 5e23 f8bf
000004f0: 193c 9668 7ede dbbf c15d 1e98 4300 f63f
00000500: adcb 85fc b679 b13f bc5a 49d9 adb6 f73f
00000510: 9175 4ec4 784f d0bf 794b 3ece 9cb4 b0bf
00000520: 03a6 de51 db9c cb3f ad87 2665 4069 bf3f
00000530: 430e 50c2 ad18 b3bf 923f 0677 b2d0 ebbf
00000540: dc76 fa53 a0d7 d23f 0f8c d039 9884 e4bf
00000550: 8e9e 0e2f 3b0f af3f 8b79 f83f efbb f8bf
00000560: 4b86 7318 c529 d53f 29c3 7f74 3da8 f3bf
00000570: a1b7 8a40 e52f e2bf 8b62 8cc5 8dad f63f
00000580: 68c8 e1a5 2cee d93f d240 4885 2502 fa3f
00000590: e433 e66d ef2b e1bf a043 57aa 71bd e93f
000005a0: 7608 94d6 ea9f e03f 0fb2 564d d66d ee3f
000005b0: a58a b9c3 2bd4 e1bf 7aca 3b4b 2d1f d63f
000005c0: 4f79 d67a a234 e33f 547a 46d3 76cd e53f
000005d0: a09d a96b 4b9a e3bf c438 8aa8 ab0c c6bf
000005e0: 8b59 30b1 a35b e53f 9fa6 967b 0a63 dd3f
000005f0: 3a72 1ff6 b297 e1bf 4925 820b 544a c93f
00000600: 6e07 3540 03d5 debf 420a 1f9f 9831 913f
00000610: 22c2 74dd 6674 7ebf 52b6 27f5 bcf6 e8bf
00000620: 5fe5 2f20 79f5 b83f e1c9 dcf2 c79c f0bf
00000630: 735b e84b 3e07 c4bf 16b2 6b19 3b11 f0bf
00000640: 8c06 279d d925 b33f 5190 f4f4 8f07 e1bf
00000650: 02c2 a565 1952 b8bf 4c87 5f5b d11f e0bf
00000660: f910 313b ff44 e33f f6db e6f8 efbf ca3f
00000670: ffc5 e26a 6b52 e3bf 6a0b 30f4 42be cc3f
00000680: 5fb1 bd57 53cb ec3f 4160 9761 de9e fc3f
00000690: 4521 4df2 55f8 e9bf c825 cc6f 6d2e fa3f
000006a0: a57d 5b9d 4080 a03f 415a 22fc 0aa4 0140
000006b0: 18ad 57d4 0ca9 ba3f e9bf 7ffa f6ac f73f
000006c0: e726 469b 2cff b93f 74f2 f048 4dd3 e13f
000006d0: 211f 4b4b 6106 b13f 40b4 776d 1805 d6bf
000006e0: 1bdd bdb4 51e4 9a3f e121 bc76 fb9e f0bf
000006f0: 5dad 4d15 deff b9bf 34f5 3b6a e4c4 f03f
00000700: 74d9 cbb8 f93a d6bf e26d 0979 7d4e cf3f
00000710: a153 7396 7f08 e0bf 98c0 c6a8 8dce d3bf
00000720: 6162 8025 414c e4bf de45 2d39 105e e8bf
00000730: 5eb8 9f58 97b3 bcbf f42b 84d5 1d08 f33f
00000740: 6d6c 015e b37b 9e3f c1cd bd77 3921 dcbf
00000750: efc4 8dd2 2c31 c23f 334d 0563 5c84 f6bf
00000760: c44c 3dc5 11be ce3f 9911 af63 139c 00c0
00000770: 24bb f21f 952f a8bf bc7b 2498 8d88 f43f
00000780: 22fc 9bdd b82d c13f 753c 0415 1b12 d5bf
00000790: a30e 5e62 5a42 d03f 2f7c 31ba 03ff f3bf
000007a0: 1f01 118e 33a4 d63f 872f f834 091f febf
000007b0: 9e8a 103b 0835 a33f 94e5 ef22 2664 f53f
000007c0: 6fb6 f902 8cf6 a83f 9026 d388 aacb e23f
000007d0: 3333 7418 aee8 b13f 8d39 1b86 bf26 c13f
000007e0: 05a7 698e d143 ba3f 2dbd fc05 a114 cdbf
000007f0: 0000 0000 0000 0000 0000 0000 0000 0000
-0.3716717514257466 2.042894715369459 0.16997206398752102 1.7261561159236445 0.5129474588444399 1.144394094897153 0.657145066316969 0.4910673277759999
0.6701259888975536 0.05636382778920737 0.16332521835432884 0.9154269744938542 0.29403799814137355 -0.012279699664878753 0.287807155302693 -0.24103421913142467
0.19597581606410766 -0.5382748595892686 -0.138177662037455 0.8468631723910505 0.08167930380200526 -0.4951659311830692 0.20207378331731768 -1.1626991426308007
0.30549493996859967 -1.6909582981076308 -0.4008747387525088 0.799230341359523 -0.15206111647935097 -0.5247440365088136 0.027929085239391326 -1.2525291711282218
0.1764420828800486 -1.87137881229932 -0.6253598634458971 0.7347754612074239 -0.6190983570105695 0.12670203001798713 -0.6904096173729489 -0.30674426250627634
-0.7473028545918855 -0.7880656284755789 0.0 0.0 0.0 0.0 0.0 0.0
0.0 0.0 0.0 0.0 0.0 0.0 0.0 0.0
0.0 0.0 0.0 0.0 0.0 0.0 0.0 0.0
0.0 0.0 0.0 0.0 0.0 0.0 0.0 0.0
0.0 0.0 0.0 0.0 0.0 0.0 0.0 0.0
0.0 0.0 0.0 0.0 -0.4815137887734432 0.18806323746787562 -3.8759400266319233 -3.8729625341574327
-0.00435937917025315 -0.7811506000676975 0.09894347435522219 -1.0374276143246663 -0.15375799513764346 -1.007059744879581 0.07618312720285388 -0.5264193281027486
-0.09134882421970474 -0.49802020221974336 0.6068616689720355 0.20673566682644548 -0.6011814362201162 0.2233339394947655 0.904438651359376 1.78892757432359
-0.8357792871417695 1.6310803089496364 -0.08367981299405801 1.9224168967707558 0.052338311915279156 1.9086591134409299 0.35344406008478874 1.4007071494118843
-0.2818725356439539 1.0042200342319259 0.7087976213604991 0.6268214390532592 -0.32278541969465846 0.009068315123308206 0.9117272361545238 -0.12083113154327138
-0.1634109504961243 -0.9002070154308967 1.0020447499289442 -0.5822598826796882 -0.02816805842305799 -1.5347657084165787 0.17539814846155571 0.47359337624661896
-0.3562590723999861 0.4596646026637856 0.07183928813497424 -0.4641888022988624 -0.5443032924659729 -0.25608673235135854 -0.03838241536116595 -0.7652494922260253
-0.6485565118605108 -0.8100304530812527 -0.20900758107177964 -1.1336872738754573 -0.7669499319750468 -1.2695783114345862 -0.002318491390682983 0.5364230515105243
0.002275138649574594 0.6148243931935925 0.16782951908687577 -1.1195135683085862 -0.18104455620173454 -0.032016595087643256 -0.001790808502645013 -0.8903844690897041
-0.07362507732866384 -0.8728232210810686 0.12766073636950973 -1.4379512894532034 0.006364005197881577 -1.508635026097065 -0.4354549428325654 1.3750644628652113
0.06826347031692022 1.4820993888621805 -0.2548505703978999 -0.06525592837560436 0.21572438714547112 0.12269976109976595 -0.07459531778300126 -0.8692257237143954
0.29441078377736374 -0.6411858681862003 0.06066307973315786 -1.5458824633456938 0.3306744326383508 -1.2285742331261622 -0.5683466206153193 1.4173715321286717
0.40516201209459846 1.6255240637147392 -0.5366131922215769 0.8043754889459827 0.5195211592656637 0.950907851268825 -0.5571497748135995 0.3456528887465208
0.6001751326728398 0.6813310743780883 -0.612584791449013 -0.17226167420853333 0.6674364529342695 0.45916997975528234 -0.5497679526411681 0.19758081972057998
-0.48175126333455054 0.01679075690459287 -0.007435228172923776 -0.780119398897748 0.09749562297647206 -1.038276623422114 -0.15647104937007902 -1.0042067521091034
0.07479629599313337 -0.5321731361659748 -0.09500273448589527 -0.5038840088493344 0.6021724849784099 0.20898246434600737 -0.6038109862913074 0.22455632136560705
0.899820014351956 1.7887862980042117 -0.8115644199797677 1.6363348357284497 0.03222848816744354 2.2050990770324295 0.10414200004713725 1.4797277245634126
0.10154989996786022 0.5570436882622531 0.06650360191553918 -0.34406099977679006 0.026261593491168172 -1.038814033325359 -0.10156047840216816 1.0480693959974134
-0.3473495773936499 0.24458282861711128 -0.5010374010549762 -0.3094820163924026 -0.6343084080172724 -0.7614823452697086 -0.11211534417790989 1.1894815769653606
0.029768755543369375 -0.4395278615331471 0.14212570458361237 -1.4073146694179968 0.24017545824844977 -2.0762088573266735 -0.04723802580826078 1.283338159853641
0.1342078287197817 -0.32923008968732087 0.25404986959640946 -1.2497594140220476 0.35377205728220135 -1.8825771397705198 0.03751397820476153 1.3369504322748513
0.04875600372620858 0.5873615906104579 0.06995666596430965 0.13399499939118834 0.10259732939598727 -0.22719204704615362 0.0 0.0
