data/QIPEDC/W02520B.npy (npy, 279968 bytes, 1 tensors)

array f8 [22, 15, 106]
00000000: 0000 0000 0000 0000 0000 0000 0000 0000
00000010: 0000 0000 0000 0000 0000 0000 0000 0000
00000020: 0000 0000 0000 0000 0000 0000 0000 0000
00000030: 0000 0000 0000 0000 0000 0000 0000 0000
00000040: 0000 0000 0000 0000 0000 0000 0000 0000
00000050: 0000 0000 0000 0000 0000 0000 0000 0000
00000060: 0000 0000 0000 0000 0000 0000 0000 0000
00000070: 0000 0000 0000 0000 0000 0000 0000 0000
00000080: 0000 0000 0000 0000 0000 0000 0000 0000
00000090: 0000 0000 0000 0000 0000 0000 0000 0000
000000a0: 0000 0000 0000 0000 0000 0000 0000 0000
000000b0: 0000 0000 0000 0000 0000 0000 0000 0000
000000c0: 0000 0000 0000 0000 0000 0000 0000 0000
000000d0: 0000 0000 0000 0000 0000 0000 0000 0000
000000e0: 0000 0000 0000 0000 0000 0000 0000 0000
000000f0: 0000 0000 0000 0000 0000 0000 0000 0000
00000100: 0000 0000 0000 0000 0000 0000 0000 0000
00000110: 0000 0000 0000 0000 0000 0000 0000 0000
00000120: 0000 0000 0000 0000 0000 0000 0000 0000
00000130: 0000 0000 0000 0000 0000 0000 0000 0000
00000140: 0000 0000 0000 0000 0000 0000 0000 0000
00000150: dd09 b0fc 9dc2 f1bf da89 422f e142 e0bf
00000160: 75f8 d583 ff1d eabf f2af 93db 0a90 f1bf
00000170: 2c20 6cab c129 debf bb71 985a 28d3 f6bf
00000180: 155f 9d11 28ad c7bf 8a98 2b4c 6faa fbbf
00000190: 724c 8eec af1a 66bf 3c34 8703 841e 00c0
000001a0: dce6 ef4e bc5f c2bf 685d a0e1 21e0 e2bf
000001b0: ff00 9bac 06b1 d43f 257a fc67 9ec0 e0bf
000001c0: 06bf 66b1 223d e33f 8825 f5f2 414d dabf
000001d0: 0130 e62c cca7 e93f be04 ceca 810c d2bf
000001e0: 03fd f993 527f c9bf f045 13bc 8c87 c0bf
000001f0: c588 4dfd 8fa1 d13f d183 e520 fda2 c73f
00000200: f879 06e7 2ffb e13f 1470 8bc5 9c9f d93f
00000210: 2b45 a2a8 4639 e83f b5bb 5b52 8695 e23f
00000220: 5ada 71b7 0391 d5bf 8987 6ec4 b4b8 cf3f
00000230: 2a3b 23f6 bdd2 b03f 975e cb14 a401 e63f
00000240: f83a 8efb 4e71 d43f 09aa a428 b4fe ee3f
00000250: 1a6a ef96 ac34 e03f fea9 c871 99e1 f23f
00000260: c58c af42 e0f5 e0bf 84b0 c895 c6ef e03f
00000270: cfaf 3d8d ff8a d2bf e50a c5e0 b583 f03f
00000280: 6b15 6c7c 4021 c1bf 32ba 99f1 3044 f53f
00000290: 5d72 f8db 168d 793f 77ff c987 2d24 f93f
000002a0: b295 fab4 a11a 08c0 1b42 c2ab 7f30 06c0
000002b0: 8efd e210 10fc 983f 2098 fba5 fc92 ff3f
000002c0: 5a58 fe27 919d b33f 130b 5fbd 4995 e9bf
000002d0: ce7c 73d2 a4da c53f 3643 a7a6 36ad eebf
000002e0: 4d33 6155 4b15 a1bf 6b06 ff8b 252f f0bf
000002f0: f5cc 6374 f3ba c03f 8a19 559c 6f0c e2bf
00000300: 8406 dd13 286d 97bf ec00 86ac f337 e3bf
00000310: fe5b c1ce 1b53 e13f 2dad efde 5b78 d33f
00000320: c15e 9ded cab1 e1bf e42c cfad a3f5 ca3f
00000330: eef7 4a12 97af e53f 6b35 b641 8369 fc3f
00000340: 4697 2f34 429d efbf 79b4 43b3 484c fa3f
00000350: 0000 0000 0000 0000 0000 0000 0000 0000
00000360: 0000 0000 0000 0000 0000 0000 0000 0000
00000370: 0000 0000 0000 0000 0000 0000 0000 0000
00000380: 0000 0000 0000 0000 0000 0000 0000 0000
00000390: 0000 0000 0000 0000 0000 0000 0000 0000
000003a0: 0000 0000 0000 0000 0000 0000 0000 0000
000003b0: 0000 0000 0000 0000 0000 0000 0000 0000
000003c0: 0000 0000 0000 0000 0000 0000 0000 0000
000003d0: 0000 0000 0000 0000 0000 0000 0000 0000
000003e0: 0000 0000 0000 0000 0000 0000 0000 0000
000003f0: 0000 0000 0000 0000 0000 0000 0000 0000
00000400: 0000 0000 0000 0000 0000 0000 0000 0000
00000410: 0000 0000 0000 0000 0000 0000 0000 0000
00000420: 0000 0000 0000 0000 0000 0000 0000 0000
00000430: 0000 0000 0000 0000 0000 0000 0000 0000
00000440: 0000 0000 0000 0000 0000 0000 0000 0000
00000450: 0000 0000 0000 0000 0000 0000 0000 0000
00000460: 0000 0000 0000 0000 0000 0000 0000 0000
00000470: 0000 0000 0000 0000 0000 0000 0000 0000
00000480: 0000 0000 0000 0000 0000 0000 0000 0000
00000490: 0000 0000 0000 0000 0000 0000 0000 0000
000004a0: 41e2 6464 524a f2bf 084c b8bd 7998 e0bf
000004b0: 220c 16bf caca eabf 8226 5510 b11e f1bf
000004c0: 14c2 820f 4544 dfbf 9d81 6812 16a4 f6bf
000004d0: 4153 e819 b53c c9bf 7089 40eb 87bc fbbf
000004e0: 0af3 036e 1106 80bf fd68 4796 dd0f 00c0
000004f0: fbb0 fac4 3967 c3bf 1b49 8987 7b59 e3bf
00000500: 82a1 5d89 a646 d53f f623 5914 461a e0bf
00000510: 0fc7 743e 5340 e33f a9e4 f9d2 6893 d8bf
00000520: 0326 d156 078c e93f 6f00 a148 6905 d0bf
00000530: 6567 421b 5f4d cbbf 6a53 c413 4e83 c2bf
00000540: cfdc dbba 8b62 d23f d0f0 c69b 39dc c33f
00000550: 0f87 bca3 2f68 e23f e1b3 670b f3b1 d73f
00000560: 9fcd 997c 51c2 e83f 73d5 2f84 370a e23f
00000570: f3c1 c82d 9365 d6bf f689 2d85 3b9b cf3f
00000580: d5d5 966d eee6 b23f 1902 e9ad 8e28 e53f
00000590: e4eb f066 2ca1 d43f 7dd5 020b d72e ee3f
000005a0: 5d76 1b2d 4425 e03f 025e bd71 e194 f23f
000005b0: fd0b b6eb 46f1 e0bf 031c ac4e fd19 e23f
000005c0: a0df 4594 361c d1bf 7e72 b02d aeb4 f03f
000005d0: eae7 c91b 3b56 bcbf 9f89 032f 2d6b f53f
000005e0: cfc3 2dc3 7f98 9b3f 95e8 6bb5 d04d f93f
000005f0: ddad 6d39 1b46 08c0 66c4 a62c ad64 06c0
00000600: d919 e6d9 49f2 943f 7ece 8255 479d ff3f
00000610: 0bed 7ac1 1390 b43f ec4d b631 466d e9bf
00000620: fb0c 1924 7c35 c63f 6835 1bb0 53bf eebf
00000630: e24d 3f87 34a9 9ebf cec7 8f90 a01d f0bf
00000640: d0b3 9403 9e12 c13f a187 9618 1926 e2bf
00000650: f738 b213 b3e9 8fbf 4ebd ad16 c914 e3bf
00000660: 876f 3413 633e e13f e2dc d85e 0609 d33f
00000670: 3515 31f1 bce6 e1bf b3e4 20dc 9e80 ca3f
00000680: a9f7 61e1 3eb2 e53f a991 6285 c067 fc3f
00000690: 735c f794 fdf8 efbf 7bc6 7da0 4857 fa3f
000006a0: 0000 0000 0000 0000 0000 0000 0000 0000
000006b0: 0000 0000 0000 0000 0000 0000 0000 0000
000006c0: 0000 0000 0000 0000 0000 0000 0000 0000
000006d0: 0000 0000 0000 0000 0000 0000 0000 0000
000006e0: 0000 0000 0000 0000 0000 0000 0000 0000
000006f0: 0000 0000 0000 0000 0000 0000 0000 0000
00000700: 0000 0000 0000 0000 0000 0000 0000 0000
00000710: 0000 0000 0000 0000 0000 0000 0000 0000
00000720: 0000 0000 0000 0000 0000 0000 0000 0000
00000730: 0000 0000 0000 0000 0000 0000 0000 0000
00000740: 0000 0000 0000 0000 0000 0000 0000 0000
00000750: 0000 0000 0000 0000 0000 0000 0000 0000
00000760: 0000 0000 0000 0000 0000 0000 0000 0000
00000770: 0000 0000 0000 0000 0000 0000 0000 0000
00000780: 0000 0000 0000 0000 0000 0000 0000 0000
00000790: 0000 0000 0000 0000 0000 0000 0000 0000
000007a0: 0000 0000 0000 0000 0000 0000 0000 0000
000007b0: 0000 0000 0000 0000 0000 0000 0000 0000
000007c0: 0000 0000 0000 0000 0000 0000 0000 0000
000007d0: 0000 0000 0000 0000 0000 0000 0000 0000
000007e0: 0000 0000 0000 0000 0000 0000 0000 0000
000007f0: 1d36 3bec f44f f2bf 0b7e 15d6 f0d8 e0bf
0.0 0.0 0.0 0.0 0.0 0.0 0.0 0.0
0.0 0.0 0.0 0.0 0.0 0.0 0.0 0.0
0.0 0.0 0.0 0.0 0.0 0.0 0.0 0.0
0.0 0.0 0.0 0.0 0.0 0.0 0.0 0.0
0.0 0.0 0.0 0.0 0.0 0.0 0.0 0.0
0.0 0.0 -1.1100139494525287 -0.5081640170140489 -0.8161618781011969 -1.0976666047308723 -0.47129861584153576 -1.426552156342139
-0.18497181758970585 -1.729110047855587 -0.0026982723251847635 -2.0149002338062285 -0.14354661802626978 -0.5898599058881873 0.3233048139191083 -0.5235130339604593
0.6012128319616472 -0.4109654305107928 0.8017331005989946 -0.2820133667483552 -0.19919807649055352 -0.12913664992679186 0.2754859899197409 0.18466152292515273
0.5619124901020873 0.4003669671199088 0.7569917005186303 0.5807525261460486 -0.336975983758213 0.24782428351778332 0.0657156682893684 0.6877003103390561
0.31941580358481714 0.9685917657673723 0.5064299533799528 1.1800779766732599 -0.5300141622978108 0.5292694974391599 -0.289733779841069 1.032155874258643
-0.13382726741125892 1.3291482388991764 0.006238068860991844 1.571332483697885 -3.0130037440273663 -2.7736810129793077 0.02439904311245083 1.9733854755118116
0.07662303186802558 -0.7994736384065128 0.17073498035367723 -0.9586442236851329 -0.033365587398839304 -1.0115104168511617 0.13070529158685643 -0.5640180638663861
-0.022877336704601806 -0.6005800599669135 0.5413950956525466 0.3042211224662477 -0.5529532090103758 0.21062131869107426 0.6776843411714688 1.7757599417558037
-0.9879466075187586 1.6436240198629817 0.0 0.0 0.0 0.0 0.0 0.0
0.0 0.0 0.0 0.0 0.0 0.0 0.0 0.0
0.0 0.0 0.0 0.0 0.0 0.0 0.0 0.0
0.0 0.0 0.0 0.0 0.0 0.0 0.0 0.0
0.0 0.0 0.0 0.0 0.0 0.0 0.0 0.0
0.0 0.0 0.0 0.0 -1.1431449815410277 -0.5186127381770129 -0.8372548801565964 -1.0699930799477504
-0.4885418559524919 -1.4150601119109532 -0.19716514363303797 -1.73352805991507 -0.007824073953537364 -2.007746862463249 -0.15158769720199658 -0.6046731612389381
0.3324371663534508 -0.5032072446275595 0.6016021938177988 -0.3839971599878234 0.7983433433193458 -0.2503302773730018 -0.21329869109177504 -0.14463211026363904
0.28726475952084923 0.1551582346563749 0.5752180288293135 0.37023616899278805 0.7737204965218786 0.5637471753858975 -0.34994964095224573 0.2469248199732445
0.07383623290555559 0.6612008473094334 0.3223372464451002 0.9432177748737299 0.5045491105081045 1.1613478129346508 -0.5294527629597493 0.5656725441521079
-0.26734699706821097 1.0441114220367633 -0.11069077900347649 1.338666137359361 0.026948925292746225 1.5814978682306322 -3.0342316137882634 -2.7991584289925866
0.020455507206429722 1.975898107554627 0.08032344316136546 -0.7945891352596255 0.1735072304019026 -0.9608553351951459 -0.029942341570700644 -1.0072332045497094
0.13338065314147096 -0.5671506386026871 -0.015582465208606495 -0.5962872927611131 0.5388656020254395 0.297425835250989 -0.5594162665153478 0.2070501875730649
0.678008499336774 1.7753300867417272 -0.9991443547722966 1.6463094968025007 0.0 0.0 0.0 0.0
0.0 0.0 0.0 0.0 0.0 0.0 0.0 0.0
0.0 0.0 0.0 0.0 0.0 0.0 0.0 0.0
0.0 0.0 0.0 0.0 0.0 0.0 0.0 0.0
0.0 0.0 0.0 0.0 0.0 0.0 0.0 0.0
0.0 0.0 0.0 0.0 0.0 0.0 -1.1445206859383525 -0.5264820271804082
