data/QIPEDC/W02670.npy (npy, 356288 bytes, 1 tensors)

array f8 [28, 15, 106]
0	0x0000000000000000	0.0
1	0x0000000000000000	0.0
2	0x0000000000000000	0.0
3	0x0000000000000000	0.0
4	0x0000000000000000	0.0
5	0x0000000000000000	0.0
6	0x0000000000000000	0.0
7	0x0000000000000000	0.0
8	0x0000000000000000	0.0
9	0x0000000000000000	0.0
10	0x0000000000000000	0.0
11	0x0000000000000000	0.0
12	0x0000000000000000	0.0
13	0x0000000000000000	0.0
14	0x0000000000000000	0.0
15	0x0000000000000000	0.0
16	0x0000000000000000	0.0
17	0x0000000000000000	0.0
18	0x0000000000000000	0.0
19	0x0000000000000000	0.0
20	0x0000000000000000	0.0
21	0x0000000000000000	0.0
22	0x0000000000000000	0.0
23	0x0000000000000000	0.0
24	0x0000000000000000	0.0
25	0x0000000000000000	0.0
26	0x0000000000000000	0.0
27	0x0000000000000000	0.0
28	0x0000000000000000	0.0
29	0x0000000000000000	0.0
30	0x0000000000000000	0.0
31	0x0000000000000000	0.0
32	0x0000000000000000	0.0
33	0x0000000000000000	0.0
34	0x0000000000000000	0.0
35	0x0000000000000000	0.0
36	0x0000000000000000	0.0
37	0x0000000000000000	0.0
38	0x0000000000000000	0.0
39	0x0000000000000000	0.0
40	0x0000000000000000	0.0
41	0x0000000000000000	0.0
42	0xbff426f8bb800506	-1.2595145534726853
43	0x3ff5096d7dffa2d5	1.31480168550677
44	0xbff1f25e8c5d7016	-1.1216721995360834
45	0x3fd586432c109e94	0.3363197260209543
46	0xbfe52cee03fb6d19	-0.6617345884109539
47	0xbfd0e72be9570c02	-0.26410959040748605
48	0xbfc82c141e89b4d0	-0.18884517184361593
49	0xbfc51d57d5473fd1	-0.1649579802892718
50	0x3fbf0a063eef55ab	0.12124671017166715
51	0x3fc3c60e30d97d8c	0.15448167214615827
52	0xbfe0b1cba445f005	-0.5217035492382825
53	0xbfe352afbe0e9d92	-0.6038435661366057
54	0x3fad36d07ba9fe81	0.05705882558413312
55	0xbff27a4d092aacdc	-1.1548586233209823
56	0x3fd9d13aaae9a93b	0.40339533510872955
57	0xbff7a2e23fefd767	-1.4772665498289486
58	0x3fe5e35077f9020e	0.6839983313767009
59	0xbffb5c3708c7a14d	-1.7100134222947247
60	0xbfd6e5f145269a60	-0.3577845740605081
61	0xbfb4ed2f8e8a5b84	-0.08174416761390374
62	0x3fd06c306d93d28f	0.2566033430187326
63	0xbfe811804b6cf52a	-0.7521363709599076
64	0x3fe479225ae8d7aa	0.639786889608094
65	0xbff20c68ac3befba	-1.1280295112510275
66	0x3feec7ce8dbc4d8f	0.9618904846451403
67	0xbff6ae6efcc7325a	-1.4175863145966532
68	0xbfcd78f700732842	-0.23025405427898887
69	0x3fe2f73ac236460e	0.5926793854907275
70	0x3fda16f33b7a9adf	0.40765076454628785
71	0x3fd5225e489ecefe	0.3302226742919031
72	0x3fcdef03c3ea220e	0.23385665002958017
73	0x3fe1ecee3f20e9b0	0.5601721985797692
74	0xbf75b8ac0fb7dbc0	-0.005303070177879954
75	0x3fe7e7049556c89a	0.7469504277016938
76	0xbfc170acc7718122	-0.13625106562086226
77	0x3ff510f31bdbfc5a	1.3166380966429387
78	0x3fd9e764c9f2cf3d	0.40474815103083356
79	0x3ff044a97ec7f598	1.0167632057558418
80	0x3fd0e5df4424525b	0.2640302815864623
81	0x3ff1ef846a2d4c21	1.1209758899247009
82	0x3fa8fbeda11c5640	0.048797059933502585
83	0x3ff43b8f7c1b7a39	1.2645411346380924
84	0xc00e72eda65a87e9	-3.8061173435571516
85	0xc00c3a4bfdbf7d7f	-3.528465254217451
86	0xbfc785dac63c5f1f	-0.1837724178264972
87	0x3feb849503d528b0	0.8599343371254431
88	0x3f851d1685a970f0	0.010309387163197375
89	0xbfe88c4a517690f7	-0.7671252814366473
90	0x3fba30dd812f82aa	0.10230812457985886
91	0xbff01ab306b4b4ca	-1.006518388934
92	0xbfc1ae2af70dd4e1	-0.13812768042740856
93	0xbfef8d1f2e6e5033	-0.9859767824987159
94	0x3fb6ff3803b3780e	0.08983182993276292
95	0xbfe043aeeecb40bf	-0.5082621253914325
96	0xbfb76b33eb746431	-0.09147953508762964
97	0xbfdd06a1ebc8d02a	-0.45352981592009434
98	0x3fe2f6c9a97f792b	0.5926254568583195
99	0x3fc79e50bb02666d	0.18451890116994055
100	0xbfe55b78ef700bde	-0.6674160648839196
101	0x3fd36b721ab15081	0.3034329662962208
102	0x3ff1e6f1a78d6c23	1.1188828034417007
103	0x3ff5bfac5b0a4d89	1.3592952305087656
104	0xbff0455cec55a475	-1.016934321576881
105	0x3ffdfc94bfe80b57	1.874165296205964
106	0xbff36365baf63932	-1.2117669394679749
107	0x400400f3a1dd3d4a	2.500464691700164
108	0xbfef7071c171c021	-0.9824761179170346
109	0x3fffc1040f13cf48	1.984623011489889
110	0xbfef5db1e3b3aa61	-0.9801873633671897
111	0x3ff20c412a3f4d67	1.1279918337139294
112	0xbfec7166f9e7601b	-0.8888430481847566
113	0x3febd4988af5891f	0.8697016443295843
114	0xbfddfc2bcd48850c	-0.46851630255885435
115	0x3fd562a2813b34cc	0.3341451894783176
116	0xbfda830266e6b93b	-0.4142461781401782
117	0x3fb56a548495fedb	0.08365371930085123
118	0x3fa1e460f42b5755	0.03494551640112201
119	0x3fd5286c1029fd76	0.3305921705104632
120	0x3fba0d1d6a0a052f	0.10176261748167258
121	0x3f98dcacd77ed4d9	0.024279308941648068
122	0x3fd7c8d276805155	0.3716322095144922
123	0x3fe030db8625459f	0.5059640522032857
124	0x3fdcd44632ad6039	0.4504561896224036
125	0x3fd155b820af8b79	0.2708568877407554
126	0xbfd54739adb33963	-0.3324722477235779
127	0xbfc7e5002b68a74c	-0.18667604560442397
128	0xbfcc802d8be546b3	-0.22266167956199964
129	0xbfd924b32609e09d	-0.39286497797685077
130	0x3fd01166a834f439	0.2510620730061564
131	0xbfe93608936ddaab	-0.7878458861803969
132	0x3fda220e2bfa6016	0.4083285741303383
133	0xbff0671f61b0dc69	-1.0251764122056335
134	0x3fe42837153d4920	0.6299090781051611
135	0xbff35bf770b0a107	-1.2099527742339562
136	0x3fe9a91abde43db3	0.8018926342792184
137	0xbff6143a17046f48	-1.3799382113565617
138	0x3fedf2c83da3c536	0.9358864978695809
139	0xbff8eb72de2bde10	-1.5574825933998717
140	0x3ff1834ef95032a3	1.0945577372359956
141	0xbffa35a4931f4151	-1.6380964037853867
142	0xbfb9da368ba36a28	-0.10098591717852712
143	0x3fd50a766f89d54b	0.32876358883307394
144	0xbf82d9c6b981f43e	-0.009204437767261205
145	0x3fc740586b68def9	0.18165116543399742
146	0x3fe0fd5ad6a61517	0.5309271042212086
147	0xbfd7567d8efe4d33	-0.364653958932837
148	0x3f4668b20eb1e46c	0.0006838673993022743
149	0xbff73abf84fd2f5d	-1.4518428034670798
150	0x3fd3e6f1388716b9	0.3109705974605777
151	0xbffb56081a99e86a	-1.7085038222417332
152	0x3fdb5873fbfd639d	0.42727374657038714
153	0xbffed56e239253e2	-1.927106989814313
154	0x3fe4b459cab21f32	0.6470154723074073
155	0xc000e525f4c00c48	-2.1118888016804114
156	0x3fe87b8680bf3c20	0.7650787844266951
157	0xc002ce5d692d056d	-2.3507641045441034
158	0xbfe168423889948f	-0.5439768890615982
159	0x3fd06ddd3220f921	0.25670556922331583
160	0xbfdf23a1446c8693	-0.48654967958473455
161	0x3fc0cfef2be3d2f4	0.1313456501299225
162	0x3fc25ef722458efe	0.1435231129972791
163	0xbfa73e980cde7ad2	-0.045399428912096376
164	0x3fc57232e9003790	0.16754757287020228
165	0xbfb6ae4380113fd3	-0.0885965526260855
166	0xbfa4b7e8c9c0c315	-0.04046561682515041
167	0x3fd08d390b3fc94b	0.2586195573668603
168	0xbfa3d035ac4f6f0c	-0.0386978886451442
169	0x3fcf3c567d886473	0.24402886514215857
170	0xbfd3c271cf971270	-0.30874295494530823
171	0x3fdfef354ed09aaa	0.4989751119305007
172	0xbfd4c88837ac54a0	-0.32473950802643436
173	0x3fdc91b04f71e28f	0.44639213331496647
174	0xbfd73e2fcae166a5	-0.36317057430788174
175	0x3ff26bb3d555b01e	1.1512945493113942
176	0xbfd62998e71e04f4	-0.3462888962749979
177	0x3ff013eb56c48bda	1.0048631085744462
178	0x3fc9182fbf1778b2	0.1960506136956091
179	0x3fe882c3f96ecc90	0.7659625884756611
180	0x3fcb2b4d797f72fc	0.21225899155151484
181	0x3fe6759e9ac9662d	0.7018578551462206
182	0x3f75f0d3047426ba	0.005356621062000572
183	0x3feece656d0d2fbb	0.9626948480522438
184	0x3fa2ba32628631cd	0.03657681896865803
185	0x3fed83e3b6e33ea3	0.9223497936272519
186	0xbfcfdc92a2328f97	-0.2489188472728727
187	0x3ff37655b237c28f	1.2163903199799824
188	0xbfcafb03a043543e	-0.2107853443655205
189	0x3ff1f64310eef069	1.1226225530108656
190	0xbfccff034f792325	-0.22653237705733278
191	0x3fe09dfce4d47042	0.5192856282551548
192	0xbfba87bee756335c	-0.10363381526822252
193	0x3fe5b89452d627a9	0.6787816636944984
194	0x3f7522344aa41fd8	0.005159572853024451
195	0xbfe86013ffe126a2	-0.7617282865187074
196	0x3fb8f89fef863de7	0.09754371259463533
197	0xbff00c5c74ddd7a2	-1.0030178608990146
198	0xbfc26d57e0792003	-0.14396189175226945
199	0xbfef65aaafc72fd7	-0.9811604912915709
200	0x3fb5cc8beda1159d	0.08515238334174176
201	0xbfe06446cf2caad8	-0.5122407957436179
202	0xbfb90e46d9d0c141	-0.09787409608612042
203	0xbfde29feb747153a	-0.4713131704159711
204	0x3fe2d1d8953d6004	0.5881159701193615
205	0x3fc8e8d7559a1ea6	0.19460574798380498
206	0xbfe5bae9243535df	-0.6790662486252436
207	0x3fd2e50217eade4b	0.29522754989327343
208	0x3ff1e75548673303	1.118977816414543
209	0x3ff5c00cc86fbc4f	1.3593871907758233
210	0xbfef2b6512b862ba	-0.9740472188596734
211	0x3ffe1576a8fc65dc	1.8802401162159788
212	0x0000000000000000	0.0
213	0x0000000000000000	0.0
214	0x0000000000000000	0.0
215	0x0000000000000000	0.0
216	0x0000000000000000	0.0
217	0x0000000000000000	0.0
218	0x0000000000000000	0.0
219	0x0000000000000000	0.0
220	0x0000000000000000	0.0
221	0x0000000000000000	0.0
222	0x0000000000000000	0.0
223	0x0000000000000000	0.0
224	0x0000000000000000	0.0
225	0x0000000000000000	0.0
226	0x0000000000000000	0.0
227	0x0000000000000000	0.0
228	0x0000000000000000	0.0
229	0x0000000000000000	0.0
230	0x0000000000000000	0.0
231	0x0000000000000000	0.0
232	0x0000000000000000	0.0
233	0x0000000000000000	0.0
234	0x0000000000000000	0.0
235	0x0000000000000000	0.0
236	0x0000000000000000	0.0
237	0x0000000000000000	0.0
238	0x0000000000000000	0.0
239	0x0000000000000000	0.0
240	0x0000000000000000	0.0
241	0x0000000000000000	0.0
242	0x0000000000000000	0.0
243	0x0000000000000000	0.0
244	0x0000000000000000	0.0
245	0x0000000000000000	0.0
246	0x0000000000000000	0.0
247	0x0000000000000000	0.0
248	0x0000000000000000	0.0
249	0x0000000000000000	0.0
250	0x0000000000000000	0.0
251	0x0000000000000000	0.0
252	0x0000000000000000	0.0
253	0x0000000000000000	0.0
254	0xbff48f32ea7dfabf	-1.2849606666419928
255	0x3ffee04559752d25	1.9297536367838088
