data/QIPEDC/W02772.npy (npy, 407168 bytes, 1 tensors)

array f8 [32, 15, 106]
1.1414486032880096 0.5694674384701861 -1.2702731062455952 0.6330122504765298 0.9855061797104364 0.45592842508273107 -1.0964725624485852 0.5616329601831892
0.873370531858088 0.2509628375370555 -0.966313037671904 0.36933137044010356 0.7817911893934897 0.0930780298858806 -0.865570998548056 0.2246099954392923
0.6841431723451687 0.02489512261829195 -0.7621876758113066 0.2025884749996833 0.9079580186162346 -0.09314375236046704 -1.0235869271747455 0.023718126314498218
0.8245731186261309 -0.35977949305972806 -0.9217176806080892 -0.20822560194330494 0.7825772967514097 -0.5328220710289402 -0.8654089528141653 -0.35482410977754447
0.7535581219864605 -0.6786459136658589 -0.8261570847501539 -0.4763163525241607 1.0173778541879954 -0.16570344068102277 -1.134552072922559 -0.0591258996516078
0.9799360122317362 -0.4806383967548021 -0.793555245158457 0.06677280795738096 0.8746810394954746 -0.17826693222451065 -0.7656342633694002 -0.0757794350257487
0.8644114737710797 -0.3019023784799484 -0.749247470103526 -0.18911601147276064 1.0086118188595412 0.24089994886254104 -0.9351298432691718 0.31696021469358704
1.0126330465285591 -0.01404356123618548 -0.933069715637507 0.06851311687884498 1.0184564753654861 -0.15710584685430365 -0.9254893048657881 -0.07869367565835271
1.016887696384169 -0.2747599758890267 -0.916983794475779 -0.2011519061242677 1.0970914586486384 0.29443270009472583 -1.0292803285611032 0.3612379278002447
1.1258003666281504 0.09739885984819947 -1.0663199329120943 0.17665706015983962 1.1409253159307915 -0.02766591836799363 -1.088766356037042 0.06226831552326496
1.1470584586213568 -0.14051316713597004 -1.1030808958433764 -0.046142143349563694 0.07627474331048471 -0.8174608125003193 -0.008374809916707398 -1.1812418487375618
0.00578691251552473 -0.7369971034524727 0.12303950767570648 -0.9684523586080771 -0.15268216069951904 -0.9337449187317006 0.11604897900182615 -0.46292127064406746
-0.09978631828748487 -0.4598948651074269 0.648520995801011 0.56615345480946 -0.6589713980495387 0.5115040359018521 1.3776754402812836 1.189933803444695
-1.3596319582388101 1.2944192223877384 1.1784097790493582 0.553553339481054 -1.2813742308803113 0.6288365981874934 1.00344840088994 0.4357432347439496
-1.1064894608495899 0.5586432736788826 0.8764224670237628 0.22196310148910853 -0.9811546997068296 0.37508343778047787 0.7732551370032471 0.05755111328729687
-0.8805611453042129 0.2153542019159842 0.6679614485870534 -0.009363190183352873 -0.7711882349763591 0.17447024617468337 0.9191627214129405 -0.0887836097223155
-1.0261883697135072 0.031851339289761624 0.8264771859423576 -0.34004378711774674 -0.9229112776262453 -0.18501597279840476 0.7788095482166619 -0.512005216708028
-0.862484523877801 -0.32415275053945064 0.7474890551296128 -0.6608361415581615 -0.8204099233127622 -0.43044105709712854 1.032189968232791 -0.17256522058780557
-1.1376296995161759 -0.05804733408730331 0.9867658542760744 -0.4717956056289957 -0.7920996482318268 0.0870666086561349 0.8726278693726668 -0.16273455392419187
-0.7650128382109149 -0.05040458258815795 0.8610186759900694 -0.28372407533745475 -0.7476780435946716 -0.1570827166609369 1.0181777848209503 0.22299555745565747
-0.933540753584715 0.3095604540274662 1.0093376176460087 -0.016987934554865587 -0.9337426889930194 0.08357825294998558 1.010233248265224 -0.16462652129241157
-0.9261954838948245 -0.05536507880976979 1.0095379836081346 -0.29097988659516894 -0.9163391003192838 -0.16754019812285526 1.110048978922374 0.26203317697736034
-1.031985834579281 0.34635899700113076 1.1329712635085525 0.06456310462526121 -1.0704228793633324 0.17914313863258308 1.146396829268437 -0.06326462457504493
-1.0944511003566493 0.07005982829120465 1.152281729289204 -0.1791117247971679 -1.111163609563105 -0.03353722135875391 0.07789621203659068 -0.9059533556603535
-0.004693508069662752 -1.2576681469469506 0.00655953165454999 -0.7441955704108769 0.12411256683272252 -0.9632640353512048 -0.1522480173550195 -0.9335276884949257
0.11847418529957164 -0.4581145712760558 -0.09809266030612808 -0.45943745477226106 0.6509501748884188 0.5941025453778725 -0.6719613569198054 0.5671394902921453
1.3771382872953746 1.1737711383701677 -1.354932711389684 1.2235261462651401 1.2004712119027638 0.5178378023930812 -1.3098355667375565 0.6232541330505131
1.0178309740637421 0.39743281429637495 -1.1235500288750686 0.5691744072259041 0.8842896819785958 0.18971683247860227 -0.98653830108026 0.36947365511629815
0.7766658991294377 0.027218547038831198 -0.8829461307789223 0.19819456319333717 0.6712116420469388 -0.031385163595307616 -0.7709799400756433 0.1549839466551596
0.9245923821735902 -0.08367899112096962 -1.0350159918536144 0.03530258132344675 0.830455638836721 -0.31138689779812634 -0.925104205113473 -0.1658950898640212
0.7808928495479567 -0.47498907714980065 -0.8614750753419287 -0.29775822154797693 0.7463301291891947 -0.6173185596239021 -0.8170286614843144 -0.3945437732620854
1.0394450087669171 -0.17968218445604303 -1.1502495608580117 -0.06496951644017541 0.990538044562938 -0.4609818079131426 -0.7884340500641479 0.09755691564854212
00000000: 75fd 529c 5f43 f23f 12b9 0bc7 1339 e23f
00000010: b902 85e4 0953 f4bf 2573 38e8 a241 e43f
00000020: 5597 7b41 4489 ef3f f303 c36a ee2d dd3f
00000030: 0dd9 4ad0 268b f1bf 7ff5 8aaf e5f8 e13f
00000040: 12dc f3c1 a6f2 eb3f b6e9 ee6e c60f d03f
00000050: cef9 cf51 09ec eebf b455 5b0b 20a3 d73f
00000060: 12df d7f4 6e04 e93f fc01 5636 f6d3 b73f
00000070: aa28 64f3 c1b2 ebbf ad1b 6234 05c0 cc3f
00000080: 5622 e038 80e4 e53f 9ce2 e665 1b7e 993f
00000090: 12c3 a068 d763 e8bf 96c7 554d 6bee c93f
000000a0: 4020 83f9 fd0d ed3f 9205 37da 44d8 b7bf
000000b0: 3742 8daf 9c60 f0bf 2267 5f83 9049 983f
000000c0: 661e 352a e762 ea3f a5a1 1d91 a006 d7bf
000000d0: 396a cb13 b67e edbf 0ba9 44f3 22a7 cabf
000000e0: e675 048b df0a e93f 4e00 35df e00c e1bf
000000f0: 0c14 c01d 6eb1 ebbf 65eb d42e 70b5 d6bf
00000100: 1525 32ec 251d e83f f048 98a2 77b7 e5bf
00000110: 218a 8bfb e06f eabf b00a 2995 f77b debf
00000120: f397 3600 2e47 f03f 3aa3 4735 c535 c5bf
00000130: 7dfb 0c13 2027 f2bf c751 b3fa bf45 aebf
00000140: a2a7 96c4 a25b ef3f 3de1 d08c c7c2 debf
00000150: 73cb 30f8 cd64 e9bf e964 70d2 0518 b13f
00000160: 230f 6217 63fd eb3f 1d67 ee69 73d1 c6bf
00000170: c6cb 3b6d 1380 e8bf 491b 25f3 4766 b3bf
00000180: 5049 4440 42a9 eb3f c8fb 895a 5e52 d3bf
00000190: 7d92 96d4 d5f9 e7bf ba75 3616 f434 c8bf
000001a0: dcc5 8525 4623 f03f fb80 fc3c cfd5 ce3f
000001b0: b159 cb6b 95ec edbf 7c7e 0f7f 1349 d43f
000001c0: 2d06 9bb5 be33 f03f d68f d4e1 dec2 8cbf
000001d0: b6a2 3105 b5db edbf 5877 575c 138a b13f
000001e0: d081 6104 994b f03f 81f3 1f5d 0b1c c4bf
000001f0: 5d48 26bf 9b9d edbf bfca 5acb 4425 b4bf
00000200: eacb 7a08 2c45 f03f 0c5c acdd aa95 d1bf
00000210: dc88 0766 ee57 edbf 2878 2a7d 58bf c9bf
00000220: 92de f9c5 af8d f13f a1e8 7140 fcd7 d23f
00000230: 8e60 59a6 ee77 f0bf e184 7eaf 851e d73f
00000240: 2ae2 c73e 4703 f23f 6538 b7b5 21ef b83f
00000250: c0e2 6e7d a50f f1bf e83b ffd3 b29c c63f
00000260: 969e 71e7 3a41 f23f abd7 6a5a 7454 9cbf
00000270: 83a0 4245 966b f1bf 91b5 7ff5 a1e1 af3f
00000280: f60f 66f8 595a f23f d7d0 c0e0 55fc c1bf
00000290: bfd5 4727 38a6 f1bf 62b4 4e69 f19f a7bf
000002a0: f381 07d8 bd86 b33f 2a6a ee93 a328 eabf
000002b0: 16ab 9ef5 cf26 81bf 17e9 4fda 5de6 f2bf
000002c0: d5de fb7f 04b4 773f 3667 12f3 7a95 e7bf
000002d0: 1046 9565 847f bf3f 8c95 fecc 8ffd eebf
000002e0: e18a 71cb 168b c3bf 5a48 1806 3de1 edbf
000002f0: 6c0a 8cc9 62b5 bd3f 8b7f 8289 80a0 ddbf
00000300: e90b a29d 988b b9bf d105 4fdf ea6e ddbf
00000310: a082 771a afc0 e43f c691 9dd9 ed1d e23f
00000320: cbe8 732f 4b16 e5bf 0c0e 3fb6 3d5e e03f
00000330: 112b 0867 f50a f63f 9d32 2307 f809 f33f
00000340: cbb6 b370 0dc1 f5bf 6281 37ee f0b5 f43f
00000350: 76db 6436 c4da f23f f134 357e b5b6 e13f
00000360: e616 f943 8280 f4bf 1bc8 f7ed 6d1f e43f
00000370: 8ebb 10e9 1f0e f03f c86c ab97 37e3 db3f
00000380: 8a7b fb4a 2eb4 f1bf 0399 d2db 67e0 e13f
00000390: 2a18 2b21 a70b ec3f e63f e872 4969 cc3f
000003a0: 51d7 718a 9e65 efbf 3375 a2f6 5d01 d83f
000003b0: 0393 9c8e 81be e83f 6cac d5ea 5677 ad3f
000003c0: 7db7 2691 8e2d ecbf c885 24fb b990 cb3f
000003d0: 1d72 15b0 f05f e53f 8b65 fd1c 022d 83bf
000003e0: d311 09f3 92ad e8bf b600 b980 0a55 c63f
000003f0: 5478 85f0 c769 ed3f ba9c 2dcc 85ba b6bf
00000400: f847 f77e 446b f0bf b6a9 2a99 d14e a03f
00000410: b466 9048 8072 ea3f c23c 3804 47c3 d5bf
00000420: 2575 503b 7d88 edbf 2c11 3478 9aae c7bf
00000430: 2ee6 6c00 02ec e83f 528e a4c3 5862 e0bf
00000440: a88f eb24 7999 ebbf bd6c 9e2d ebbe d4bf
00000450: c1c9 bc2a 6eeb e73f 693a 00d6 9125 e5bf
00000460: 5a26 be4f cc40 eabf 1a9f c5a5 588c dbbf
00000470: 1a1b cda0 d983 f03f e502 6dfd 9d16 c6bf
00000480: a315 2633 bb33 f2bf bcc6 0c53 61b8 adbf
00000490: 949b 1dfc 9593 ef3f daac 2432 e631 debf
000004a0: 8885 8a5c e158 e9bf 5f71 c04c ff49 b63f
000004b0: 9814 1148 91ec eb3f 734b 8461 7cd4 c4bf
000004c0: 445a 2434 fc7a e8bf 31c0 9123 a1ce a9bf
000004d0: 15ec d309 778d eb3f 9f61 2a06 8928 d2bf
000004e0: e1a4 2581 faec e7bf e5ab 6955 491b c4bf
000004f0: 851d f5c9 744a f03f 7871 3651 1e8b cc3f
00000500: 3d25 c4db 90df edbf 49b4 8ba6 d6cf d33f
00000510: 3598 a633 3f26 f03f c2e3 5bfd 4865 91bf
00000520: ee54 0359 38e1 edbf 82b6 1367 6265 b53f
00000530: 8518 aa56 ea29 f03f eea8 805a 7b12 c5bf
00000540: 50ff 20b6 64a3 edbf 2c27 a8c5 cf58 acbf
00000550: e5aa fa4c 1127 f03f 2015 2e1a 6a9f d2bf
00000560: 3c5b 7d60 a652 edbf b0fc d90b f571 c5bf
00000570: 6be0 d6b7 c2c2 f13f 6d6c 65cd 26c5 d03f
00000580: a040 1794 0383 f0bf dde4 32ed be2a d63f
00000590: 853b c179 a620 f23f 0ccb e426 3587 b03f
000005a0: 3517 bcbd 7320 f1bf 1268 dd90 29ee c63f
000005b0: f322 9f33 a457 f23f 2b25 8b45 1c32 b0bf
000005c0: fba5 3128 df82 f1bf 632b 46df 70ef b13f
000005d0: 1235 71f7 be6f f23f 21c0 2a0c 22ed c6bf
000005e0: f742 397e 53c7 f1bf be7e de69 ca2b a1bf
000005f0: afef 2d93 01f1 b33f d567 48e4 91fd ecbf
00000600: 9679 9afa 7f39 73bf adba 85a2 681f f4bf
00000610: 4f14 efde 2ade 7a3f dec4 973a 73d0 e7bf
00000620: 4fb4 9157 d7c5 bf3f 9ce2 2719 0fd3 eebf
00000630: d5d7 b5ef dc7c c3bf b8e0 7f75 75df edbf
00000640: df2a 48ff 5254 be3f fee8 5cc7 bf51 ddbf
00000650: b111 febf 991c b9bf 507a b35a 6c67 ddbf
00000660: 6414 0f76 95d4 e43f 44c9 5b57 e302 e33f
00000670: e1ae 841a b580 e5bf 5d65 62b7 0126 e23f
00000680: a40c 2028 c208 f63f f29d c43e c4c7 f23f
00000690: 5530 3bec cdad f5bf b027 0027 9093 f33f
000006a0: f796 2e4d 2135 f33f 3a25 3d95 2092 e03f
000006b0: 2a68 a423 16f5 f4bf a98f d1a6 b2f1 e33f
000006c0: 825a a721 0949 f03f a7a6 f00a 8a6f d93f
000006d0: 2d03 5798 0ffa f1bf 992c 183f ad36 e23f
000006e0: d539 09e0 194c ec3f 0087 7f23 a448 c83f
000006f0: 0a84 6cc5 b891 efbf 3e51 5dd4 74a5 d73f
00000700: 66bd 9571 72da e83f a073 81c5 2ddf 9b3f
00000710: 1f68 7a3e 1841 ecbf 9c87 947f 705e c93f
00000720: 6927 69d6 907a e53f ae62 7156 b711 a0bf
00000730: d5e6 8f1f deab e8bf 4dfb 2493 83d6 c33f
00000740: 281f 72c3 4296 ed3f 1d12 3a82 fc6b b5bf
00000750: 8a92 bded 6c8f f0bf 6d46 7f10 2e13 a23f
00000760: e0a3 32b4 1793 ea3f c288 9c4f c3ed d3bf
00000770: 9857 4b22 749a edbf c737 c4e0 0c3c c5bf
00000780: 9da3 4f00 13fd e83f 0833 1496 3866 debf
00000790: 0035 5d2d 3491 ebbf ca79 ea7f 780e d3bf
000007a0: af62 1cb9 efe1 e73f 328d 19da 12c1 e3bf
000007b0: 7b08 9f4a 1925 eabf f511 c086 3440 d9bf
000007c0: 3a4f ea16 91a1 f03f 41ce f468 d3ff c6bf
000007d0: f2f9 6115 6c67 f2bf f5f4 589c d7a1 b0bf
000007e0: 77ee 5ad7 7cb2 ef3f fa6c 42d7 b980 ddbf
000007f0: c781 820b da3a e9bf d388 3572 7df9 b83f
