data/QIPEDC/W02939.npy (npy, 648848 bytes, 1 tensors)

array f8 [51, 15, 106]
000000 56 ea 35 a2 f8 c6 f6 3f a5 2a 6d 85 ee 16 c5 3f
       1.423576959262069 0.16476232066118715
000010 04 01 b6 d0 2e dd f6 bf 4a b9 60 72 f5 fa d7 bf
       -1.428999724652443 -0.37469230813703247
000020 42 7c 44 63 d1 bc f3 3f 19 f4 89 a4 02 cb c4 bf
       1.233598125232462 -0.1624453833973412
000030 df f0 6e 37 57 fa f1 bf 0c a8 e8 83 e1 0b d3 bf
       -1.1236183324208964 -0.2976001537487043
000040 0c 5f 5b 58 0c 40 f0 3f 88 0b ae 6d 67 67 d7 bf
       1.0156367732469702 -0.3656862803547303
000050 64 6b 98 90 d8 71 ec bf 4b 76 b7 22 a3 77 9a bf
       -0.8888972114685711 -0.02584700488465889
000060 38 ab 1d dc 7d 3b ec 3f 1c 97 48 db bf 7a e0 bf
       0.8822621630800773 -0.5149840624696682
000070 f2 44 5d a4 12 3f e8 bf 77 4e 38 16 34 3d cc 3f
       -0.7576993189087757 0.2206177814956509
000080 90 bc 2b 89 9a d6 e9 3f 92 00 04 ba 70 74 e6 bf
       0.8074467352979742 -0.7017139084928365
000090 46 61 92 4b 30 83 e5 bf 36 fc 04 99 f6 ab d3 3f
       -0.6722642398845344 0.30737080519969895
0000a0 b6 ee a9 ff 75 57 ec 3f 2d a2 f8 34 54 d4 d1 bf
       0.8856763833459442 -0.2785845296189418
0000b0 40 a6 5e 37 a2 f2 ef bf 8e 98 a1 9b 67 42 a2 3f
       -0.9983683663787772 0.03566287779612863
0000c0 c4 a7 ed b5 ec b0 e5 3f ec 62 62 31 c2 31 b1 bf
       0.6778472474372781 -0.06716550546333239
0000d0 b8 ac f4 c9 ed af ee bf a0 2b 5f 81 d8 82 d9 3f
       -0.9589756912659118 0.398611189212426
0000e0 77 c9 63 d4 be 94 e3 3f b7 62 ef 17 0f 36 b2 3f
       0.611907400916876 0.07113737425187137
0000f0 0d cb 5a c9 70 de ed bf 07 df ee 3a 51 a3 e3 3f
       -0.933403390189001 0.6136861945187498
000100 dd f5 58 0e ab 84 e2 3f 4b 48 4a 21 f3 1a c5 3f
       0.578694847128357 0.1648849403905522
000110 ce 83 71 6e a5 49 ed bf d6 3a 90 d0 43 33 e9 3f
       -0.9152400166604993 0.7875079225067008
000120 d4 72 0a 39 82 d6 ee 3f fa b5 0b f8 ab c4 c3 bf
       0.9636851419523631 -0.15443944560631434
000130 90 1f c7 6e 10 97 f2 bf bb 22 a5 27 af 50 bc 3f
       -1.1618809058436206 0.11060614316842081
000140 86 1a 2c b5 da 49 e8 3f 44 4d 92 f4 d4 7c b1 3f
       0.7590154207726563 0.06831103297218016
000150 66 f0 63 1d 23 6a e8 bf 08 6a 49 f4 1d 9a a6 3f
       -0.7629561971693988 0.044144569463885175
000160 fe 43 15 a6 42 c1 ea 3f f9 d4 73 5b 6e 3d cb bf
       0.8360913509187637 -0.21281222787334977
000170 65 a8 aa 79 f5 c9 e7 bf 87 57 40 6a 9d b3 d1 3f
       -0.7434031845380217 0.27658782363993634
000180 e7 f6 bf f9 62 45 e9 3f 3f d0 5e 30 35 af bb bf
       0.7897200467993714 -0.10814220839421383
000190 a9 10 3f 50 df 62 e7 bf f3 c0 b4 bf 7b 14 df 3f
       -0.7308193747817501 0.4856252071504194
0001a0 f1 ec ff 41 fe 24 f3 3f 51 91 42 83 dd 9c d9 bf
       1.1965315416444435 -0.4001992971264104
0001b0 1b 4e 7d 3c a9 93 ed bf 3e 2f 69 14 4d c6 d1 bf
       -0.9242750340876599 -0.27772833817720144
0001c0 d4 50 c4 13 3a 77 f0 3f 13 3c 6d 20 96 67 cb bf
       1.0291081211226372 -0.2140987070401655
0001d0 83 46 a8 8f 3d 23 ed bf fc 16 cd dc 6a 64 a3 3f
       -0.9105518155867717 0.03787549920393293
0001e0 01 5d d4 a8 82 f3 ed 3f 00 84 98 34 00 19 bb bf
       0.9359753892375978 -0.10585023197246812
0001f0 4f ff e0 61 c9 c2 ec bf 84 df 3e 16 ba 76 d0 3f
       -0.8987776672074491 0.25724651501104057
000200 bf ec 8c 29 1c be eb 3f f1 f9 dc fe 61 9d 9a bf
       0.8669567882092436 -0.025990992718329
000210 32 69 a4 98 7e 8c ec bf f9 e7 e5 a3 9c 31 dd 3f
       -0.8921502095502432 0.4561530685965632
000220 42 86 2f ed 3f d8 f4 3f 99 4f 18 e8 d8 27 cc bf
       1.302795340067306 -0.21996604283105795
000230 11 3b 42 d0 82 ce f0 bf 0b 84 41 24 7e 39 d2 bf
       -1.0504177222352988 -0.28475907841317455
000240 fa 8b 32 7a 02 7f f2 3f 60 b3 f7 22 9b 66 b3 bf
       1.1560082219446017 -0.07578439334583953
000250 26 16 38 27 96 45 f1 bf ec 91 46 f1 a3 73 ad bf
       -1.0794889003749488 -0.05752289123782703
000260 a1 55 94 8f 63 30 f1 3f db d9 73 13 d9 2b 73 bf
       1.0743136986323878 -0.004680488541671991
000270 20 a5 80 ad 9b 82 f1 bf 82 b8 3f dd a4 22 bc 3f
       -1.094386747116296 0.10990362550339408
000280 60 c7 7b 2f 63 1a f0 3f b7 38 54 ef 60 66 aa 3f
       1.006442246897187 0.05156233712669816
000290 cc 65 5a b9 1b b5 f1 bf 7b 02 d3 3e 0f 2e d1 3f
       -1.106715892825707 0.2684362519758349
0002a0 58 17 c4 33 1b cc b7 bf f0 b2 fe c4 94 85 f7 3f
       -0.09295816434686566 1.4701125807870845
0002b0 ad aa d6 8b 46 a1 cc bf 5f a4 6e f5 0b ff fa 3f
       -0.22367173984578895 1.6872672640986577
0002c0 68 61 1e 04 32 e6 87 3f d0 dd 11 b7 20 90 e9 bf
       0.011669531584445905 -0.7988437247831204
0002d0 8a 3b 71 ad 4f e1 bd 3f 97 bb 3f ef c8 fa ef bf
       0.11671922668868553 -0.9993633911925482
0002e0 a3 b8 15 f7 af 15 bf bf cc 17 65 42 a8 d1 ee bf
       -0.12142467291207253 -0.963092927625206
0002f0 fd a5 8b 8c df 7d bb 3f 48 99 94 a8 d8 64 e2 bf
       0.107389423191897 -0.5748103420817552
000300 a3 4f ad e0 f2 11 b4 bf 63 c0 8e a8 83 3b e1 bf
       -0.07839887604978783 -0.5385149280682636
000310 16 c5 8d 48 cb 71 e3 3f 8c 3a 41 56 c1 10 d6 3f
       0.6076408783975775 0.34477265761680864
000320 96 0a 61 2c 0a 65 e2 bf 21 76 18 be 5d 88 d3 3f
       -0.5748339525965374 0.3051981312181358
000330 61 1a 37 2a fc 51 ed 3f a4 5e ca 92 68 f4 fa 3f
       0.9162579369083909 1.6846700414661564
000340 8f 89 bb 9a 47 85 ef bf a3 3a 0c c5 c6 a3 f8 3f
       -0.9850194952125991 1.5399844834497933
000350 d4 46 0f 2b eb df fb 3f 89 8d 77 1e bb 9b fa 3f
       1.7421676332491431 1.6630202474706002
000360 2f 55 de 95 85 3b f1 3f 95 9c f7 e8 8c c6 e6 3f
       1.0770316938627038 0.7117371130124349
000370 80 60 a7 89 22 12 dd 3f 1a 0d 50 93 c6 7c d7 bf
       0.454231867244296 -0.36699070344930507
000380 88 22 f9 9e 20 c4 a5 3f 7a 4f db 4a 82 54 f3 bf
       0.042511958509355685 -1.208132069024002
000390 3f 26 27 8e 10 88 c9 bf 6b 6b 90 90 e4 be ff bf
       -0.19946486416874795 -1.9841046950375254
0003a0 98 94 f2 87 67 d1 d8 3f cc 2d af 7f 00 08 ef bf
       0.38778103138094755 -0.9697268003305282
0003b0 d9 d7 3a de 40 26 d3 bf a0 d3 24 61 f1 c0 e8 bf
       -0.2992098016942442 -0.7735525986996556
0003c0 d4 4a 81 98 36 28 e8 bf a5 36 bf 2b 4a a6 dd bf
       -0.7549088457693309 -0.4632745196548547
0003d0 e3 5c eb 5d 40 65 f1 bf c0 6a 41 8b 4a a6 c2 bf
       -1.0872195881582278 -0.1456998043020885
0003e0 46 88 72 4c cd 81 e1 3f 3e 21 8f af 66 b3 e5 bf
       0.5470949643242953 -0.6781495503319446
0003f0 9d 53 0a 80 31 36 ce bf 37 ee a2 79 da 4f d6 bf
       -0.23602885009736677 -0.3486238658767635
000400 cc 08 44 67 d9 de e6 bf f1 76 85 9f 95 56 a9 bf
       -0.7147032753857956 -0.04948871204645212
000410 24 3c 82 50 99 02 f1 bf 41 f7 7f 12 c3 54 d0 3f
       -1.0631344933388016 0.25517346197726815
000420 fd 7a 83 66 b5 c8 e6 3f a8 f7 75 3f 85 63 c3 bf
       0.712000560972086 -0.15147462462112782
000430 4d 5d e1 d7 18 85 b2 bf db aa 8f 29 63 a4 c3 3f
       -0.07234339972034327 0.1534542038856078
000440 9e c4 87 e6 af 00 e1 bf bd 4a 56 eb 51 ee d7 3f
       -0.5313338758989123 0.37392089826714053
000450 bd f7 b7 6f c5 20 eb bf 10 e3 69 ae 81 9e e4 3f
       -0.847750395012319 0.6443489462390932
000460 71 f2 cd d6 e5 b8 ec 3f 72 41 64 be aa 21 e2 3f
       0.8975705333137524 0.5666097372614287
000470 46 e0 fc db 51 ee d3 3f fe 3f 11 d6 59 68 e8 3f
       0.31142088397200884 0.7627381497386521
000480 32 c7 5e bd db 5a a2 bf 98 6d 6b 88 13 4f ed 3f
       -0.035849444262011324 0.9159028686948885
000490 1f 0d fc 1f 7f 1c d5 bf 92 a5 dc 7a 1c 7a f1 3f
       -0.32986429332250283 1.0923123168271087
0004a0 00 00 00 00 00 00 00 00 00 00 00 00 00 00 00 00
       0.0 0.0
0004b0 00 00 00 00 00 00 00 00 00 00 00 00 00 00 00 00
       0.0 0.0
0004c0 00 00 00 00 00 00 00 00 00 00 00 00 00 00 00 00
       0.0 0.0
0004d0 00 00 00 00 00 00 00 00 00 00 00 00 00 00 00 00
       0.0 0.0
0004e0 00 00 00 00 00 00 00 00 00 00 00 00 00 00 00 00
       0.0 0.0
0004f0 00 00 00 00 00 00 00 00 00 00 00 00 00 00 00 00
       0.0 0.0
000500 00 00 00 00 00 00 00 00 00 00 00 00 00 00 00 00
       0.0 0.0
000510 00 00 00 00 00 00 00 00 00 00 00 00 00 00 00 00
       0.0 0.0
000520 00 00 00 00 00 00 00 00 00 00 00 00 00 00 00 00
       0.0 0.0
000530 00 00 00 00 00 00 00 00 00 00 00 00 00 00 00 00
       0.0 0.0
000540 00 00 00 00 00 00 00 00 00 00 00 00 00 00 00 00
       0.0 0.0
000550 00 00 00 00 00 00 00 00 00 00 00 00 00 00 00 00
       0.0 0.0
000560 00 00 00 00 00 00 00 00 00 00 00 00 00 00 00 00
       0.0 0.0
000570 00 00 00 00 00 00 00 00 00 00 00 00 00 00 00 00
       0.0 0.0
000580 00 00 00 00 00 00 00 00 00 00 00 00 00 00 00 00
       0.0 0.0
000590 00 00 00 00 00 00 00 00 00 00 00 00 00 00 00 00
       0.0 0.0
0005a0 00 00 00 00 00 00 00 00 00 00 00 00 00 00 00 00
       0.0 0.0
0005b0 00 00 00 00 00 00 00 00 00 00 00 00 00 00 00 00
       0.0 0.0
0005c0 00 00 00 00 00 00 00 00 00 00 00 00 00 00 00 00
       0.0 0.0
0005d0 00 00 00 00 00 00 00 00 00 00 00 00 00 00 00 00
       0.0 0.0
0005e0 00 00 00 00 00 00 00 00 00 00 00 00 00 00 00 00
       0.0 0.0
0005f0 41 06 e4 8e a3 15 d4 3f e1 ac 7d 9c 85 f1 f2 3f
       0.3138207335869972 1.183965312283185
000600 9a ed fb 1b 61 74 0c c0 ae 56 41 9a 35 2d 07 c0
       -3.5568258463151325 -2.8970748950185543
000610 80 af 9c e0 51 2a 88 3f d5 5a 69 11 ac 52 e9 bf
       0.011799468676677582 -0.7913418140477356
000620 1a b8 57 3b 8e 0d bf 3f f3 64 0e 08 70 9f ef bf
       0.12130059193415868 -0.9882126004551125
000630 b9 72 47 2e 58 d5 bd bf 9a 6e 89 0c 3d d7 ee bf
       -0.11653662805424404 -0.9637742276058419
000640 59 f0 8f 11 30 54 bb 3f ac 86 e0 4d 69 56 e2 bf
       0.10675335339323179 -0.5730482598339299
000650 fd 69 c8 21 3e 73 b4 bf 94 35 97 cd 1e 72 e1 bf
       -0.0798834640958503 -0.5451807036821941
000660 65 07 cb e3 25 77 e3 3f c2 9e 93 0e 38 c8 d5 3f
       0.608294434460032 0.3403453962659847
000670 46 d1 4f 44 36 8d e2 bf 7c 2a b1 b3 e2 d5 d1 3f
       -0.5797377905096617 0.2786795382313938
000680 79 85 6e 52 36 7a ed 3f 5e ab f0 db 43 20 fb 3f
       0.9211684808725941 1.6953772155199753
000690 b9 27 07 39 f4 c7 ef bf a4 97 3a 14 26 c1 f8 3f
       -0.9931584466769358 1.5471554556074603
0006a0 66 db d3 41 d1 22 f7 3f 90 1c db 59 fb e2 e3 3f
       1.4460003444089238 0.6214577441213738
0006b0 83 25 84 5d 84 19 f9 bf 16 19 3f 84 97 ab b9 3f
       -1.5687297490097485 0.10027453402208084
0006c0 98 a3 63 19 7f 12 f3 3f 51 96 bf 78 6e 07 d0 3f
       1.19201574247038 0.2504535845931502
0006d0 4d b1 aa 99 76 ca f3 bf 6f cd 2e 22 ee 59 a3 3f
       -1.2369295122726556 0.037795488045413765
0006e0 97 41 2c 65 73 f6 ef 3f b5 da 5a c6 ee 91 a4 bf
       0.9988343215973597 -0.040175878251309007
0006f0 33 d7 fc a4 e9 98 ee bf bf fd a2 4f 69 b5 88 3f
       -0.9561660978713235 0.0120647647312343
000700 58 0a 4e 6d 35 a0 ec 3f 46 44 92 fd f9 f0 cf bf
       0.8945567259655247 -0.2495415199414614
000710 48 bd fd f4 14 a3 e8 bf 19 84 c0 2d 07 ba 40 3f
       -0.7699074540122774 0.0005104575207078881
000720 ad 39 40 ab 44 62 eb 3f 92 f7 ef b5 29 9d dd bf
       0.8557456345313789 -0.4627174641353743
000730 26 67 fc f3 85 5e e3 bf 19 51 31 23 96 8c ab bf
       -0.6052884831762853 -0.0538069646796961
000740 ba 30 b4 e7 b5 77 f0 3f 6a 68 99 17 8b fe cc bf
       1.029226212590443 -0.22651804592425445
000750 ce b6 22 a1 24 30 f1 bf ea 1b 4f e8 0c 12 d3 bf
       -1.074253682552285 -0.29797671019008354
000760 3f 99 24 da 24 34 e8 3f 45 b7 53 14 66 e3 bc bf
       0.7563652287106278 -0.11284482952370663
000770 95 b4 b8 94 8f 43 ee bf 78 41 d9 95 b9 66 7d bf
       -0.9457471756665138 -0.007178044264563581
000780 d2 0e ee d9 a8 d8 e3 3f fb f1 60 25 85 e5 b3 3f
       0.6201977020686746 0.07772094881597262
000790 9f 4a 58 bc 3c 0e ed bf 13 ed bf 4e 23 34 c7 3f
       -0.9079879454241854 0.18127862305832618
0007a0 12 8d f4 45 c9 28 e1 3f 69 ec bc 66 d5 32 d0 3f
       0.5362287870706572 0.25310263665205085
0007b0 ed e2 03 ac a5 f4 ec bf 3d 52 40 64 a9 8d d1 3f
       -0.9048641547843467 0.27427134313737495
0007c0 75 b5 a4 2c 7b 87 f1 3f 71 ae 63 2d 81 a7 bc bf
       1.0955764526255198 -0.1119309173406522
0007d0 da 78 14 79 7c 1f f4 bf be 83 6a 71 73 55 d2 bf
       -1.2576870660482684 -0.28646551204479553
0007e0 3f 65 f5 56 a7 b0 e9 3f 14 cc 0a 95 78 98 a4 3f
       0.80281416877839 0.040225761598229465
0007f0 7e d6 0f ec 09 1a e8 bf ba fb 74 a2 a0 c4 c3 bf
       -0.7531785593589146 -0.15443809444874806
