data/QIPEDC/W02901.npy (npy, 597968 bytes, 1 tensors)

array f8 [47, 15, 106]
0	0xbfdf2739e586795a	-0.48676917471484205
1	0x3ff518ca59cff8de	1.3185523517891435
2	0xbfd590b216acfcbf	-0.3369565221255008
3	0x3fc992bd6fd33f2f	0.1997906490346337
4	0xbfc3e0fbb8d30616	-0.15530344509720412
5	0xbfe7b68d5db14430	-0.741034205430088
6	0x3fac8752eae3fe71	0.055719939397019476
7	0xbff7624ec1f820e8	-1.4615008904384528
8	0x3fd0ab0f2ad16866	0.2604406278748058
9	0xc000141de523ca6c	-2.009822645334955
10	0xbfc5bed9b4811057	-0.16988679231337997
11	0xbfe46ab29f1a2106	-0.6380246264898524
12	0x3fc15fc572bc5186	0.13573520757985252
13	0xbff075a2ba484531	-1.0287196423199243
14	0x3fd56fb0cd2fb9bc	0.3349420551084241
15	0xbff3c93106d5ac01	-1.236619021127581
16	0x3fe08bbb36263e20	0.5170570428471741
17	0xbff62b3b15243acc	-1.3855543924179754
18	0xbfc82fa7631f2cdc	-0.18895428028040484
19	0x3fa8d298f6b3508c	0.048481731524277455
20	0x3fb3be61ab6dedc6	0.07712374148643794
21	0xbfd48325e97f52e3	-0.32050464441753784
22	0x3fd145a3c7cfe519	0.2698754740991532
23	0xbfde390e57405a3c	-0.47223242302553436
24	0x3fdbf67da79820c3	0.436919606844196
25	0xbfe4950e2be49516	-0.6431952340396119
26	0xbfd026bb790caa40	-0.25236403294789866
27	0x3fe8be51f26fe464	0.7732324347590631
28	0xbfa436e6f6e580d7	-0.03948137058137185
29	0x3fe34d6fdc39e6db	0.6032027531902843
30	0x3fc46d1e64710c78	0.15958003906607465
31	0x3fdeadb623e36fcd	0.47935250763634657
32	0x3fd57f4d976e5d7c	0.33589496410555575
33	0x3fd6ee43013f4d3f	0.3582923423939128
34	0xbfd5599f8586e281	-0.33359516181693755
35	0x3ff8058cc9f1b359	1.5013549698298532
36	0xbfd2ed69f0a9ef9b	-0.295740590117697
37	0x3ff92bb5635915f5	1.5731710320263776
38	0xbfc8eb453048cf8b	-0.1946798787845377
39	0x3ff910e58c3ec83a	1.5666251638726991
40	0xbfc09556a88dff61	-0.12955744962891472
41	0x3ff83e0fcd62a82c	1.5151517889849044
42	0x0000000000000000	0.0
43	0x0000000000000000	0.0
44	0x0000000000000000	0.0
45	0x0000000000000000	0.0
46	0x0000000000000000	0.0
47	0x0000000000000000	0.0
48	0x0000000000000000	0.0
49	0x0000000000000000	0.0
50	0x0000000000000000	0.0
51	0x0000000000000000	0.0
52	0x0000000000000000	0.0
53	0x0000000000000000	0.0
54	0x0000000000000000	0.0
55	0x0000000000000000	0.0
56	0x0000000000000000	0.0
57	0x0000000000000000	0.0
58	0x0000000000000000	0.0
59	0x0000000000000000	0.0
60	0x0000000000000000	0.0
61	0x0000000000000000	0.0
62	0x0000000000000000	0.0
63	0x0000000000000000	0.0
64	0x0000000000000000	0.0
65	0x0000000000000000	0.0
66	0x0000000000000000	0.0
67	0x0000000000000000	0.0
68	0x0000000000000000	0.0
69	0x0000000000000000	0.0
70	0x0000000000000000	0.0
71	0x0000000000000000	0.0
72	0x0000000000000000	0.0
73	0x0000000000000000	0.0
74	0x0000000000000000	0.0
75	0x0000000000000000	0.0
76	0x0000000000000000	0.0
77	0x0000000000000000	0.0
78	0x0000000000000000	0.0
79	0x0000000000000000	0.0
80	0x0000000000000000	0.0
81	0x0000000000000000	0.0
82	0x0000000000000000	0.0
83	0x0000000000000000	0.0
84	0xbfb936bd121f174a	-0.09849149410646621
85	0x3ff0ae1471e64447	1.0424999665449535
86	0xc00dcc47696e3b88	-3.7247455822720816
87	0xc0088e0e682137d4	-3.069363416208015
88	0x3f8b38274ac90335	0.013290698022616712
89	0xbfea2c6cc6bbf5b9	-0.8179229623344134
90	0x3fbe30ae69c8c1e5	0.1179303177129963
91	0xbff0389fe34d80de	-1.013824355985029
92	0xbfc03a80149e14fa	-0.12678528792108762
93	0xbff00d464a661bc8	-1.003240862484505
94	0x3fb7b367ee6b834b	0.09258126803207493
95	0xbfe21633387ff489	-0.5652099708091934
96	0xbfb52e21c4288729	-0.08273516692181872
97	0xbfe0ba3e10375d44	-0.5227346722339594
98	0x3fe2f6101b808662	0.5925369774960922
99	0x3fd06f600f6ddef1	0.25679780489689025
100	0xbfe333d7a98076b8	-0.6000784216482407
101	0x3fd2762a37b2a8cc	0.28846221389052285
102	0x3fe974bead145e7c	0.795501077695874
103	0x3ffae599a93bad67	1.6810547457378904
104	0xbfe9abf6499984a7	-0.8022414624685056
105	0x3ffb2558fa697111	1.6966180593217965
106	0x3feb6102733cef94	0.8555919886343752
107	0x3ffd0467eed64140	1.8135756806914998
108	0xbff012fb117a38d8	-1.004633968611918
109	0x400090d3234dcff9	2.070715213596483
110	0x3fe8d068d2f41d1d	0.7754406089960956
111	0x3fed96ee64412c4b	0.9246742208573634
112	0xbfe5ab9bc1a64a4d	-0.677198293897456
113	0x3ff379d27bfb5c47	1.217241749099928
114	0x3fe3edf4b0a00df3	0.6227973413191975
115	0x3f92049b912eaac0	0.017595701919769224
116	0xbfe088710a0f3a24	-0.5166554638361203
117	0x3fd833aaf6919ddd	0.3781535537623009
118	0x3fdefc4199ab7cfd	0.4841464996988661
119	0xbfe5adbf91ca65d7	-0.6774595115159013
120	0xbfdda0f454205e45	-0.462948877482152
121	0xbfd0b7ae0d7ba7c0	-0.2612109309835624
122	0x3fd8d382116510cd	0.3879094285841916
123	0xbff4eb745a36c224	-1.307484009168669
124	0xbfdc914e7d4a2438	-0.4463688109904669
125	0xbfe7cd92910900e1	-0.7438443024366529
126	0x3fe50e90aa571a69	0.6580279662092156
127	0x3fbf5c885ad16255	0.12250568597063112
128	0xbfe19d6608e8f3c4	-0.5504636930487483
129	0x3fd95fa844ed964c	0.39646345835931096
130	0x3fdb2ee8457457fb	0.42473799498236503
131	0xbfe0823f98061d00	-0.5158994645325095
132	0xbfde7dd79949576d	-0.4764307972849256
133	0xbfd0366caa86d07a	-0.25332180645933244
134	0x3fd03a37963947e5	0.25355329199112325
135	0xbfeeb00eae0148cf	-0.9589913748298161
136	0xbfdc01ef4c9db587	-0.4376180885509133
137	0xbfe7b3a5fbc192b3	-0.7406797330009652
138	0x3fbfc2798535017c	0.12406119825482692
139	0xbff6079619722a6b	-1.376852130316048
140	0xbfd8d1143f20e3eb	-0.38776117482080846
141	0xbff33d0235361dba	-1.2023946837015118
142	0x3fe472a1aaec3b88	0.638993104775964
143	0x3fe0d3d9bd703b4b	0.5258606624573557
144	0xbfe3fc19fac9ae4f	-0.624524106807664
145	0x3fe75be2724de58e	0.729966376543574
146	0x3fd6ff7d5af75512	0.3593438518849591
147	0xbfc44d79a88552fc	-0.15861435631327214
148	0xbfd757f412efe91a	-0.36474325036364663
149	0xbfd95229a566eaeb	-0.3956398120168802
150	0x3fdf2d966a8db2b4	0.4871574440538027
151	0xbff287fcdc51954e	-1.1582001310537922
152	0xbfd55c696b952d3e	-0.3337653685200229
153	0xbfeee0224a3a1a22	-0.9648601007218682
154	0x3fd2e23f31f074dc	0.29505901219256514
155	0xbff99c7feb38fb1a	-1.6007079304105845
156	0xbfd43cfb364d0b9a	-0.31622200301006276
157	0xbff86575c1e2c391	-1.5247705053008966
158	0x3fee93538e40be26	0.9554841783883077
159	0x3fe57cf96de858e3	0.6715056559212623
160	0xbfdda8cee3b324b7	-0.4634282325392393
161	0x3feb50e0f823e843	0.8536228987206943
162	0x3fe61a2d467b3973	0.6906954170788552
163	0xbf7402f2eeef1601	-0.004885624845831328
164	0xbfe1e94199d4a95e	-0.5597236637598078
165	0x3fc8f397c9a2049e	0.194933865979725
166	0x3fe0085dbc2a6eb3	0.5010212588417374
167	0xbfde5e3650cd3760	-0.47450025454315004
168	0xbfe214e7f6b53908	-0.5650520151628209
169	0xbfd14f60c71558fc	-0.2704698509381982
170	0x3fd6bca4d8702be4	0.3552639115957261
171	0xbfeb334875e0f696	-0.850010137779196
172	0xbfe28b432b439dd2	-0.5794998021128157
173	0xbfe7bb991c5cadb3	-0.7416501573510942
174	0x3fea88360b9e5aa4	0.8291273333478171
175	0x3ff5217b7128ce0f	1.3206743641175114
176	0xbfe2279a23a52dc5	-0.5673342415042774
177	0x3ff72922685fc531	1.4475425793755898
178	0x3fe53d765da3cc90	0.663752730264962
179	0x3feb059cb22d0660	0.8444350700376155
180	0xbfe58aab3c42d429	-0.6731773545240048
181	0x3ff0d21970ade138	1.0512937928707071
182	0x3fe220d5d4d672b7	0.5665082127557842
183	0x3fdc738a232f3846	0.4445519775007408
184	0xbfe60f7af4944f0c	-0.6893896843853056
185	0x3fe63eba01e0f147	0.695157054585743
186	0x3fddec50fcd627bf	0.4675486058337092
187	0x3fbd2e2d4d48055a	0.11398585449935209
188	0xbfe66085ab54c830	-0.6992824884712316
189	0x3fd6457daf4983d8	0.3479913913525343
190	0x3fa4c58b6712f052	0.040569645244858635
191	0x3fe6e7fed5a989db	0.7158197568026553
192	0xbf9bf182d08a615f	-0.027288478830628345
193	0x3fea2cbd52ee38f8	0.8179613704430997
194	0x3f8409c56ae368a9	0.009784262012932326
195	0xbfe9a4486131dfcf	-0.801304044564853
196	0x3fbe7fcb006b4415	0.11913746605138471
197	0xbff053efab1d5331	-1.0204922374879966
198	0xbfc07cb2c092223a	-0.12880548861382285
199	0xbff005768d001a9a	-1.0013337619617801
200	0x3fb806deca376975	0.09385483204770202
201	0xbfe201b45ad27265	-0.5627080701702424
202	0xbfb59a69bb192a8e	-0.08438740556554533
203	0xbfe0e5162030aa7f	-0.527964651938717
204	0x3fe31f9a734ed293	0.597607827387565
205	0x3fcf82ba903e3d83	0.24617702525254623
206	0xbfe3492a0b69df4f	-0.6026811812325635
207	0x3fd1bbdf726449b0	0.2770918480975082
208	0x3fe9714e0cd455f9	0.7950811625075281
209	0x3ffafff3dc876802	1.687488423768173
210	0xbfe99640dc317eb0	-0.7995914745951804
211	0x3ffb3fac9b0faa0e	1.7030454690053634
212	0x3fe9af576ac4240a	0.8026539883877615
213	0x3ffe59a87035a859	1.8968891509234906
214	0xbff0b4ac89cb3ad8	-1.0441098578045764
215	0x3fffb7da68c5edfb	1.9823860256864225
216	0x3fe994d3dac360d0	0.7994174263685867
217	0x3ff06dea6bb4e5eb	1.026834889153515
218	0xbfec5bb7d733fc83	-0.8861960604844089
219	0x3ff10c405a0ad8df	1.0654910580902237
220	0x3fe53c9a4f26ab68	0.6636477991026881
221	0x3fd0153a34253563	0.25129561512297566
222	0xbfe609d729b5f403	-0.6887012304938483
223	0x3fd676080717585c	0.35095406239032
224	0x3fdf6b0f6ed4fd43	0.4909094412177703
225	0xbfd21cddf5066dad	-0.2830119030783987
226	0xbfe111d277a29435	-0.5334255539534128
227	0xbfcb051f6f5d6c44	-0.21109383523693925
228	0x3fd4f9a4489fb9a5	0.3277369221895248
229	0xbfe5684a2dd12cf4	-0.6689806837906915
230	0xbfde39a8f3def749	-0.4722692853500701
231	0xbfe617b65121ed5e	-0.690394552671403
232	0x3fe5665c3c980b39	0.6687451537585282
233	0x3fa5032dd13188d4	0.041039878641429134
234	0xbfe2300b44a9ca57	-0.5683647481039981
235	0x3fdb15982d59c547	0.4231930201413729
236	0x3fde6f849bee9324	0.4755565188191204
237	0xbfe4482632c6b329	-0.6338072768900008
238	0xbfdbd50b844db5cb	-0.43487823410290777
239	0xbfcebe24aa33d6a2	-0.2401777106348862
240	0x3fd74e93320224c4	0.3641708362925551
241	0xbff2c2f816b34f3c	-1.172599877046152
242	0xbfd71404ba87c4fc	-0.36059683051924174
243	0xbfe8acedaefdcea3	-0.7711094301034404
244	0x3fd14ce38297a125	0.27031791451601556
245	0xbffa8df2db37f582	-1.6596554339624565
246	0xbfd316ae67f692b3	-0.29825935509351637
247	0xbff400ebb9e366d5	-1.2502248059521908
248	0x3fe2dfc88864303a	0.5898173011678474
249	0x3fd49c2a3c39b4d2	0.32203155404461115
250	0xbfe0c489fac462bd	-0.5239915750308551
251	0x3fe564bf9aee4841	0.6685483957283013
252	0x3fd6e683767b6e4d	0.35781942911646497
253	0xbfdca59c9d472865	-0.4476081405561046
254	0xbfd4f35f2a9080a6	-0.32735423237500993
255	0xbfc4836d156f7779	-0.1602608065285798
