data/QIPEDC/W03005.npy (npy, 534368 bytes, 1 tensors)

array f8 [42, 15, 106]
00000000: 4bfd a232 d140 f23f 8f27 20d8 716f e03f
00000010: c947 5db7 e7d8 f6bf f39c 6f4a 95a0 e4bf
00000020: 9115 941f 9757 f03f d370 e36d fdd3 bc3f
00000030: 7f79 05ee 01b5 f2bf f80a b312 575d ebbf
00000040: f8df 96e7 9be1 ea3f c520 b5b5 ad3a a6bf
00000050: 3698 a1de f852 edbf 48aa 2657 b4b9 e5bf
00000060: 94a4 936b 6408 e53f 49ac 0e12 16e0 9ebf
00000070: b64c de5e aeb9 e8bf 4ff7 bf2f bb5e dcbf
00000080: a532 94bd 5e5c e03f 357c b7ad 8f79 bc3f
00000090: b073 659e c2df e6bf 6c44 8ca4 10d9 cebf
000000a0: f9f0 aa5f b363 ed3f 801f 923e 9c92 dd3f
000000b0: bda3 1c1d 3f9e efbf dfe5 e3e8 4b30 e1bf
000000c0: 4834 b7a3 b214 ec3f a9ad 7b0e b4df e23f
000000d0: c200 c80a 9040 e9bf 6fe1 96d9 e6eb d5bf
000000e0: e6be 3e0a 3439 eb3f 0333 7bb7 0085 e43f
000000f0: 3d37 e447 02c2 e6bf feb2 b58e 57c3 d0bf
00000100: 015f 0c96 d12a ea3f de9a 6032 01d0 e73f
00000110: 6073 5af5 61fb e4bf 459e 308f 7238 c8bf
00000120: f414 a78e ae67 ec3f 5f2c 72e3 e66c e73f
00000130: ae1c 0005 f82e f1bf 6e97 21a1 289a d2bf
00000140: 892e 4dae 1647 e63f 3d0d f99b fbd6 e43f
00000150: 245f 3eda 8adf e3bf 2803 5d8e 493f e5bf
00000160: b13c adad 75a1 ea3f fefc 4818 beec b8bf
00000170: 8be9 72b4 8bce e0bf f721 88c3 03f3 e3bf
00000180: 6263 f886 cab7 e83f c7ac aef0 7d9e cbbf
00000190: 2e95 39bb 5919 debf 92d7 bb90 df33 e3bf
000001a0: cec5 d86c a6b9 f13f 36df 31fc 4bd9 d43f
000001b0: 55fc d5d0 c42b eebf 9c40 6dab 7917 e6bf
000001c0: 3d36 7279 67d5 ec3f 76fe 5d16 74b7 dc3f
000001d0: 2d27 c06f ac70 e8bf a74a cf6e 2912 d9bf
000001e0: 7910 6898 9ceb e73f c86e 310d cf19 dc3f
000001f0: e817 e477 020d e4bf f25b 515c de7e d0bf
00000200: dbfa 2e9c e80c e43f 14cf 0efe 0833 db3f
00000210: 47a6 63ad b2b6 e0bf 7b24 0c9d 02d6 c2bf
00000220: 1e53 9988 7855 f13f e98d c600 b704 d93f
00000230: 4e39 1a2e d7c5 f0bf 1834 cc97 f493 e2bf
00000240: 40d6 471d 26c1 ef3f 9784 f9a5 54fa e63f
00000250: 4de4 c2ff 2894 f1bf d123 fbcf 0ad5 d2bf
00000260: 74b3 a7f1 07bd ee3f e165 98b9 c784 ed3f
00000270: ee7d 5d89 1658 f2bf a81d a82d 2aea c3bf
00000280: 2e80 455e 5c08 ee3f bb8f db9f 4a84 f13f
00000290: b878 13fd 6e26 f3bf 01d4 a294 24ef a7bf
000002a0: 4120 207e 0c4a d6bf 20db fac9 5e5f f93f
000002b0: d309 21be f0b5 debf 9e78 dee3 4872 fe3f
000002c0: 8faf 7c01 4de3 953f 0557 c262 f472 e8bf
000002d0: 8e16 76f5 3eeb c13f caad 8403 c42e f0bf
000002e0: c764 2f3b a279 bdbf 6900 17cc a22c eebf
000002f0: 8831 fac1 c3ba be3f 54e6 8776 b63e e1bf
00000300: 4dd9 a512 d423 b2bf 3d7f 3e83 77e1 dfbf
00000310: b47d bb07 2a32 e43f 3b4f 27ac 2c71 d33f
00000320: 1fb5 7491 d3bd e2bf 00f2 b178 ade1 c73f
00000330: eb4f 39e5 9047 ef3f ee20 28fe ca50 fd3f
00000340: 0d11 b797 bde4 f1bf 7fb9 bcde fcec f63f
00000350: a0b8 44c2 854c f23f 6b8a 4525 0484 e13f
00000360: 3758 d9aa 23ce f5bf 591b 59d7 1cac e6bf
00000370: 3ec6 4515 5c67 f03f dab9 513d cd0f ca3f
00000380: 70dd 34fe 6818 f2bf 165e d539 6b1c edbf
00000390: 0da1 1371 69c9 ea3f 74a0 f923 cca7 a93f
000003a0: 5e22 3918 7665 edbf 378d ec37 4edf e6bf
000003b0: 2651 4be7 5dac e43f 94ae c49c 4fb1 a03f
000003c0: ab08 78af 9835 eabf bdb4 8707 53db dabf
000003d0: 55c0 4682 9d0d e03f 953e fee3 f3f9 c03f
000003e0: 8a7b 705c 0fee e8bf 990d 765b 3dab cfbf
000003f0: 28ac e6fa 4ce0 ec3f 88fd 32d9 0940 e33f
00000400: 15b5 33fc 2643 eebf 0375 68ac f410 e5bf
00000410: 0cf2 b772 420b e93f 8dc3 0400 7a61 e63f
00000420: 6583 acca 5144 e7bf 5473 abc2 23d0 debf
00000430: 6783 49e1 06ba e73f 121e f4a0 8589 e43f
00000440: 9d46 d83a 4ca3 e3bf 4556 43eb f883 d8bf
00000450: af14 6705 fd50 e73f 76cc 54bf 50c8 e33f
00000460: 12ea 3723 a0f9 e0bf ad96 0b7b 8e4c d2bf
00000470: 3745 5632 bb00 ec3f 0d33 dbea c455 ea3f
00000480: d85d 44a3 eb1e f0bf 9c95 b80f 2e24 dabf
00000490: af0a 57d1 fcd5 e43f 8208 7d1e 8bbe eb3f
000004a0: 687f 2d90 f2f9 e2bf 58d5 5181 ed3c e9bf
000004b0: dd6d 5407 9224 e73f b846 b219 dde9 d03f
000004c0: 5ce4 81d3 5f3a e0bf 0fbb 0d36 3f4b e8bf
000004d0: 4296 8334 1889 e33f fd71 58fb 56a9 cf3f
000004e0: c71c a10e 78ff debf 19df 57c6 a4fa e7bf
000004f0: 1533 9408 1e53 f13f 5048 91c6 c708 d83f
00000500: b64c dae4 fd0a edbf 8945 5cfb 5e2e eabf
00000510: 3c79 0f87 2237 ec3f bf60 0384 3774 e13f
00000520: c557 e42f 6513 e7bf 7082 5b29 8406 e1bf
00000530: 0c90 23b5 c609 e73f b751 bed2 1aa6 e33f
00000540: 6446 da04 65a8 e1bf 1320 3f9b 10da d5bf
00000550: 9151 15d6 f608 e33f d426 30f6 1fbb e53f
00000560: 09f4 a404 2488 dbbf c4af 778f 5ec5 c7bf
00000570: c9d6 0bc8 eebb f03f 4aa2 b2cc 96d7 d93f
00000580: b1cb be3b f38c efbf d748 2990 5917 e6bf
00000590: 9757 5650 015a ee3f 357f a253 c474 e63f
000005a0: fd8c 5625 b4f2 efbf dc7c 6c46 b17b dbbf
000005b0: 5eff e1d6 32a1 ec3f ae59 513d 1f58 ed3f
000005c0: 1c4d bac2 4ae5 f0bf d639 b6d2 3836 d4bf
000005d0: 871b af58 6461 eb3f 6ade 6820 b68a f13f
000005e0: be4d e980 8bf4 f1bf db31 850d 4a03 cebf
000005f0: 6c17 c9f8 13a0 d6bf b2d6 83c2 9f19 f83f
00000600: f2a6 0945 3f4c debf 6a20 6334 8156 fd3f
00000610: 1cbc 9aaa e501 963f 189d d91a 5a52 e8bf
00000620: 8e8e 2e75 053b c23f 4d10 88d4 72de efbf
00000630: 12d3 a01e f52c bdbf 1d89 fea1 8446 eebf
00000640: 960f bd12 83ff be3f 5516 579f 3c45 e1bf
00000650: 9c6a e804 9a68 b3bf 6433 e927 190b e0bf
00000660: de6c 2ae4 2c66 e43f 7bd8 811e 99af d23f
00000670: 3c99 a7e9 07be e2bf 18cc 5bb1 f1a6 c73f
00000680: 8466 33fe 0874 ef3f 0833 3a86 2b58 fd3f
00000690: f696 9e80 1e14 f2bf 6f1d 4aa8 e3ea f63f
000006a0: 2506 e233 729a f03f d4b8 33c3 a0a5 e43f
000006b0: f644 9547 0b58 f5bf 6493 73ac 8c96 e9bf
000006c0: abdc dc6c 5e5b ee3f 4009 f2fd 5726 d33f
000006d0: 8378 3b64 edb2 f1bf 106c 52cb c9a4 efbf
000006e0: 6ab1 0734 15cc e83f 4736 d53c 28af bb3f
000006f0: 0e70 b410 653b ecbf 3611 71ec cdd1 e8bf
00000700: f6cd a1fa c5ae e23f c743 57fd bace b23f
00000710: 6d60 ff38 945c e8bf 6a14 5d97 bc30 debf
00000720: f0c5 cb3d cc62 dc3f 0ae7 759e f791 c63f
00000730: 6b1c 9295 a325 e7bf c0aa 5ed5 a800 d2bf
00000740: 775b 493e aa77 eb3f 7ce5 0b82 e90f e33f
00000750: e79e 1110 ba0b edbf ece8 aaef c1b1 e7bf
00000760: a3e9 7b4f b715 ea3f 88f1 30ff 0998 e63f
00000770: ba34 f6ee db35 e6bf 9b28 cfd8 96c3 e1bf
00000780: e92b 4fdb 5137 e93f f886 ebce f2af e93f
00000790: 4f9f d7f1 9a30 e2bf 2eb5 0ca6 0784 ddbf
000007a0: 7ddf ef0d 9d69 e83f 36c3 40c0 bcd3 ed3f
000007b0: c125 1a70 efca ddbf 25e0 5a6b eb96 d7bf
000007c0: 0e5f ea24 ec19 ea3f 2a72 a116 90db ea3f
000007d0: f5d1 fd8c 8920 efbf 420d a2c6 7c28 dfbf
000007e0: a8c4 b2ae ffc6 e23f b778 f996 ad08 e83f
000007f0: 02f9 d5c7 4095 e1bf be35 dcce 9739 eabf
1.1408245065684521 0.5136040898516842 -1.427955356852623 -0.6446024373844054 1.021384356835686 0.11260971005271196 -1.1691912934980733 -0.8551440587255845
0.8400401614408102 -0.0434164318381263 -0.9163784359232128 -0.6789190008324306 0.6572744465930946 -0.030151696064120413 -0.7726661541841142 -0.4432819334323214
0.5112756445610854 0.11122987738734554 -0.7148144811322847 -0.24099929842535361 0.9184204929838692 0.462073384384432 -0.9880672043410567 -0.5371455715787156
0.8775265882083056 0.5898075373528872 -0.7891311846324458 -0.3425233006378425 0.8507328224277131 0.6412356933229549 -0.7111827282076103 -0.2619227307939552
0.8177268915778485 0.7441411956723092 -0.6556863586480226 -0.18922264091200894 0.887656477564319 0.7320436899475559 -1.0739669986085505 -0.2906591008708038
0.6961778072668078 0.6512430235237968 -0.621037889725788 -0.6639755039724138 0.8322094337580862 -0.0973624047555752 -0.525213100852214 -0.6234148806552743
0.7724354396951691 -0.21577429058138461 -0.47029727252659626 -0.6000821902114117 1.1078247310473333 0.3257627451744044 -0.9428428725076495 -0.6903656337908788
0.9010503170008587 0.44869711097997056 -0.7637540991429198 -0.39173351117384886 0.7475111939134101 0.43907524383915275 -0.626588091051187 -0.2577434445897203
0.6265757608851702 0.4249899369271912 -0.5223019968518167 -0.1471560732682383 1.083366902913617 0.39091277194731205 -1.0483009148479883 -0.580560966949295
0.9923277446639034 0.7180579415982206 -1.0986719122577313 -0.2942530661644556 0.9605750770402737 0.9224585175426762 -1.1465058675602182 -0.15558364133197
0.9385206071128829 1.094797729915611 -1.1968831907065987 -0.046746390480088 -0.3482695800489673 1.5857837571945268 -0.47985476081171646 1.9029015446790605
0.021374896255266725 -0.7640325478448352 0.13999163613714355 -1.011417402022618 -0.11513723320912837 -0.942948721516598 0.12003730283522007 -0.5389053645187212
-0.0708591981436701 -0.4981364041977832 0.6311235571883373 0.3037826234042204 -0.5856721726355864 0.1865746344882524 0.9774860837010214 1.8322248390195983
-1.1183448721286056 1.432858343188485 1.1436822498904249 0.5473652580224785 -1.362826983813205 -0.7085098463074743 1.0252343016585566 0.20360723013023013
-1.130959504121929 -0.9097190980491543 0.8370864113358337 0.050108317748539216 -0.9186354134663579 -0.7147589771524626 0.6460408704247456 0.03260277546573068
-0.8190425326468093 -0.41963649497376904 0.5016620201549907 0.13262795097806604 -0.7790600591141452 -0.2474133202159521 0.902380456963674 0.6015671960994249
-0.9456973005123098 -0.6583197944015925 0.782624458369868 0.6993989944804625 -0.7270897825693338 -0.4814538384505813 0.7414583587779874 0.6417873519539532
-0.6136838101685559 -0.38305495238214277 0.7286362748642626 0.6182025658548713 -0.5304718673572231 -0.2859226419080681 0.875089262308541 0.8229698740993584
-1.0075489404315388 -0.40845824752099147 0.6511215294525153 0.8670096965290812 -0.5930111709567258 -0.7886874700331346 0.7232141631279166 0.264273905843861
-0.5071257716182447 -0.7591854148612088 0.6104851747192657 0.24735533974389048 -0.48434258869788177 -0.749346148862034 1.0827923140634017 0.37553591147764553
-0.9075917691974584 -0.818160525263168 0.8817303312205591 0.5454366281874384 -0.7211175856962134 -0.5320454414141533 0.7199433839673488 0.614026462181349
-0.5518059820917185 -0.34143462334441316 0.5948442632020933 0.6790923889504605 -0.4301843686442344 -0.1857107353711155 1.0458820165926446 0.40378351202028695
-0.9859558264637284 -0.6903503242158661 0.948486954601992 0.7017537721148758 -0.9983769158610866 -0.42942458989450727 0.8946775624208205 0.9170070836651598
-1.0559795004417714 -0.3158094461186044 0.8556386692151684 1.0963650957109174 -1.122203353462154 -0.23447538051767833 -0.353520386652568 1.5062558744661314
-0.4734037565418553 1.833619312894394 0.021491611993663992 -0.7600527309813598 0.1424261877228798 -0.9959043646818003 -0.1139672469879083 -0.9461081661177421
0.12108630378230453 -0.5397017585862139 -0.07581484432049951 -0.5013547687063746 0.6374725777017394 0.2919676587984054 -0.5856971324508673 0.1847822299965578
0.982914444433121 1.8340258830314173 -1.1299119018744341 1.4323460172471092 1.0377065684009577 0.6452182590999436 -1.333995132085247 -0.7996276252930383
0.9486534239030296 0.29921531485901554 -1.1061834254574314 -0.988865754235464 0.7749124542438441 0.10814143643548234 -0.8822503401056581 -0.7756108873368592
0.5838346381337363 0.0734669559963229 -0.7613011468156522 -0.471724651161202 0.44353014025463633 0.17632956731159083 -0.7233446046165118 -0.28129025303739397
0.8583575455221383 0.5956923999757886 -0.9076814950794557 -0.7404489212997567 0.8151508858130011 0.7060594543650476 -0.6940745990010762 -0.55512564034986
0.7880028994926508 0.802728084698372 -0.568433258388703 -0.46118346420083156 0.7628922722060306 0.9320968394223204 -0.4655111880061576 -0.36858640178570773
0.815664360142337 0.8393021051411484 -0.9727218393077793 -0.48684615514521934 0.5867918407513075 0.7510593365402859 -0.5494693663638659 -0.8195303955305275
