data/QIPEDC/W03676.npy (npy, 279968 bytes, 1 tensors)

array f8 [22, 15, 106]
1.1995551169290386 0.7499681371725843 -1.4006617444892187 0.4633036457269675 0.9950423758594169 0.40290346455325615 -1.2860861327838538 0.14731380086857543
0.8275091721960733 0.06905738881677155 -1.0616647849798895 -0.13514060891625546 0.6872558018847057 -0.11123569668835877 -0.8360156265361404 -0.25265579873458816
0.567655203741134 -0.25866521507408446 -0.6648638093831561 -0.3238588437760125 1.074106525266125 0.0024782661796951657 -1.188766246600524 -0.23588091377529108
0.9761739802711665 -0.044639122935590005 -0.963925137138745 -0.3200308168980633 0.8704270749708144 0.03069609700013639 -0.8033888959868466 -0.318698299564124
0.7795809294552245 0.07754611009284908 -0.6811410259181545 -0.3081759000557527 1.1287758846972862 0.2238176223015592 -1.2091413590525715 -0.022516717524843206
0.9895726975981206 0.1644134012305771 -1.0090025078680018 -0.4209722631261521 0.9468055022689114 -0.10040596620112889 -0.8262990671144059 -0.42405106965554923
0.8364389980155638 -0.0663128391396369 -0.6959760499550314 -0.42618881457505037 1.2625670456268134 0.16292242741561444 -1.2542608500257897 -0.09261050548936689
1.1035656764705466 0.10233474522785395 -1.0059083506882305 -0.17043096127110813 0.955357816786079 0.11724756835658769 -0.8264589141041719 -0.20307779009951893
0.8429576850679422 0.12096042348839693 -0.6976245763213029 -0.23366229242113654 1.2435048749599784 0.40372007080053746 -1.2200218917857428 0.1655747528324417
1.0924224391380486 0.3452848167630708 -1.0021407671507394 0.0746181448478837 0.9826626192842721 0.3283223480995921 -0.869159751508095 0.026800201512703885
0.9029213299470128 0.30542251483920974 -0.7623512610436518 -0.015495512205256861 0.08102478985837175 0.6019361092411254 0.06376946862948513 0.7708039326896007
-0.01925257859936529 -0.7796733227620863 0.09925108240450367 -0.969482710081399 -0.13037872269266548 -0.9812794955747904 0.06814195220257961 -0.5719306211715957
-0.10310901376394178 -0.5566704186646209 0.5479018020441665 0.11088023266548289 -0.545984412421515 0.19802705325380046 0.9327933401197359 1.7413137328897792
-0.8493634492935 1.8088155494454308 1.2774269419226632 0.8960322705479952 -1.42524731095841 0.6282691396459953 1.014898371846216 0.5039504914553936
-1.318732104779163 0.22706524079614288 0.825258455566062 0.12064340551657728 -1.133444068610131 -0.05119306875222202 0.6706101886983131 -0.14083854191692904
-0.9353548097142295 -0.12891891419635387 0.5252700595817542 -0.33935665552648386 -0.7807014762085134 -0.1432307188428764 1.0926307315391628 -0.06613024128498311
-1.1379237003785692 -0.2558063478363313 0.9526445911430979 -0.1786747466452109 -0.8708261085638337 -0.39513093007496336 0.8017022080456516 -0.09457434683290408
-0.6826906218572295 -0.39495070252441544 0.6882464316567498 -0.02713377646220998 -0.5392877579577048 -0.36749386757467667 1.1558428306235076 0.16351657218969048
-1.1395895385616457 -0.03346779772664727 0.9592666869662422 0.07742353604542207 -1.0288009691775668 -0.5272896039488828 0.881692899936012 -0.1841432038278967
-0.7827087287821048 -0.5339474756228006 0.731783703812185 -0.12620085317888247 -0.6038649016893973 -0.5034915796173727 1.354096685908141 0.17634391797225984
-1.3415989816881657 -0.05101551575528038 1.118696644074022 0.1019124141170475 -1.0156220546961467 -0.21301664424782116 0.8981701549799131 0.10968446370320778
-0.7807089876474701 -0.2420592085461104 0.7481683231639166 0.14339535696560618 -0.612749429450329 -0.24490031972889156 1.3418560265107145 0.5055286745064289
-1.2933179388243314 0.274388174774643 1.1255244894950402 0.42285259404811754 -1.0115788041869989 0.1222319257141504 0.957747653076032 0.38678416491343826
-0.8349097911884394 0.03898048412190455 0.8402711476364094 0.3633277878135997 -0.6921471412614437 -0.01936555417647285 0.06634181947998365 0.5179064238048368
0.07751454456603818 0.652678181587296 -0.0177235431708201 -0.7801978763693256 0.1003178580705714 -0.9704488671688108 -0.12880407898349994 -0.9802450727156895
0.06959182671072607 -0.571547760713042 -0.10140189092893961 -0.5599704268849127 0.5500924846292368 0.11053705737887276 -0.5453427123910702 0.19734196495750472
0.9186985509423357 1.7415022822243744 -0.8454284948785407 1.8130286992910294 1.3761050727072495 1.123450034248492 -1.5620502272215258 0.8695445966161609
1.1043230891425044 0.6152046436886159 -1.3921717057232323 0.31391962159821574 0.8400910380068328 0.15959702267825668 -1.1358521414454466 -0.02943638141737781
0.6056837867230191 -0.15291022777502794 -0.8834120470607931 -0.11639077560049853 0.40609001089560653 -0.4287770217943565 -0.6928477557436248 -0.10874550648217994
1.1299769088398839 -0.08386629738491783 -1.1355633812809058 -0.2824031193402176 0.9026099053772557 -0.29763865564075176 -0.791584022989478 -0.43066542160055993
0.6823610691452923 -0.264510072826973 -0.5554304602343938 -0.444658830844101 0.5080232656774473 -0.19672843687042696 -0.3740322415687923 -0.4312860267795889
1.1864758143038323 0.186489302636889 -1.1247472505462486 -0.0031133714974116403 0.9059512729955137 0.0029249243877639535 -1.0437788082799202 -0.6431428267591244
00000000: d65a cfb4 6031 f33f 6758 c62d bdff e73f
00000010: 9a6e 154a 1c69 f6bf 0cf4 a055 c4a6 dd3f
00000020: 2669 ce1b 63d7 ef3f 99e2 ec9c 2bc9 d93f
00000030: 0e55 820d cf93 f4bf 3e70 7dba 2ddb c23f
00000040: ff1b f783 f47a ea3f 7de3 83ba bead b13f
00000050: 20db ac36 94fc f0bf 7013 d497 494c c1bf
00000060: 1898 22e1 fffd e53f 619d 6c4f f179 bcbf
00000070: 935d ddd7 a3c0 eabf 996d 2d3a 832b d0bf
00000080: cc1d ef3e 3b2a e23f b0c8 d68b f88d d0bf
00000090: 3d07 b377 9046 e5bf 4674 a271 1aba d4bf
000000a0: e302 e752 8a2f f13f 1a90 2906 4d4d 643f
000000b0: 87ce 7bc1 2f05 f3bf 282e 3585 5831 cebf
000000c0: df10 0f37 d13c ef3f 9dce 426a f0da a6bf
000000d0: 04b4 7987 79d8 eebf a584 1289 627b d4bf
000000e0: cdae 91e1 89da eb3f b6f5 eb32 cc6e 9f3f
000000f0: 2975 47a1 5cb5 e9bf 5ecc 7a8d 8d65 d4bf
00000100: 1c0e 93b4 53f2 e83f a9e2 c7d6 0fda b33f
00000110: 1c09 c943 e8cb e5bf 9ce8 0969 27b9 d3bf
00000120: ec9c 544d 770f f23f e3de 064c 0ea6 cc3f
00000130: d8f2 159c a458 f3bf a5a6 8755 9f0e 97bf
00000140: 8159 a65c 94aa ef3f 379c a792 7f0b c53f
00000150: 3500 4ed0 df24 f0bf 7498 a9a5 35f1 dabf
00000160: d95e 7d0d 3b4c ee3f ab39 2895 34b4 b9bf
00000170: 0618 bfbd 0a71 eabf 1f48 0019 a723 dbbf
00000180: 686d b2b7 1bc4 ea3f c6de 68d3 e0f9 b0bf
00000190: 5a65 ab90 6f45 e6bf 9955 2173 ad46 dbbf
000001a0: 9197 9f80 7933 f43f cf7a c460 a4da c43f
000001b0: 0c39 38d3 7311 f4bf a0c5 5774 52b5 b7bf
000001c0: a7dd 967b 34a8 f13f 1b85 ff1f 9c32 ba3f
000001d0: 01ab cf5a 3318 f0bf f04f 7186 aed0 c5bf
000001e0: 985f 628e 4a92 ee3f 9187 a0c7 ef03 be3f
000001f0: 3b15 f2f6 5972 eabf cabc 82f9 73fe c9bf
00000200: f1ea 2865 82f9 ea3f 9d33 fe26 43f7 be3f
00000210: 80f2 85c6 f052 e6bf f3ea 2060 a5e8 cdbf
00000220: 32ea 255e 65e5 f33f 6bef 34b5 8cd6 d93f
00000230: 27fb d9ac 3585 f3bf 13b4 3ab2 8d31 c53f
00000240: 443b 98f3 8f7a f13f 1f60 f37c 2519 d63f
00000250: 9569 cec1 c408 f0bf 6c52 cfbb 2c1a b33f
00000260: 177c 9ae0 f871 ef3f 258e e8bc 3b03 d53f
00000270: 9341 771c 28d0 ebbf dbd4 1714 8371 9b3f
00000280: bf76 df45 bbe4 ec3f 2393 2ce0 0a8c d33f
00000290: 24e6 c778 2e65 e8bf e332 4071 1cbc 8fbf
000002a0: fc62 9b66 0abe b43f 951b ef83 0f43 e33f
000002b0: 3c37 3f26 3253 b03f edf5 5002 6daa e83f
000002c0: adb1 caad f2b6 93bf 4175 da77 15f3 e8bf
000002d0: 121b 05d9 8468 b93f 2ec9 ba9a 0006 efbf
000002e0: 8c95 07ff 3fb0 c0bf cd54 b741 a466 efbf
000002f0: bb17 3240 c071 b13f 3d6a 3072 414d e2bf
00000300: 39f8 0932 5a65 babf e915 5a7b 3ed0 e1bf
00000310: 875f 265c 6988 e13f ea34 129d a562 bc3f
00000320: e43c 6f4d b478 e1bf a962 b952 f358 c93f
00000330: 36b5 376b 71d9 ed3f 8165 edc9 6bdc fb3f
00000340: 4c44 a441 fc2d ebbf 91d4 d592 e8f0 fc3f
00000350: e264 a93b 5770 f43f a541 45de 4bac ec3f
00000360: f973 d41f d0cd f6bf 0db3 fbe1 c71a e43f
00000370: 857d 3d13 063d f03f 5254 f3c7 5c20 e03f
00000380: 5463 e3d5 8619 f5bf e88e a34b 7910 cd3f
00000390: 28eb ac6b 8468 ea3f d1f8 2b79 7ce2 be3f
000003a0: 3d69 683f 9622 f2bf 6935 2558 fa35 aabf
000003b0: 4a5b 9a7f a375 e53f 2d57 c651 ff06 c2bf
000003c0: 1a20 bc35 6dee edbf e292 273c 6a80 c0bf
000003d0: 6517 ef27 03cf e03f caa2 4afa 04b8 d5bf
000003e0: c224 88a9 81fb e8bf 933a 9b5a 6255 c2bf
000003f0: 4e0b a95c 6a7b f13f af78 9857 e9ed b0bf
00000400: 1482 677b ef34 f2bf 553d 8496 215f d0bf
00000410: fc77 7582 107c ee3f 8d2b bb68 d0de c6bf
00000420: 891b 19b7 cedd ebbf 8ad7 933d d349 d9bf
00000430: 69fc 9563 8ba7 e93f 2e19 b03e 0636 b8bf
00000440: de34 c500 9ad8 e5bf 44f9 b74f df46 d9bf
00000450: f8bd 7161 1d06 e63f cdb2 16ea f4c8 9bbf
00000460: dbf7 7166 d841 e1bf c1ae adff 0485 d7bf
00000470: 2881 4d0d 557e f23f b751 f46c 1cee c43f
00000480: a7c6 6f3d c23b f2bf f901 69f1 b022 a1bf
00000490: 6531 150d 50b2 ee3f d079 4163 07d2 b33f
000004a0: 3f5f 4b01 f875 f0bf 5a66 8f72 8edf e0bf
000004b0: f7e5 4a07 d436 ec3f 6759 1c27 0192 c7bf
000004c0: 4436 0d2d f30b e9bf 2c9d 3204 1916 e1bf
000004d0: 8ccf 73a8 c56a e73f 6eb7 907c 5927 c0bf
000004e0: b6a9 7e7c dc52 e3bf 6c93 885f 9a1c e0bf
000004f0: 278f 5949 61aa f53f d609 4500 7092 c63f
00000500: 4429 6b7e 3077 f5bf 4cd7 83a7 b41e aabf
00000510: 0616 c773 2ee6 f13f ad6a b095 ee16 ba3f
00000520: a842 60e9 fc3f f0bf c726 4620 2144 cbbf
00000530: 2b39 3c56 cfbd ec3f 340d 7cf0 4714 bc3f
00000540: ef73 346a 91fb e8bf 205a 33d0 cbfb cebf
00000550: bf8c fcb1 fef0 e73f 1a63 4870 c75a c23f
00000560: e337 04b1 a49b e3bf fbfc 01c8 e458 cfbf
00000570: 4cdd 5c06 3e78 f53f 3c40 8678 4a2d e03f
00000580: 454a a926 6eb1 f4bf 033d 446b 938f d13f
00000590: 17a7 93f7 2502 f23f 97c9 9d53 0410 db3f
000005a0: 8cf5 9441 6d2f f0bf 1e29 786b 974a bf3f
000005b0: b208 f967 dea5 ee3f 247d ba5e 12c1 d83f
000005c0: 1577 08bd 94b7 eabf 5cbe f800 40f5 a33f
000005d0: 51dd 5b51 80e3 ea3f c9cb 9831 c340 d73f
000005e0: 009c f7c2 1126 e6bf 926e 6d57 90d4 93bf
000005f0: f10e 0609 c7fb b03f b229 147e b092 e03f
00000600: b41e e041 fed7 b33f ae5d 975a bde2 e43f
00000610: 93d3 26d9 1e26 92bf e646 6d89 61f7 e8bf
00000620: fb2c 9e5f 6eae b93f f1c4 5dc8 ea0d efbf
00000630: 12ab 69ed a67c c0bf 0021 2cea 2a5e efbf
00000640: a19d ca1b c5d0 b13f 63aa 8b87 1e4a e2bf
00000650: c2d7 4a6d 79f5 b9bf dd54 c619 47eb e1bf
00000660: 2a41 e88d 5b9a e13f a836 7016 284c bc3f
00000670: 4f9c 5a8f 7273 e1bf 5e78 cf62 8042 c93f
00000680: ebc1 e580 fa65 ed3f 4102 417f 31dd fb3f
00000690: c683 130f c00d ebbf 57a1 a261 2a02 fd3f
000006a0: 8a32 b2c0 8604 f63f 0099 3cbe a6f9 f13f
000006b0: 5e03 0a61 28fe f8bf 5528 9c30 4fd3 eb3f
000006c0: 225b 01b0 4eab f13f 93ad 1fa6 c1af e33f
000006d0: 11f7 a7d6 5546 f6bf ee91 1553 4217 d43f
000006e0: 83dd bc99 06e2 ea3f 2b96 78dc ac6d c43f
000006f0: 9d98 894b 732c f2bf a039 001e 9224 9ebf
00000700: 782b f6f6 c261 e33f 8c42 c2f5 8f92 c3bf
00000710: b697 6057 e944 ecbf 839d c22e c9cb bdbf
00000720: b9d9 01f5 60fd d93f bc83 782d 1571 dbbf
00000730: e2d3 800e cf2b e6bf 178c edd9 bed6 bbbf
00000740: 563d cbaa 6214 f23f b23c 81fc 4278 b5bf
00000750: cc2f 1282 442b f2bf 17b2 7688 e412 d2bf
00000760: cf82 142b 2ee2 ec3f e427 0001 830c d3bf
00000770: 57d4 5804 a854 e9bf 9db7 52b3 0590 dbbf
00000780: 2f5d 81e1 e6d5 e53f 8948 10a8 bbed d0bf
00000790: 1e16 bd19 16c6 e1bf b797 1650 4a75 dcbf
000007a0: dc22 f601 ba41 e03f 989d 46bd 652e c9bf
000007b0: 9100 4ced 24f0 d7bf 095e 0fb5 309a dbbf
000007c0: fde0 3e10 cefb f23f 688c f0a7 e1de c73f
000007d0: fbca 15f9 f6fe f1bf f9b1 5f98 3681 69bf
000007e0: 2c21 2986 8dfd ec3f 3cc9 d6d2 02f6 673f
000007f0: 2d1f 5d68 51b3 f0bf 40cc f243 a094 e4bf
