data/QIPEDC/W03773.npy (npy, 216368 bytes, 1 tensors)

array f8 [17, 15, 106]
00000000: 63d5 2c3a cffd f03f c87d b153 2442 ec3f
00000010: 4eef 3d8a dd4c f3bf 929b 3b08 9dfe ec3f
00000020: 5efe df7f a620 ec3f c8a0 733a c8a9 df3f
00000030: d0c3 8661 9526 f0bf 3e64 a35d 3219 e33f
00000040: bffb cc28 64cf eb3f bad0 d1f6 0782 a23f
00000050: 36b6 dac4 bd59 efbf eca7 03d1 787e c83f
00000060: 0278 f6c4 8ad7 ec3f 4a58 79f0 cf75 d2bf
00000070: 40f8 2aab 1672 efbf b142 dd78 c35c b8bf
00000080: a138 a533 559d ed3f 51e5 ce59 3f3f e1bf
00000090: 2e4f 6577 65bc efbf 3427 87ba 4280 d3bf
000000a0: cbfc 5408 4c88 f13f ac42 cd6e 9fc6 c3bf
000000b0: bf0f 1f9b c64b f2bf f9f9 5cc4 32eb b1bf
000000c0: 99f4 6745 795d eb3f b101 bfbb 9e9a d5bf
000000d0: 25f0 2fb5 59eb ecbf c863 80d0 1b01 cbbf
000000e0: a8d0 ec33 18a1 e53f ddca 024e 8bd4 d3bf
000000f0: 45f1 b106 bacd e7bf bc43 6bf9 5381 c5bf
00000100: f217 01ec faa8 e13f 4ed7 8f6c 9ef0 cebf
00000110: 8c89 67a5 28e1 e3bf a0ff 12b9 ec07 bdbf
00000120: c7b2 1e3c 6cf1 f13f 82a0 3cb0 3559 9bbf
00000130: 5067 b4d9 54fa f2bf 3eeb acfd 7b2c 883f
00000140: 1e2b 0506 0d9a ea3f ee80 42a1 72a4 d0bf
00000150: caa2 b0d7 dfdf eebf 6166 0f92 26cb cdbf
00000160: d9b9 6f73 a1fe eb3f 08a8 1f59 d3b1 d3bf
00000170: 56b7 f051 783c e8bf c55b 41dd 43a4 c3bf
00000180: 4c80 9f8c d666 e73f f5bf 11ac 3555 cbbf
00000190: d63e 0b59 266e e3bf 94e8 6061 5be1 b1bf
000001a0: 9edc 9f16 09dc f63f 470d 8454 782d c13f
000001b0: d3c1 06c8 cd20 f5bf 5cd2 8568 79c4 c33f
000001c0: 27b2 198a 5f1e f23f 8a29 d697 09ae c7bf
000001d0: 45df d0cc a635 f0bf d27d 23af 554e a9bf
000001e0: b1a8 cd76 c255 ed3f 325d 1aef 6e9e c8bf
000001f0: 6460 23f8 c2ca e9bf e870 4446 09fd 85bf
00000200: 5f67 4e07 fae7 e83f e2c5 d0a2 6d50 c3bf
00000210: be29 9c50 ac1c e5bf 4011 4b77 c789 a13f
00000220: e983 120f 9db7 f53f a54d 423d 5107 d83f
00000230: 4b8b 29f6 e3b5 f4bf 693d 5ba6 96a5 d83f
00000240: aa6c 8096 4dc5 f23f cc04 51ff 635a b53f
00000250: e817 dbc4 d4b0 f1bf 84d2 8707 4e1f c83f
00000260: fb3c d73e dd6c f03f 9a44 b718 bdf6 433f
00000270: c209 828f 6fbe eebf db62 a357 3ad5 c13f
00000280: 97f7 a885 3a1e ed3f 02d0 4c96 57f9 a4bf
00000290: 3c05 7513 18df eabf a287 9f1f 6487 bc3f
000002a0: b13f 324e e590 a33f e369 a41e 381b e23f
000002b0: 1071 ed09 a318 7ebf 4537 b5e2 e198 e23f
000002c0: e28f acfe fbf2 8bbf d24d 5059 cc48 e9bf
000002d0: b00e 45ad f969 bc3f c5b9 478c 00cd eebf
000002e0: 3845 b54e 0644 bdbf 112b 5c09 eb48 efbf
000002f0: aceb a9f0 baca b23f ccae 53b3 7276 e2bf
00000300: 58c6 071c 5bd7 b8bf af60 17ac 1ccb e2bf
00000310: edf0 a980 fd0d e13f 58e6 07ba 5876 d03f
00000320: 0b76 b431 5212 e1bf 77d6 6189 99a0 d13f
00000330: 5280 4473 f8e1 ef3f 83ab 9570 08d2 fa3f
00000340: cf86 a538 0291 eebf 5986 bfa5 5ef8 fa3f
00000350: e23f c6b5 5a96 f13f 3905 8d1f 4053 ed3f
00000360: e064 ec1b c421 f4bf 6d82 28b6 df2d ee3f
00000370: 9dca 68d6 cd3d ec3f 1683 8d10 228e e03f
00000380: c45a 3248 1b45 f0bf 5390 919d 979c e33f
00000390: 816c 96d8 4ac2 eb3f 6de0 fee4 1f3c ae3f
000003a0: 9443 6f2f 1f84 efbf 0127 18aa f002 cd3f
000003b0: bc58 abdd 62e0 ec3f 93ac ecc1 8131 d1bf
000003c0: c727 1cdb 48b6 efbf c754 211c f7bf a9bf
000003d0: 6f23 7314 b701 ee3f 222f 8c91 ead2 e0bf
000003e0: 1103 24f7 b2f0 efbf 61fe 05fa e393 d2bf
000003f0: f473 0c1f 3d5d f13f a075 e835 e8bc c7bf
00000400: 9565 d677 8f1f f2bf a6e1 6763 fcf3 b5bf
00000410: 0050 d6b9 9d97 ea3f 3728 4d35 e58d d6bf
00000420: 505c e2ad 4d1d ecbf 95e5 9a7f e2c0 ccbf
00000430: 2715 561a 92f0 e43f 449e ba31 8143 d4bf
00000440: 9090 fb0a c7a3 e6bf bcc4 4b9e 8936 c9bf
00000450: f12d b6ea f0e5 e03f c343 99f8 c105 cebf
00000460: b2bd 9ad3 57b2 e2bf 3274 9fb2 184d c4bf
00000470: 38f6 df05 5be8 f13f 9413 e909 4cfe b2bf
00000480: bdfd 8b86 ead1 f2bf e739 106b fe52 9dbf
00000490: 6ac4 c43d 0147 ea3f 60ff 34ae b516 d2bf
000004a0: f822 343e 4b46 efbf 9e1c b28f e959 d0bf
000004b0: bd58 ff69 9f92 eb3f ddf5 8fa4 5a31 d4bf
000004c0: 620b ab60 2ef0 e7bf 45dc 1221 08a0 c5bf
000004d0: 1d58 0f8d 8555 e63f 879c c650 26fe cabf
000004e0: 5e8f 7422 4c0f e3bf dafe 8655 3722 b5bf
000004f0: 8f7e cd51 ff44 f73f 21a2 01ba 6a9f bc3f
00000500: 9931 5889 ecd3 f5bf 2cf6 2e10 8dc1 be3f
00000510: 7a86 18a4 3134 f23f d5c7 97d2 dc20 c8bf
00000520: 5bf0 ae99 8435 f0bf 5385 ad2f 5a09 b4bf
00000530: 7a96 55df 8027 ed3f cb22 7291 2e9b c7bf
00000540: f7ff 85e9 0a70 e9bf a733 a277 c1d2 95bf
00000550: f6be a706 ec55 e83f 4a6b 4f8f 8860 c0bf
00000560: ca61 5599 22cf e4bf d762 4c32 75c1 a03f
00000570: c48b da7c 683e f63f cafb 9944 5d23 d73f
00000580: bd30 e76a b770 f5bf 5ea0 0565 03d5 d53f
00000590: ce1b 731a bef9 f23f 9603 6d9e 335f b73f
000005a0: f889 8774 207a f1bf 8e61 9afd ef16 c93f
000005b0: 3e18 bb6d e076 f03f 8f1c eefe 3910 973f
000005c0: 2e8d 0c1f 75ed edbf db58 0835 7bb3 c73f
000005d0: 640c 68bf 3bac ec3f cc29 5a5f cc49 82bf
000005e0: 5136 2a2a 4307 eabf 9b82 99be 6118 c73f
000005f0: c646 e7e7 7298 a23f a558 a5a1 5ace e13f
00000600: 4546 5c55 711a 09bf 5a6f 91e5 42da e13f
00000610: d67d 8db7 d1d7 83bf ec3c 040d 4c68 e9bf
00000620: 36a5 d375 b4fa bc3f 2100 ec7d 71f1 eebf
00000630: fc40 62c9 977b bdbf 6877 e75d 5e71 efbf
00000640: 1e4a c1d3 05f6 b23f c871 8082 a24c e2bf
00000650: 5a01 2fe4 a02b b8bf 1600 2774 c571 e2bf
00000660: 0e35 81d7 fb17 e13f b508 5f25 3863 d03f
00000670: 5ee4 c579 a122 e1bf 16b0 2303 8b3d d13f
00000680: 4508 8710 3dbc ef3f eae9 1768 efd9 fa3f
00000690: a398 e45a 68ab eebf 11fb 86bd a102 fb3f
000006a0: f6ba ead2 f618 f23f 6168 b1e7 7a05 ee3f
000006b0: 1d9b 5bd7 788a f4bf f361 cf30 dfaa ee3f
000006c0: 0fa1 e1b9 bda7 ec3f 2c12 7689 7377 e13f
000006d0: fc6b d1f3 db6a f0bf 7933 9bc6 b441 e43f
000006e0: a0a9 2ac9 5bee eb3f 4130 35d5 6fbd b13f
000006f0: 864e a7f9 b6c7 efbf d7eb 6789 6db6 cd3f
00000700: 9b7f bce6 abda ec3f 6a05 20f6 343e d1bf
00000710: 49da bfb0 10f5 efbf 28cc 5e2a 55cd b0bf
00000720: 7451 36ab d5a1 ed3f ed70 773d 3423 e1bf
00000730: 91e8 613d b505 f0bf ccb4 7ab3 2855 d3bf
00000740: 63ff 06a8 d75f f13f a9c2 fb30 ad3a c9bf
00000750: d2bb 070f 6d24 f2bf 4915 4ca0 95dd bdbf
00000760: e6ff 0ce6 b612 ea3f 75ca 31e5 fbd3 d5bf
00000770: d7b5 f4a6 b979 ebbf ab29 bc25 708a cfbf
00000780: 287d cea2 813c e43f f090 1892 e72c d2bf
00000790: d99a 5c46 95c8 e5bf 4708 a596 ca45 ccbf
000007a0: a8be 6bb6 3954 e03f 5c44 00cc e1b8 c8bf
000007b0: c39f 9fff e8a5 e1bf a7fc f853 2bdc c7bf
000007c0: 5667 9147 29fa f13f a95c 9ee0 39c6 b4bf
000007d0: 2fdc f5a4 62d9 f2bf ebdc 6167 6f53 aebf
000007e0: f68d 2437 b6fa e93f 6ac4 e750 3ccc d1bf
000007f0: 296f 89de 9a50 efbf 5b17 87a0 aabf d2bf
1.0619652054277473 0.8830739626536621 -1.2062659645152567 0.9060807381437022 0.8789856431539638 0.49473767955943204 -1.0094198045373908 0.5968257740852392
0.8690663144005767 0.03614830863890135 -0.9797047467051871 0.19135961728835527 0.9013112875870777 -0.28844068988599203 -0.9826768248674469 -0.0951654596403937
0.9254556664179924 -0.5389706377092499 -0.9917476016948734 -0.30470340934390383 1.0957756352870998 -0.15449898634189674 -1.1434999522616491 -0.06999509138129402
0.8551603656375334 -0.3375622590501975 -0.9037292994321474 -0.21097133332003026 0.6759148611222559 -0.30984766596081476 -0.7438631182444985 -0.1680092780939314
0.5518774613817625 -0.24171810437081337 -0.6212352018886107 -0.11340217131055264 1.1214411114153096 -0.0267074955765172 -1.1861160759057903 0.011803597144184882
0.8313050382215328 -0.2600370955278909 -0.9648284161276817 -0.23276216632693816 0.8748328451745763 -0.3077286119793148 -0.757381591834682 -0.15345047286493077
0.7313034769577 -0.21353789235899936 -0.6071960200442514 -0.06984492423444727 1.4287196048515294 0.13420013548612017 -1.320508748391252 0.1544334183087298
1.1324153322740445 -0.18499870218176923 -1.013098526060234 -0.04942577135966143 0.9167187042596848 -0.19233500170660417 -0.8060011717270865 -0.010736534554375912
0.7783174650860295 -0.15089197587944542 -0.6597501348890586 0.03425429660049639 1.357327517391463 0.3754466150505443 -1.294406854220784 0.3851067184995914
1.17316969670973 0.08341050132095801 -1.105671662300205 0.18845534675314835 1.0265781836240524 0.0006092475245457363 -0.9607465556039687 0.13931969908914862
0.9099400148913784 -0.04096482953755755 -0.8397331600209905 0.11144090435075651 0.03821484164757239 0.5658226583939804 -0.0073477143003766315 0.5811623981369186
-0.013647049626861422 -0.7901365036399801 0.11099205475062024 -0.9625246753546938 -0.11431922360977331 -0.9776511366665962 0.07340591788844958 -0.5769589903333894
-0.0970360701974412 -0.5872939454229903 0.5329577935185889 0.25722330252719905 -0.5334864588546123 0.27542723098972693 0.9963342906303387 1.6762775800550294
-0.9552012544993093 1.685637137845694 1.0992076016009311 0.9164124122836831 -1.2582436648138398 0.9430998380449417 0.8825444400484518 0.517350227670337
-1.0168717212851996 0.6128652646552929 0.8674673300005368 0.05905246420246688 -0.9848781515557783 0.22665222459209391 0.9023908929327926 -0.26864665925922643
-0.9910015372745357 -0.05029270380388478 0.9377093696030964 -0.5257466166235398 -0.9981322123495336 -0.29027652183865454 1.0852633679235142 -0.18545248634556533
-1.1327051812316757 -0.08575417925738424 0.8310078267700192 -0.35241060452665657 -0.8785770794082826 -0.2246363757201776 0.6543665422802051 -0.3166201577791734
-0.707492371988808 -0.19697685460372394 0.5280689796649637 -0.2345507110462944 -0.5842703946017791 -0.1586027977163283 1.1192274312483175 -0.07419276468233554
-1.1762490516410786 -0.02863690880263361 0.8211675840776824 -0.28263608944324936 -0.9773308005252082 -0.25548781426227574 0.8616482801687863 -0.3155123335889963
-0.7480689895677239 -0.1689462815754458 0.6979396586491508 -0.210881032410928 -0.5956173584895443 -0.08255334699697006 1.4543450541895344 0.1118075088612689
-1.3642392506618306 0.12014085431197746 1.137742653846003 -0.1885028866086588 -1.0130659106498772 -0.07826770462044878 0.9110721933363515 -0.184423275965193
-0.7949270783428791 -0.021311781813483723 0.7604885225282192 -0.1279459666974055 -0.6502850527568225 0.032725965871753075 1.3902363659951655 0.3615334672867304
-1.3400186706449368 0.3411262976210362 1.1859723122777157 0.0912964116842104 -1.0923161079341508 0.19601249583207586 1.0290226255761037 0.02252283686132422
-0.9352365118433335 0.18516483392222124 0.8960245836646092 -0.008929821643751355 -0.8133865188153299 0.1804315739309644 0.036319342430613896 0.5564397008081597
-4.788072935303344e-05 0.5578932269813592 -0.009688986219486145 -0.7939815763692457 0.11320045353536021 -0.9669730624591503 -0.11516712824436931 -0.9825889429155099
0.07406650943566048 -0.5718548344480547 -0.09441571780098937 -0.5763880985832681 0.5341777047230225 0.25605586671384667 -0.535477388227388 0.26938128763754443
0.9917283366014621 1.6782068315648027 -0.9584237838032731 1.688142528859036 1.1310947646085743 0.9381689572576414 -1.2838066494384244 0.9583583787271536
0.895476210641421 0.5458314595021583 -1.026088669218324 0.6330207709339525 0.8728465012584827 0.06929682688968432 -0.9931292415662518 0.23212975701593905
0.9016932970589439 -0.2694218066754589 -0.9986651851784895 -0.06563312801772325 0.9260052055347345 -0.5355473709601292 -1.0013935468437334 -0.3020726921775576
1.085899025303626 -0.19710316554803356 -1.1338930689923825 -0.11666236079698424 0.8147844784907619 -0.34106347448611213 -0.8586090336663642 -0.2464122947934134
0.6323860339943268 -0.28399075762923953 -0.6807352422955218 -0.22087986331649942 0.510281425753381 -0.19314215146053726 -0.5515027039191341 -0.1864065322897421
1.1235745235084855 -0.08114968999722073 -1.178072590233352 -0.059230309839159855 0.8118544651992454 -0.2780905523387164 -0.978589472429552 -0.29294839550526824
