data/QIPEDC/W03968.npy (npy, 267248 bytes, 1 tensors)

array f8 [21, 15, 106]
000000 f9 e5 be c2 e2 ca c8 bf 46 1e fc 90 58 dd f2 3f
       -0.19369158276622025 1.1790395415754502
000010 c3 8c a5 9e ea e2 e2 3f 97 48 0e 61 18 b7 ee bf
       0.5901997660224868 -0.9598504920598029
000020 b1 25 40 66 a9 9f d1 bf b3 96 97 3e 21 83 ef 3f
       -0.27536997781188705 0.9847570631506727
000030 54 67 5d cd 87 58 d7 3f 5b c2 fd 97 e5 84 f1 bf
       0.3647784715191069 -1.0949455201299745
000040 cd 5c b0 b4 42 1e d3 bf 9a 7e 78 f6 02 22 e9 3f
       -0.2987219585933872 0.7854018033867363
000050 06 85 e6 68 c5 ae c3 3f 02 ec a7 34 60 4c f1 bf
       0.15377109167187814 -1.0811464363930559
000060 8b 5d 9e 4f e7 bf cf bf 6d d8 41 a1 d1 ac e4 3f
       -0.24804393184306792 0.6460960530810219
000070 74 3e e5 f5 a0 d4 63 3f fd e0 f7 24 db ff f0 bf
       0.00242072522738806 -1.0624648517678559
000080 89 7f 60 ef 40 02 c5 bf c5 f4 29 ca 85 80 e1 3f
       -0.1641312760193581 0.5469387959016322
000090 1a 5b 64 a6 1d ed bf bf 7d b0 9a 92 73 4f f1 bf
       -0.12471185028367096 -1.0818973280647974
0000a0 90 8b 47 85 ac c5 c2 bf 30 1c d7 84 c5 0d f2 3f
       -0.14665752895151885 1.1283621968339155
0000b0 60 7b 79 f9 5e a7 c4 3f 5c d4 13 fa 68 3a ec bf
       0.16135775739072766 -0.8821301349950192
0000c0 ad f2 2d e5 15 b5 b1 bf ff 20 80 42 39 98 f0 3f
       -0.0691693958778596 1.0371639821697156
0000d0 85 9d fe c7 8d a8 aa 3f 44 4d 00 1f 29 0e ee bf
       0.05206721369114135 -0.939228592442682
0000e0 5a a2 eb 60 d9 26 a7 bf 0f 21 8c 41 62 0a eb 3f
       -0.04521827037917055 0.8450175552580123
0000f0 5d 2a b7 85 39 b9 57 bf ae 7c 0d 9b 6b 25 f1 bf
       -0.0014479696027246615 -1.0716358238931138
000100 60 73 07 07 e0 05 a3 bf 08 5c 21 29 64 88 e6 3f
       -0.037154198511166525 0.7041493228269937
000110 3f 1a b8 75 ac 01 a3 bf ae 26 69 39 1d 5c f3 bf
       -0.03712214409829472 -1.2099888079268726
000120 81 29 3d 00 d6 08 7c bf 8a c4 9a a8 4d 67 f3 3f
       -0.006844364110131785 1.2127205453983003
000130 20 f2 f3 d3 f9 c9 cc 3f 3e b2 17 74 bd f5 eb bf
       0.2249138150144896 -0.8737475650246507
000140 6c db 56 b7 5b 49 b9 3f b4 21 49 49 8b ff f2 3f
       0.09877560831124094 1.1873886931153779
000150 ae 6a 70 13 12 5f b6 bf 0d 63 78 64 51 62 eb bf
       -0.0873881623705681 -0.8557517015752595
000160 1c d3 c4 f2 b1 74 b4 bf 36 10 a6 48 0b 60 ef 3f
       -0.07990562607740198 0.9804741305274607
000170 75 9f 57 2d bc ec c0 bf 29 6c b0 45 f3 ea ef bf
       -0.13222458089807856 -0.9974304543606013
000180 0b 05 85 e2 99 0a b9 bf b3 5d 70 c0 c4 8f e9 3f
       -0.09781801014198181 0.7987998732159468
000190 0b a9 9c 42 15 e6 c4 bf 19 e9 3e d0 88 50 f2 bf
       -0.163271577382439 -1.1446617254828821
0001a0 bd 8f 31 4e 2c 92 b9 bf 17 48 63 46 ea 66 f4 3f
       -0.09988667401336122 1.2751257657550974
0001b0 e1 14 19 96 6a fe ba 3f f6 78 a0 39 5a af e9 bf
       0.10544458546162928 -0.8026553273701029
0001c0 03 b1 42 b5 b9 b6 85 3f 01 92 da a3 ce db f3 3f
       0.010602427333957559 1.2411638641871152
0001d0 83 43 94 8d c2 89 45 bf 7d 3a a4 e5 25 d7 eb bf
       -0.0006572914091141777 -0.8700131879030121
0001e0 be 46 d1 ab 72 3f a0 3f c5 87 b0 36 2b 11 f0 3f
       0.03173406932240884 1.0041916023551363
0001f0 98 cb d6 79 68 ff ad bf 4f 08 bf b8 bd bf ef bf
       -0.0585892342309286 -0.9921558960270519
000200 fe 2d 84 ce ac 4f 8d 3f 64 ef f4 27 2d ca ea 3f
       0.01431212430227102 0.8371797352224175
000210 e0 42 17 77 a8 ae b9 bf 1d 56 4f 8b db db f1 bf
       -0.10032132060519983 -1.1161761705201407
000220 3a 42 9f 7f e5 ba 9d bf 30 40 51 35 ff c8 f3 3f
       -0.029033265985903813 1.2365715105734232
000230 be cd 41 0d f5 99 ca 3f 7e 3a 05 7b cd 33 eb bf
       0.20782340190235787 -0.8500735666983272
000240 7e 65 08 96 80 6a b0 3f b0 ee 1b 11 9b f3 f2 3f
       0.06412509596738933 1.1844740551304476
000250 11 23 e9 3f a7 ce c0 3f cc 9c 36 6d f3 0a ec bf
       0.13130655880583977 -0.8763367779801228
000260 e1 56 41 1f f0 7e b8 3f 3f a5 16 03 c5 34 f0 3f
       0.09568691981379686 1.0128831978457382
000270 1c 9f 69 b2 91 63 b2 3f 5b 4f 91 17 66 f9 ed bf
       0.07183180433059672 -0.9366941891007444
000280 e5 73 1c 4a 19 b0 b7 3f 86 b1 60 31 e9 1d ec 3f
       0.0925308042464646 0.8786512340935111
000290 a4 fc e6 9c 46 44 98 3f 3e 25 1d 7f fd 1e f0 bf
       0.023697951628261507 -1.0075659718880412
0002a0 a7 c6 f3 ac dc 08 cd bf aa 26 c6 11 34 25 f7 3f
       -0.22683294720586852 1.4465828604028652
0002b0 a2 32 1a 24 5c 3f b9 bf 09 35 b9 46 89 57 f6 3f
       -0.09862304574398675 1.3963711512217876
0002c0 a1 fd cf 60 9b 63 92 bf de b6 15 32 b7 cc ea bf
       -0.017958095344508988 -0.8374896982402011
0002d0 8d 09 9c d9 67 04 b1 3f c0 7b 49 06 0e 8a f0 bf
       0.06647347510082664 -1.0337047811114957
0002e0 70 32 d7 d6 27 58 c3 bf 18 44 a3 a1 e9 65 ef bf
       -0.15112779608024907 -0.9811905056941468
0002f0 81 ac 98 11 23 77 b1 3f c5 9a 34 9a 89 00 e4 bf
       0.06822413615798163 -0.6250656139207754
000300 4f 93 f5 23 40 ce ba bf aa 09 84 65 71 a9 e2 bf
       -0.1047096336165627 -0.5831839544992381
000310 7c 82 d6 a4 93 06 e0 3f 6d e2 9e c3 65 87 d1 3f
       0.5008028239718239 0.27388900855615966
000320 4f 7a 1c 3e 3d c5 e1 bf 5f 75 b9 bb 7d eb dc 3f
       -0.5553270543203527 0.45187323887315317
000330 a2 4b fa 22 b5 72 e9 3f 91 06 2b 0b 6d ca f8 3f
       0.7952523883017089 1.5494203983547872
000340 93 eb df 11 8e 40 e3 bf eb 2e 01 05 36 91 fc 3f
       -0.6016302441706664 1.7854519076817563
000350 66 96 7c 24 54 df a6 bf e9 f9 e4 96 1c ba f3 3f
       -0.044672612623156735 1.2329374212564466
000360 6e 88 ab 03 60 14 e2 3f 76 6e a9 0b ff 6f ee bf
       0.5649871894531893 -0.9511714198847148
000370 68 46 7f 0d 08 ae c5 bf 1d 69 ba bd 51 98 f0 3f
       -0.16937351855317506 1.0371873294121265
000380 c5 ea bc 5e 93 48 d3 3f 61 70 5c d3 e5 1d f1 bf
       0.30130466701272623 -1.0697992569248742
000390 62 3d 67 34 fb a4 ce bf 33 de d7 96 83 aa ea 3f
       -0.23940982874635625 0.8333146997601432
0003a0 d8 f8 e8 64 28 a9 b5 3f 43 62 74 cf 17 ef f0 bf
       0.08461239303230472 -1.0583723167129768
0003b0 19 58 c2 c6 e6 58 cb bf af 1d ad f1 4f f8 e4 3f
       -0.21365055756604148 0.6553115577925633
0003c0 bb b4 e3 88 63 4a b0 bf 61 4a 6c 34 c5 ac f0 bf
       -0.06363508312252268 -1.0421802566312623
0003d0 59 44 f9 bd aa 08 c3 bf f6 76 83 c0 2a 50 e0 3f
       -0.14870199466762093 0.5097860107450447
0003e0 90 ba d5 3c 37 08 c8 bf 72 e9 2e 8e 07 26 f1 bf
       -0.18775072546437288 -1.0717845491440952
0003f0 36 f9 3e 69 31 e2 b7 bf 3d 3c 7b 6f 02 f7 f2 3f
       -0.09329518146021062 1.1853050570241657
000400 40 90 74 19 2e 3d bc 3f b8 63 76 46 05 d1 eb bf
       0.11030853387325212 -0.8692652107448486
000410 fb ed 1e b7 5a 7c b2 bf 23 7e 8a 32 f5 b9 f0 3f
       -0.07220999689791789 1.0453998541123688
000420 9c d3 11 80 72 86 97 3f b0 bb 73 93 16 97 ef bf
       0.022973813120603745 -0.9871933822558869
000430 d7 e6 88 58 91 4f ac bf b6 b9 06 00 66 8a ea 3f
       -0.05529455381151898 0.8293943405640707
000440 c3 71 b0 15 81 ee 9e bf 02 08 15 94 11 2c f2 bf
       -0.030206696461492443 -1.1357589516123885
000450 56 99 20 8c eb d4 a3 bf f7 bd 65 e3 dd fc e4 3f
       -0.03873382649935546 0.6558675233226826
000460 0a 7c b4 b1 e2 75 b2 bf 96 41 e6 57 00 81 f4 bf
       -0.07211129034520539 -1.2814944680759246
000470 4c b8 ed 75 a5 39 ab 3f d0 fa fd 2b 20 6c f3 3f
       0.05317418160017037 1.2138978689614994
000480 e1 cf 87 ed 3b 5b c7 3f 5d 32 ea 49 e9 30 eb bf
       0.18247174356622423 -0.8497206157349627
000490 3b 8b 2c df 67 f5 bb 3f c6 a2 48 30 b7 e4 f1 3f
       0.10921334456047031 1.1183387647708272
0004a0 09 24 9b bd 00 02 bf bf c7 c9 5d ff f4 20 ec bf
       -0.12112431172421635 -0.8790230739235135
0004b0 21 8d 24 f0 72 46 b7 bf 83 4f 83 fa 24 c1 ef 3f
       -0.09091871607647707 0.9923272030668929
0004c0 c4 9d 12 a4 72 75 c6 bf 8d 0b d2 c7 80 90 f0 bf
       -0.1754592229019477 -1.0352790647018282
0004d0 1a 7d 27 ca a0 d1 ba bf 5f 75 49 8f 8f 28 ea 3f
       -0.10476117072493132 0.8174512671063602
0004e0 20 05 33 4e 85 d9 ca bf 02 8a 3b 4a b3 e8 f2 bf
       -0.20976320570302054 -1.1818116092405266
0004f0 36 9e ab d6 d1 a7 a3 bf 86 8c db 3e ee 16 f5 3f
       -0.038389737563019485 1.3180983024001605
000500 46 db 86 82 50 f2 b0 3f 41 c1 b7 96 f2 e2 e7 bf
       0.06619742571534201 -0.7464535659510504
000510 44 99 a6 3b a1 11 a1 3f c3 f3 50 b1 5f 95 f3 3f
       0.03333762982519997 1.223968212739451
000520 fe 5c dd 59 65 ad 94 bf 6d 35 4b 7c 21 45 ec bf
       -0.0201927028750477 -0.8834388187039345
000530 90 34 1d eb cb e1 a1 3f 30 cf 53 fc 9b b4 ef 3f
       0.034925816011857624 0.9907970360058922
000540 24 df 66 c8 77 00 b4 bf 73 cf 4e 1d d4 21 f0 bf
       -0.07813213961241822 -1.0082589287603383
000550 4c 45 d8 05 da 68 8c 3f 45 4a be f5 b7 90 ea 3f
       0.013871863654488913 0.8301658439325555
000560 a9 da 5b 39 3d 00 bf bf 4a 73 0b ba ba 26 f2 bf
       -0.12109739923821884 -1.1344554202434716
000570 fb 16 43 e0 2d 6a a9 3f 3c d2 d2 ce 6e 1a f4 3f
       0.04963820803236093 1.2564533309024588
000580 e2 be 65 c2 e8 1c c6 3f e6 64 85 f8 cd 97 e9 bf
       0.17275723926603975 -0.7997808317114987
000590 83 b3 ba 68 1c e9 be 3f de 39 b1 4d d2 9c f2 3f
       0.12074449116580692 1.1632864985327767
0005a0 de dd c7 a5 63 71 bd 3f 95 f7 72 f4 3d a7 eb bf
       0.11501143262272914 -0.8641652845760627
0005b0 45 80 e5 fd dc 9c c0 3f 4f 93 fd 1b 97 c6 ef 3f
       0.12978708646096684 0.9929919764223117
0005c0 e7 7a a7 dd ed 21 b2 3f b0 c0 26 fb 96 66 ed bf
       0.07083021794776877 -0.9187731652546258
0005d0 0d 8e d4 c3 9e de be 3f 7c a9 16 ad de 56 eb 3f
       0.12058441430104257 0.85435422712662
0005e0 c0 cd 4f 51 54 76 a0 3f 5c a5 04 91 6a a1 ef bf
       0.03215278141569966 -0.9884541351686198
0005f0 47 d5 51 f6 83 8f cb bf e6 47 98 f5 0e eb f4 3f
       -0.2153172447903364 1.3073873132275309
000600 06 c3 d2 9c 28 62 b6 bf 28 8c c5 ca 57 a6 f3 3f
       -0.08743528202718318 1.228111068798862
000610 f0 8a 2a e2 10 f6 93 bf 65 b3 98 cb 9f d5 ea bf
       -0.019493354610527314 -0.8385771728986638
000620 3e 4d ce 99 68 ac b1 3f d6 5f a5 76 61 87 f0 bf
       0.06903699641252545 -1.0330519327744603
000630 fb 14 da a3 98 61 c3 bf 6b c2 2d 53 22 69 ef bf
       -0.15141590118961532 -0.9815837502083701
000640 5c 4a d0 f4 f4 db b0 3f c5 8e 8a 3d c6 15 e4 bf
       0.06585627533812882 -0.6276580049493182
000650 9b f2 60 36 fc 2d bb bf 3f 7d 6a 7d a6 a5 e2 bf
       -0.10617042853932405 -0.5827209901362166
000660 9c dc 08 ca 3c bb df 3f 8a 04 df e5 26 5d d0 3f
       0.49580306749289504 0.2556855435214592
000670 07 5c 11 00 63 93 e1 bf 3f 32 27 34 c9 a9 db 3f
       -0.549241542942469 0.4322379121120185
000680 0f 4f fe cd 7a e1 e8 3f dc 33 06 75 73 3a f8 3f
       0.7775243781383966 1.514270264745611
000690 5f 3c f1 ad eb 9e e2 bf 2c 5f fb 67 49 c8 fd 3f
       -0.5818994901000102 1.861398130587939
0006a0 70 1f 12 4d ab 18 7a 3f c1 6b b4 cd 9e 95 f4 3f
       0.006371182579762422 1.2865283999769732
0006b0 1f d0 6a 15 f8 1e e2 3f d7 b3 16 2a b4 19 ed bf
       0.5662804048829492 -0.9093876668972553
0006c0 2a 9a 52 2b b8 63 c3 bf 57 30 1d 27 dd da f1 3f
       -0.15148069491734023 1.1159335639850008
0006d0 2d a7 e5 41 52 ab d1 3f 7a f3 16 92 83 28 f0 bf
       0.27608162341367654 -1.009891100561815
0006e0 d5 5c df 9e c8 84 ce bf 06 d3 40 15 c2 da eb 3f
       -0.2384272361511878 0.8704538741208985
0006f0 4d 80 b1 d1 83 ed ab 3f db 2e 2c f4 06 68 f0 bf
       0.05454647001965949 -1.025397256659679
000700 34 cb 0b a3 a1 0c cb bf 96 d2 65 f4 d3 36 e5 3f
       -0.21132297955736024 0.6629428647416542
000710 ac b6 c8 80 bc 36 b8 bf 6f ff 27 45 e7 93 f0 bf
       -0.09458521026746308 -1.0361092282691649
000720 ae 96 c9 f9 6d 94 c1 bf c1 72 2d 5b 45 26 e0 3f
       -0.1373422116914091 0.5046717434703042
000730 85 0b 3c 08 e8 a2 cb bf 6f d7 db fb 96 b1 f1 bf
       -0.2159090080459373 -1.1058568800194413
000740 12 0e 9b 11 ec f0 b5 bf dd 8a 5f 48 39 68 f3 3f
       -0.0857074301703096 1.212945254047262
000750 2e e3 08 2f d1 89 ba 3f 8e 83 a2 08 2f 17 ec bf
       0.10366542242344387 -0.8778300446175409
000760 8a c7 0b 93 be 62 b3 bf 53 b7 f6 21 0d 36 f0 3f
       -0.07572547044745029 1.013196118040885
000770 c0 58 f8 cd c6 e1 73 3f a8 ca c3 5b cb 43 f0 bf
       0.004853989200929998 -1.0165513596117908
000780 38 e4 89 cd 61 a5 a6 bf f6 02 a7 06 8a 45 e8 3f
       -0.044230514850774616 0.758488667481372
000790 34 7f 85 84 a2 18 aa bf 52 6d 4d 7b 83 9a f2 bf
       -0.050969198872506644 -1.1627230469228675
0007a0 b7 68 80 28 19 f7 8c bf 2c 02 02 22 f0 3d e1 3f
       -0.014143177555571247 0.5388107933250175
0007b0 ca dc 7e 8d 3a ee b7 bf 78 f7 67 28 90 dc f4 bf
       -0.09347883181077346 -1.3038484171260887
0007c0 42 11 c9 1b 4e 45 b5 3f 90 8d 8b de f8 e2 f3 3f
       0.0830887620769021 1.2429131215256781
0007d0 f3 c3 30 45 c4 a0 c8 3f f9 02 61 00 f8 c9 eb bf
       0.19240620974008457 -0.8684043891335868
0007e0 51 77 71 a6 ae 21 c0 3f 56 4b db 5b ef be f1 3f
       0.12602790000067413 1.10911498910419
0007f0 b0 19 21 d1 6a 29 c3 bf 15 8d b6 8c 20 23 ec bf
       -0.1497014542712356 -0.8792879818251175
