data/QIPEDC/W04025B.npy (npy, 114608 bytes, 1 tensors)

array f8 [9, 15, 106]
0	0x0000000000000000	0.0
1	0x0000000000000000	0.0
2	0x0000000000000000	0.0
3	0x0000000000000000	0.0
4	0x0000000000000000	0.0
5	0x0000000000000000	0.0
6	0x0000000000000000	0.0
7	0x0000000000000000	0.0
8	0x0000000000000000	0.0
9	0x0000000000000000	0.0
10	0x0000000000000000	0.0
11	0x0000000000000000	0.0
12	0x0000000000000000	0.0
13	0x0000000000000000	0.0
14	0x0000000000000000	0.0
15	0x0000000000000000	0.0
16	0x0000000000000000	0.0
17	0x0000000000000000	0.0
18	0x0000000000000000	0.0
19	0x0000000000000000	0.0
20	0x0000000000000000	0.0
21	0x0000000000000000	0.0
22	0x0000000000000000	0.0
23	0x0000000000000000	0.0
24	0x0000000000000000	0.0
25	0x0000000000000000	0.0
26	0x0000000000000000	0.0
27	0x0000000000000000	0.0
28	0x0000000000000000	0.0
29	0x0000000000000000	0.0
30	0x0000000000000000	0.0
31	0x0000000000000000	0.0
32	0x0000000000000000	0.0
33	0x0000000000000000	0.0
34	0x0000000000000000	0.0
35	0x0000000000000000	0.0
36	0x0000000000000000	0.0
37	0x0000000000000000	0.0
38	0x0000000000000000	0.0
39	0x0000000000000000	0.0
40	0x0000000000000000	0.0
41	0x0000000000000000	0.0
42	0xbfafc829cf2aee6f	-0.062073999918962446
43	0x400d905c030fc817	3.6954879988852656
44	0x3fd8b432c2b87f65	0.38599843040173304
45	0x3fff863646c3c380	1.9702666057821432
46	0x3fd461a79c00ce66	0.3184603713482147
47	0x3fe5ca4c80efa58e	0.6809446829112618
48	0x3fccdc1ea2b6799c	0.22546751923523523
49	0xbfd33b4b742eb3dc	-0.30049406381550425
50	0x3fc5388f8c8463b4	0.16578859673680102
51	0xbff412dcf59012cf	-1.2546052543922774
52	0xbfe7b1f4d436883d	-0.740473188856647
53	0xbfcb12283eb53a80	-0.2114916139784846
54	0x3fb26df45681eeb3	0.0719902716827459
55	0xbffa5349474a0464	-1.6453335556728002
56	0x3fdb2585dfe74ca8	0.4241652189786671
57	0xbfe6097303d8da9e	-0.6886534762514491
58	0x3fd388f41c9a3514	0.3052339820213359
59	0x3fbc3e59cf899d19	0.11032639805636214
60	0xbfec31709f288dac	-0.8810351475298623
61	0xbfb09942710fd0ca	-0.0648385549573646
62	0x3fc71dcaabc1b474	0.18059667002254154
63	0xbff819427e52073d	-1.506166928710129
64	0x3fdd27f94646a8e6	0.4555648027695852
65	0xbfd95cb6798ba69f	-0.3962837397544749
66	0x3fcc3ba33e8570e0	0.2205699973372992
67	0x3fdd87ceba5d6abb	0.46141403388689256
68	0xbfed95505581e308	-0.9244767828050451
69	0x3f97a6a2e7dc0030	0.0230966047301992
70	0x3fbf28720d962a30	0.12171089965537685
71	0xbff4baa808f491b5	-1.2955704068964284
72	0x3fd43667c3bd2bed	0.31582063784725173
73	0xbfc66e9726172d10	-0.17524995193375803
74	0x3fb287e4dc65caeb	0.07238607769776777
75	0x3fe3adff3085bb2a	0.6149898479178308
76	0xbfec2db15d000adf	-0.8805777374658098
77	0x3fc423661bab82fb	0.1573302874667418
78	0x3f936ddffb4629e4	0.018973827086975606
79	0xbfeb81eea9334ad3	-0.859610872716383
80	0x3fca6d10e3edcd12	0.20645342950192763
81	0x3f8e63b0c1d112cd	0.014838581957641673
82	0xbf41d25c460851bc	-0.0005438757471574666
83	0x3fe56d640ff2d10a	0.6696033774847205
84	0xc008625ea3ee85f5	-3.0480320746580625
85	0xc006d5b6a21a9b5d	-2.854352251469591
86	0xbfd288412ed6a3b0	-0.28956632207933364
87	0xbfe652cd3c22964d	-0.697607629252795
88	0xbfb6706b70fdef6a	-0.08765288837997579
89	0xbfea1aa96c241957	-0.8157546150330671
90	0x3faec3faceeb6a3f	0.06008895660280133
91	0xbff0c2bb0ba9c467	-1.047541661795799
92	0xbfc89f2e134c8262	-0.19235778753592842
93	0xbff01a1613594073	-1.0063687091642606
94	0x3f9c58c9da0c9cf6	0.027682451184912936
95	0xbfe2950faa081c1b	-0.5806959458285549
96	0xbfc509a40ed70c55	-0.1643567154370397
97	0xbfe1883aa3ceb906	-0.5478795241704411
98	0x3fe4b5438f4620cb	0.647126941520605
99	0x3fd7ba34d312a2ca	0.3707401334054735
100	0xbfe01c3500c1500d	-0.5034432425259198
101	0x3fd3cd60d693b98c	0.3094102950552944
102	0x3fea6041c22173b8	0.8242501060118377
103	0x3fff6128a97ef9f1	1.9612204190194655
104	0xbfe3901455bcbe59	-0.6113378214412918
105	0x3ff5b5bce817eb10	1.3568696085118894
106	0x0000000000000000	0.0
107	0x0000000000000000	0.0
108	0x0000000000000000	0.0
109	0x0000000000000000	0.0
110	0x0000000000000000	0.0
111	0x0000000000000000	0.0
112	0x0000000000000000	0.0
113	0x0000000000000000	0.0
114	0x0000000000000000	0.0
115	0x0000000000000000	0.0
116	0x0000000000000000	0.0
117	0x0000000000000000	0.0
118	0x0000000000000000	0.0
119	0x0000000000000000	0.0
120	0x0000000000000000	0.0
121	0x0000000000000000	0.0
122	0x0000000000000000	0.0
123	0x0000000000000000	0.0
124	0x0000000000000000	0.0
125	0x0000000000000000	0.0
126	0x0000000000000000	0.0
127	0x0000000000000000	0.0
128	0x0000000000000000	0.0
129	0x0000000000000000	0.0
130	0x0000000000000000	0.0
131	0x0000000000000000	0.0
132	0x0000000000000000	0.0
133	0x0000000000000000	0.0
134	0x0000000000000000	0.0
135	0x0000000000000000	0.0
136	0x0000000000000000	0.0
137	0x0000000000000000	0.0
138	0x0000000000000000	0.0
139	0x0000000000000000	0.0
140	0x0000000000000000	0.0
141	0x0000000000000000	0.0
142	0x0000000000000000	0.0
143	0x0000000000000000	0.0
144	0x0000000000000000	0.0
145	0x0000000000000000	0.0
146	0x0000000000000000	0.0
147	0x0000000000000000	0.0
148	0x3fba79db552516dc	0.10342188671810554
149	0x400d980dadef4d82	3.699244841447297
150	0x3fd884edd031bfbe	0.3831133397243284
151	0x3fffb99a415c5585	1.9828131249572334
152	0x3fc4ca2b39c3c78a	0.1624197036795148
153	0x3fec17318d9b4751	0.8778312459710184
154	0x3f84bb0d25c414c0	0.01012239715101726
155	0x3f987aebf42fc46b	0.023906409052817084
156	0xbfb567189f063740	-0.0836043728106377
157	0xbfe858f7a8bee1e6	-0.7608602805913136
158	0xbfecc3881cea18b1	-0.8988686146483557
159	0xbfc65a8b6edd7469	-0.17463820374806296
160	0x3fc116ec19951cc9	0.13351203202385012
161	0xbff88a1ba552933b	-1.5337177713310683
162	0x3fdb2e7ad3d7f416	0.42471190154884775
163	0xbfe365fce09b36fb	-0.6061996828882167
164	0x3fd144b8c862beda	0.2698194462673037
165	0x3fd3dc0a37da7dde	0.3103051705784007
166	0xbfeef4a28721cf9e	-0.9673626555727315
167	0xbfb45facace25b0e	-0.07958487721257887
168	0x3fc7acb3751a12c5	0.1849579164301273
169	0xbff9b8f6b4fbc52f	-1.607657153097829
170	0x3fde055f1961ae34	0.46907784918468853
171	0xbfe1d73a23cbe650	-0.5575228404188213
172	0x3fd37991c947ad68	0.30429501205681797
173	0x3fd6f33d34ecc6d7	0.35859613579223776
174	0xbfee9f2d2cb9d73b	-0.9569307206681751
175	0xbf921d05fe2904df	-0.017688840520581613
176	0x3fc62885c64a8bd6	0.17311165029704395
177	0xbff703243b31617d	-1.4382669746611036
178	0x3fdad07cdd68ef02	0.4189750826078439
179	0xbfd7f2f118ea479d	-0.37420298989411
180	0x3fce136df0e6de73	0.23496793997559315
181	0x3fde857fd49aa101	0.47689815294371846
182	0xbfeaeb08d2405c64	-0.8411907297585342
183	0x3fb51b78f8074b57	0.0824504476106943
184	0x3fb5db087b59aa05	0.08537343036156393
185	0xbfef66c279ad1733	-0.9812939049231545
186	0x3fd2ca9c1506ea4f	0.2936163144437715
187	0xbfc89ed4e0bcd377	-0.19234715436473568
188	0x3fb8b1ae3ca07134	0.09646119098801337
189	0x3fe061c5d05751ac	0.5119351452981866
190	0xc0087a41e343f608	-3.0596959834208555
191	0xc006dcb7ef16cd67	-2.857772701152203
192	0xbfd33ddba0fc906a	-0.3006505081305081
193	0xbfe968e6bd5901a0	-0.7940553377339263
194	0xbfb3ecf56a4a961c	-0.0778344521046041
195	0xbfea285e20678aa2	-0.8174276955508797
196	0x3fb0a9ff7bf84b1a	0.0650939633999709
197	0xbff0b9351353ea43	-1.0452166323654104
198	0xbfc8f4775225f534	-0.19496051322122698
199	0xbff0178fa1aeb425	-1.0057522121162574
200	0x3fa25867ebfb2a9d	0.03583073382977384
201	0xbfe2918446a525c0	-0.5802632694041492
202	0xbfc4f9cbe3f800af	-0.16387318259513026
203	0xbfe18421f2faa8d6	-0.5473794694601348
204	0x3fe4946af89b837d	0.6431174140562771
205	0x3fd8b7a5e12dec07	0.38620898237394424
206	0xbfe0f37f86a67454	-0.529723895062157
207	0x3fd41b82cf4b2682	0.3141791366912018
208	0x3fea3fbad6a0d1d4	0.8202795211751046
209	0x3fffb17963ef99f4	1.9808286575076837
210	0xbfe3223d3c03ccd5	-0.5979295894780089
211	0x3ff5098351f86c67	1.3148225023240003
212	0x0000000000000000	0.0
213	0x0000000000000000	0.0
214	0x0000000000000000	0.0
215	0x0000000000000000	0.0
216	0x0000000000000000	0.0
217	0x0000000000000000	0.0
218	0x0000000000000000	0.0
219	0x0000000000000000	0.0
220	0x0000000000000000	0.0
221	0x0000000000000000	0.0
222	0x0000000000000000	0.0
223	0x0000000000000000	0.0
224	0x0000000000000000	0.0
225	0x0000000000000000	0.0
226	0x0000000000000000	0.0
227	0x0000000000000000	0.0
228	0x0000000000000000	0.0
229	0x0000000000000000	0.0
230	0x0000000000000000	0.0
231	0x0000000000000000	0.0
232	0x0000000000000000	0.0
233	0x0000000000000000	0.0
234	0x0000000000000000	0.0
235	0x0000000000000000	0.0
236	0x0000000000000000	0.0
237	0x0000000000000000	0.0
238	0x0000000000000000	0.0
239	0x0000000000000000	0.0
240	0x0000000000000000	0.0
241	0x0000000000000000	0.0
242	0x0000000000000000	0.0
243	0x0000000000000000	0.0
244	0x0000000000000000	0.0
245	0x0000000000000000	0.0
246	0x0000000000000000	0.0
247	0x0000000000000000	0.0
248	0x0000000000000000	0.0
249	0x0000000000000000	0.0
250	0x0000000000000000	0.0
251	0x0000000000000000	0.0
252	0x0000000000000000	0.0
253	0x0000000000000000	0.0
254	0x3fc7f8c555c87ec6	0.18727938355094959
255	0x400c41b28f0ff692	3.5320788552042552
